trained_models/IOD_Training/crr_nn_best_model_noise_25.pth (torch, 57798 bytes, 3 tensors)

conv_layer.conv_layers.0.parametrizations.weight.original f4 [8, 1, 7, 7]
-0.15275787 0.1481106 0.027147671 0.08121097 -0.121672735 -0.019223088 -0.11755044 -0.123691514
0.13397945 -0.13713056 -0.15983713 0.1365014 0.022722572 0.054761317 -0.013614374 -0.08045677
0.15177256 0.027620355 -0.028048627 0.09721797 0.13453752 0.09046669 -0.041468114 0.08937407
0.10601911 -0.16048446 0.0792794 -0.054025985 -0.013680627 -0.13916808 -0.12743427 -0.049931422
0.08576588 -0.1043054 -0.1448093 0.14255798 0.09474663 0.022272859 0.13499029 -0.005524404
-0.13543974 0.05003391 -0.112401105 0.0122759985 -0.087745324 -0.14699152 0.026819838 0.0604875
-0.06297972 0.055664763 0.08111823 -0.0767158 0.017290117 -0.0033015993 -0.017681405 -0.0032820492
-0.0052381586 -0.05416231 0.06735598 0.07389633 -0.099643186 0.10362337 0.10572521 0.1341167
-0.16126026 -0.04407733 0.015306997 -0.017204609 0.024568139 -0.13146512 0.11494527 0.07065623
-0.04477681 -0.12889571 0.046895027 -0.02614148 0.0075142398 -0.061938163 -0.124256745 0.086479336
0.114179365 0.03517902 -0.1563758 0.0492099 -0.13755533 0.055335153 0.03857337 -0.14540954
0.059385486 -0.025774602 -0.0934386 -0.12237742 0.013888799 -0.069327876 0.13126925 -0.15725131
0.074898496 -0.007988195 -0.016571978 0.011189132 0.02517592 -0.072405085 -0.13418914 0.0963968
-0.14969426 0.018376011 0.025344351 0.0131894965 -0.010717085 -0.16064157 0.12611681 0.06431194
0.08233409 -0.09359935 -0.14608046 -0.074922726 0.057419583 -0.06796386 0.12986389 -0.0064318264
0.12200369 -0.13420965 0.08527641 -0.012327678 0.093450524 -0.15271232 -0.15218373 0.12762608
0.13701317 -0.019994698 -0.13707325 -0.15750301 0.067591704 0.04548309 -0.060574703 -0.15073921
0.061454136 0.103818476 -0.03113658 0.00025350475 -0.023589209 0.09621143 0.06509911 -0.04374571
-0.05339669 0.09117532 0.12299075 0.036040563 0.11401473 0.10761299 -0.074474946 -0.005283806
0.1410336 -0.16720667 -0.0010655586 -0.070022926 -0.118815005 -0.07529672 0.07629161 0.022002446
-0.04768644 -0.10439578 0.06588972 0.08805756 -0.15922542 -0.0050391983 -0.018435078 -0.10364445
-0.1019964 -0.12063247 -0.09478558 0.13824213 0.09989833 -0.12984501 0.12234719 -0.012474854
0.057519637 0.118363835 0.012620159 -0.09673487 -0.15420225 0.08112888 -0.061768297 -0.09492134
0.12152268 -0.16395682 0.1703469 0.06253495 -0.16773324 0.12520474 0.044056002 -0.0894655
-0.13209851 0.07146699 0.09194012 0.13740617 -0.06589843 0.053816456 -0.0010085867 -0.07743392
0.0511994 -0.13959977 0.11396262 0.10729879 0.1284568 0.09440973 0.13257448 -0.06410151
0.09277783 -0.16459306 0.09562806 -0.059262414 -0.06684619 -0.104477726 0.15391897 -0.09735916
0.11488467 0.022888783 -0.088437155 -0.114940204 0.107331365 0.06275926 -0.14830674 0.03484804
0.004642846 0.08445409 -0.11043048 -0.06086824 0.07043281 0.13432492 -0.033778545 -0.0687392
0.0836225 -0.13428588 -0.01640739 0.073659346 0.07130486 -0.15189958 0.112485975 -0.10193232
-0.024473723 0.028886156 -0.08438411 -0.044562466 -0.01886726 -0.11401041 -0.04695892 0.036643207
-0.1455664 0.16134785 -0.057451338 0.07679907 0.0090395855 -0.05311015 -0.06361405 0.091741435
00000000: 8f6c 1cbe 4eaa 173e cb64 de3c f051 a63d
00000010: 8e2f f9bd bd79 9dbc 49be f0bd fa51 fdbd
00000020: e931 093e f46b 0cbe 58ac 23be 06c7 0b3e
00000030: b024 ba3c 674d 603d d30e 5fbc 85c6 a4bd
00000040: 446a 1b3e 1544 e23c 3cc6 e5bc 371a c73d
00000050: 34c4 093e 9a46 b93d 78da 29bd c109 b73d
00000060: 8c20 d93d 0a56 24be 3d5d a23d 5a4a 5dbd
00000070: b524 60bc 1482 0ebe 217e 02be e484 4cbd
00000080: 06a6 af3d 129e d5bd e448 14be b8fa 113e
00000090: 850a c23d 9275 b63c e53a 0a3e 0f06 b5bb
000000a0: b7b0 0abe 5bf0 4c3d 8d32 e6bd 4521 493c
000000b0: d2b3 b3bd f284 16be 47b5 db3c bec1 773d
000000c0: 83fb 80bd bc00 643d 5121 a63d 2c1d 9dbd
000000d0: 01a4 8d3c a55f 58bb 98d8 90bc a617 57bb
000000e0: dca4 abbb 4cd9 5dbd eff1 893d f656 973d
000000f0: ba11 ccbd 7d38 d43d 7586 d83d e355 093e
00000100: 6921 25be 6e8a 34bd 33ca 7a3c aef0 8cbc
00000110: 1f43 c93c cb9e 06be 6d68 eb3d 37b4 903d
00000120: e367 37bd 3dfd 03be 0015 403d a826 d6bc
00000130: 033a f63b dfb2 7dbd 527a febd 141c b13d
00000140: dfd6 e93d e017 103d fa20 20be 5290 493d
00000150: 4edb 0cbe 1da7 623d 1cff 1d3d 3de6 14be
00000160: 323e 733d 4225 d3bc bd5c bfbd 03a1 fabd
00000170: d88d 633c c6fb 8dbd 726b 063e 7d06 21be
00000180: 6264 993d ebe0 02bc f5c1 87bc 9f52 373c
00000190: bb3d ce3c 1e49 94bd e168 09be af6b c53d
000001a0: 7449 19be 4a89 963c f59e cf3c c218 583c
000001b0: b696 2fbc 397f 24be c424 013e fab5 833d
000001c0: c69e a83d 04b1 bfbd 1e96 15be 1671 99bd
000001d0: cc30 6b3d a330 8bbd 0afb 043e 12c2 d2bb
000001e0: 12dd f93d 416e 09be 66a5 ae3d 07fa 49bc
000001f0: fd62 bf3d 9e60 1cbe 0dd6 1bbe 69b0 023e
00000200: 2e4d 0c3e eccb a3bc ee5c 0cbe 7848 21be
00000210: 856d 8a3d 7a4c 3a3d 2e1d 78bd 615b 1abe
00000220: 55b7 7b3d c89e d43d 2412 ffbc d5e8 8439
00000230: 283e c1bc 800a c53d af52 853d b42e 33bd
00000240: 7db6 5abd 20ba ba3d 93e2 fb3d 459f 133d
00000250: 8e80 e93d 3364 dc3d 5286 98bd c723 adbb
00000260: 1d6b 103e 3a38 2bbe 37aa 8bba 2e68 8fbd
00000270: 4855 f3bd 2b35 9abd c73e 9c3d 793e b43c
00000280: db52 43bd 74cd d5bd 31f1 863d 8657 b43d
00000290: fd0b 23be dc1f a5bb 2905 97bc 8b43 d4bd
000002a0: 7de3 d0bd 280e f7bd f11e c2bd 588f 0d3e
000002b0: 7f97 cc3d 17f6 04be 2a91 fa3d 5463 4cbc
000002c0: b699 6b3d bd68 f23d c9c4 4e3c ee1c c6bd
000002d0: 32e7 1dbe e626 a63d c100 7dbd 1f66 c2bd
000002e0: e2e0 f83d 4ce4 27be 6b6f 2e3e 5312 803d
000002f0: 43c2 2bbe ac35 003e 1174 343d b039 b7bd
00000300: d544 07be 495d 923d 1a4b bc3d 34b4 0c3e
00000310: c2f5 86bd a56e 5c3d 8e32 84ba ad95 9ebd
00000320: 76b6 513d 3ef3 0ebe 3c65 e93d 78bf db3d
00000330: 2e8a 033e e359 c13d 9bc1 073e a747 83bd
00000340: 4e02 be3d 158b 28be a5d8 c33d 25bd 72bd
00000350: a8e6 88bd 6bf8 d5bd ef9c 1d3e 3d64 c7bd
00000360: a748 eb3d 4281 bb3c 8a1e b5bd c565 ebbd
00000370: 8cd0 db3d ed87 803d b9dd 17be d2bc 0e3d
00000380: 0423 983b 44f6 ac3d 6029 e2bd fa50 79bd
00000390: 143f 903d 798c 093e 5f5b 0abd 23c7 8cbd
000003a0: 4642 ab3d 3d82 09be ca68 86bc b6da 963d
000003b0: 4808 923d 908b 1bbe 0c5f e63d e4c1 d0bd
000003c0: 1e7d c8bc a9a2 ec3c 94d1 acbd 2287 36bd
000003d0: 838f 9abc 4a7e e9bd ff57 40bd 3017 163d
000003e0: 5c0f 15be 5f38 253e 1852 6bbd d548 9d3d
000003f0: c51a 143c 078a 59bd 1548 82bd efe2 bb3d

conv_layer.conv_layers.1.parametrizations.weight.original f4 [32, 8, 7, 7]
0.027030984 -0.0034371286 0.02907069 0.07573395 -0.04213619 0.064343 -0.023749217 -0.0020845563
-0.041942105 0.007074443 -0.040699568 -0.06234136 -0.012862437 -0.036483902 0.053696234 0.03515921
-0.00048515934 -0.0548241 -0.0012394806 -0.03981347 -0.07103973 -0.035844717 0.069106184 0.0056448607
0.031075785 -0.0146479625 -0.011248991 0.017841851 0.057762213 -0.025042769 -0.00033512746 0.010902888
0.0034442474 -0.02427668 0.009604041 0.04061973 -0.028277889 0.0017678286 -0.045750294 -0.031395927
-0.0065507335 0.0039283494 0.013961677 -0.024269948 -0.030702017 -0.023241261 0.050536275 -0.007377069
-0.026056541 0.00834558 0.06577478 0.0072089313 0.030309258 -0.07193116 0.011909274 0.03993966
-0.026045121 0.0078075184 -0.05134581 0.021691598 -0.012459409 0.0028862823 -0.0008613393 -0.02215403
0.06503842 0.027716542 -0.011362405 -0.0038914285 0.05533878 -0.059545103 0.07073941 -0.058376268
-0.021742111 -0.06416535 -0.016201194 0.017914815 -0.024147281 0.019393843 0.045441333 0.0067199394
-0.04841562 0.030088386 -0.0785818 0.018283123 -0.054393865 0.0018869152 0.035024323 -0.0037007495
-0.061634205 -0.03796128 -0.022950724 0.04055956 -0.008641985 -0.056339737 -0.013937251 -0.0022490728
-0.024939291 0.01705697 0.039745133 0.011217101 0.05799102 -0.007202298 0.03523877 -0.024038345
-0.020327844 0.066485174 -0.006217725 0.0036331941 0.00065099896 0.025047386 -0.0363894 -0.027825091
-0.06675664 0.014334918 -0.0007445401 -0.018629685 -0.014947456 -0.027310934 -0.011522474 -0.037616484
-0.051761348 -0.022250634 0.047723915 -0.03029855 0.03549935 -0.05415381 0.040815394 -0.013196461
-0.02044895 -0.025253702 -0.051533673 0.009560587 0.035495337 -0.033292323 0.009045155 0.035701748
-0.02027669 0.01695265 -0.023474889 -0.026846383 -0.001517396 0.037915897 -0.0413116 -0.030594395
0.043454386 -0.061801802 0.051017575 0.04592889 0.0469122 -0.037690673 -0.014008404 0.025934616
-0.042441826 -0.009282669 -0.031303145 -0.020474335 0.0234486 -0.06508367 0.0201844 0.064823925
0.041719247 -0.048506252 0.045181185 0.031797443 0.046715014 0.046632245 -0.080588475 -0.022868305
0.049807355 -0.032267656 0.020635575 -0.005643575 0.030474693 0.020662097 -0.03858637 0.04337227
-0.028786475 0.03272307 -0.03977876 -0.030811217 0.049805366 -0.0508894 -0.0047988095 -0.026209926
-0.021393742 0.05142236 0.0015154189 0.002863419 -0.056339327 -0.06230216 0.016862966 0.0092624435
-0.014475969 -0.0073275226 0.0022461675 0.03442368 0.042008992 -0.05738194 -0.021786148 -0.0412147
0.05957268 -0.072340846 0.03600592 -0.016416185 0.018046722 0.025273826 0.0252981 -0.021850595
-0.01717553 0.0104747545 -0.08136859 -0.024372716 0.025901347 -0.030488078 0.0068916995 0.029477056
0.03252974 0.005455034 0.04295428 -0.042952687 -0.0049198153 -0.008147244 0.01967536 -0.0064123394
0.050082847 -0.058013197 0.048437335 -0.062372554 0.035296753 -0.006982122 -0.0043458566 -0.032565396
0.00031653268 -0.0378896 0.065877564 -0.03038873 0.015804142 0.04109481 0.06663297 0.001746997
0.07874478 0.010655177 -0.07687293 -0.054347448 0.0032829435 0.019167239 -0.06289447 0.03354841
-0.040857047 0.010233659 -0.05330779 0.025444195 0.008787417 0.016996868 -0.055016745 0.06738708
00000000: 1570 dd3c 7341 61bb a825 ee3c 671a 9b3d
00000010: ff96 2cbd 43c6 833d b88d c2bc 0d9d 08bb
00000020: 7ccb 2bbd bbd0 e73b 97b4 26bd a759 7fbd
00000030: f9bc 52bc 2570 15bd 95f0 5b3d 1b03 103d
00000040: fc5c feb9 3c8f 60bd 1176 a2ba 7313 23bd
00000050: 477d 91bd e9d1 12bd 8b87 8d3d 86f8 b83b
00000060: a592 fe3c 02fe 6fbc b04d 38bc 1329 923c
00000070: 1298 6c3d 7e26 cdbc 0cb4 afb9 07a2 323c
00000080: e2b8 613b e3df c6bc 455a 1d3c e060 263d
00000090: 08a7 e7bc 7cb6 e73a a964 3bbd 0499 00bd
000000a0: 89a7 d6bb 62b9 803b 85bf 643c c5d1 c6bc
000000b0: cc82 fbbc 7564 bebc 20ff 4e3d 57bb f1bb
000000c0: 8774 d5bc e6bb 083c eeb4 863d e638 ec3b
000000d0: 1f4b f83c a550 93bd 1e1f 433c c597 233d
000000e0: 945c d5bc 36d6 ff3b fc4f 52bd 94b2 b13c
000000f0: 8d22 4cbc c827 3d3b 80cb 61ba 5e7c b5bc
00000100: dd32 853d cd0d e33c 6129 3abc 5607 7fbb
00000110: ebaa 623d 91e5 73bd d3df 903d f41b 6fbd
00000120: 831c b2bc 1f69 83bd 5eb8 84bc 17c2 923c
00000130: 85d0 c5bc d6df 9e3c b120 3a3d f032 dc3b
00000140: 754f 46bd eb7b f63c 7fef a0bd 7dc6 953c
00000150: 1acc 5ebd 5e52 f73a aa75 0f3d 4688 72bb
00000160: 2674 7cbd 4a7d 1bbd 2803 bcbc c821 263d
00000170: 1d97 0dbc 7fc4 66bd 1159 64bc 2e65 13bb
00000180: 7c4d ccbc 0fbb 8b3c cbcb 223d eec7 373c
00000190: fe87 6d3d 4101 ecbb 8756 103d 10ec c4bc
000001a0: 9486 a6bc 6129 883d 0fbe cbbb e21a 6e3b
000001b0: cda7 2a3a 2d30 cd3c 0d0d 15bd 72f1 e3bc
000001c0: b5b7 88bd 01dd 6a3c 3e2d 43ba 489d 98bc
000001d0: 2de6 74bc 2ebb dfbc c2c8 3cbc be13 1abd
000001e0: b503 54bd f646 b6bc 277a 433d aa34 f8bc
000001f0: c467 113d 63d0 5dbd 0b2e 273d f835 58bc
00000200: 8e84 a7bc dae0 cebc f914 53bd 02a4 1c3c
00000210: 8f63 113d 885d 08bd 2132 143c ff3b 123d
00000220: 4d1b a6bc 49e0 8a3c 694e c0bc f2ec dbbc
00000230: 5ce3 c6ba b34d 1b3d 5a36 29bd 19a1 fabc
00000240: 3afd 313d e323 7dbd cef7 503d ef1f 3c3d
00000250: 0227 403d 8961 1abd 8183 65bc d574 d43c
00000260: 7bd7 2dbd 5616 18bc ba37 00bd cbb9 a7bc
00000270: 4717 c03c 964a 85bd c159 a53c 68c2 843d
00000280: cde1 2a3d 7eae 46bd e80f 393d 093e 023d
00000290: 3e58 3f3d 7401 3f3d 920b a5bd 5056 bbbc
000002a0: cc02 4c3d 172b 04bd f00b a93c bded b8bb
000002b0: 10a6 f93c 8f43 a93c be0c 1ebd 1fa7 313d
000002c0: 9dd1 ebbc a008 063d 0eef 22bd ce67 fcbc
000002d0: b600 4c3d 6771 50bd 553f 9dbb 33b6 d6bc
000002e0: ee41 afbc 41a0 523d 05a1 c63a 33a8 3b3b
000002f0: 11c4 66bd 8d30 7fbd 3424 8a3c 81c1 173c
00000300: 9d2c 6dbc b71b f0bb 7034 133b d8ff 0c3d
00000310: 9f11 2c3d 5309 6bbd dd78 b2bc bfd0 28bd
00000320: 7c02 743d 7027 94bd f27a 133d 3c7b 86bc
00000330: b8d6 933c 0e0b cf3c f63d cf3c 0500 b3bc
00000340: b2b3 8cbc 4e9e 2b3c 93a4 a6bd 4aa9 c7bc
00000350: 102f d43c 22c2 f9bc c4d3 e13b de79 f13c
00000360: e83d 053d 24c0 b23b d4f0 2f3d 28ef 2fbd
00000370: 6736 a1bb 057c 05bc 382e a13c 9a1e d2bb
00000380: ac23 4d3d 3f9f 6dbd 3a66 463d 5d7a 7fbd
00000390: 5493 103d 49ca e4bb b067 8ebb 4b63 05bd
000003a0: 4cf4 a539 2032 1bbd d1ea 863d c9f1 f8bc
000003b0: b077 813c 0853 283d de76 883d 7efb e43a
000003c0: f144 a13d 0d93 2e3c 8e6f 9dbd 6e9b 5ebd
000003d0: a726 573b 9d04 9d3c d1ce 80bd 0f6a 093d
000003e0: b859 27bd 14ab 273c 4559 5abd 5870 d03c
000003f0: 19f9 0f3c 043d 8b3c 3d59 61bd 3d02 8a3d

activation.coefficients_vect f4 [672]
-0.0 -0.00064609566 0.0004421097 -0.00070174783 0.000537468 -0.0003686159 -0.00042483842 -0.0009436357
0.0006891234 -0.00039105953 -0.0010640746 0.0010722375 0.0003465228 -0.0007349021 0.00087457703 -0.00052751735
0.0007517497 -0.0005815293 0.00070870924 0.0007238314 0.0 -0.0 -0.00031429378 8.5173386e-05
-0.00037793026 -0.00042118624 -0.0006938161 0.0005639313 -0.0003548309 -0.00039978078 -0.0011551704 0.0011576641
0.00045124357 0.00041249458 0.0003630151 -0.0005779625 0.0007353948 0.00029951124 -0.00013284833 0.00035753683
0.0003878028 0.0 -0.0 -0.0006175436 0.00038918262 -0.00068246736 0.00048594916 -0.0007821257
0.00060545787 -0.00036924164 -0.001027231 -0.0006845612 0.001097683 -0.0008102205 0.0010777669 0.0004391851
0.00042131665 0.0003858799 -0.00050932437 0.0007126294 -0.00042451822 0.0006610366 0.0 -0.0
-0.0006026533 0.00037164055 -0.000299511 -0.00029951122 -0.00037857945 -0.00044214432 -0.0009766446 0.00070262287
-0.001143077 0.0011359807 -0.0005075859 0.0010523532 0.0003656845 -0.0006311512 0.0007989986 -0.00048760758
0.0006809075 -0.00039063997 0.00061716675 0.0 -0.0 -0.00042168342 -0.00085682207 0.0006727272
-0.00029951124 -0.00037454464 -0.00042123377 -0.0010143258 0.0007567221 -0.0011434096 0.00040499782 0.0011390635
-0.0007222899 0.0009910114 0.00037422095 -0.00065984513 0.00083508977 0.0003905203 -0.0005624338 0.0007918985
0.0 -0.0 -0.0006245863 0.00040770663 -0.0006616699 0.00048186065 -0.00072203844 0.00055987726
-0.0003626535 -0.00040878495 -0.0009165757 -0.0022548626 0.001044243 0.000350539 -0.0006264362 0.00076895213
0.00029951122 -0.00042744903 0.00059619185 -0.00034941494 0.0005588837 0.0 -0.0 -0.0004223558
-0.00046840936 -0.00065350207 0.0004975857 -0.00037919788 -0.00044372425 -0.0009305409 0.00066144776 -0.0010896262
0.00038329593 0.0010959557 0.00036041485 -0.00068629906 0.00084698637 -0.00053625024 0.00070383307 0.00038380487
-0.00038015685 0.0006033014 0.0 -0.0 -0.0004778749 0.00024457488 -0.00059198367 0.0004059185
-0.00037751248 -0.00042086936 -0.0004217315 -0.0009893752 -0.00070850167 0.00028816218 0.0011402707 -0.0007031
0.0009785596 0.00037602306 0.00029951124 -0.00048559168 0.00068288273 -0.00030167858 0.00053873705 0.0
-0.0 -0.0004219858 -0.000640445 0.00047756365 -0.0003778683 -0.00042115292 -0.0008681546 0.0005851604
-0.000407286 -0.0011812304 0.0011621192 0.00034745474 -0.0008442843 0.0009793928 0.00037415096 -0.0005201103
0.0006933985 0.00029951092 -0.00032480288 0.0005417708 0.0 -0.0 -0.0007286846 -0.0006701537
0.00049923395 -0.0003807788 -0.000421957 -0.0008731874 0.0005943828 -0.00040142378 -0.0011050197 0.0011022034
-0.0004874255 0.0010365623 0.00036906582 -0.0006203644 0.0007915445 -0.00046080994 0.0006547171 -0.0003062182
0.0005381874 0.0 -0.0 -0.0007146421 0.0005007787 -0.00038364195 -0.0007870869 0.0006266652
-0.0002995113 -0.0003638293 -0.00042073755 -0.0011153062 -0.0003106318 0.0010947061 -0.00039825137 0.0009401889
0.00036597226 -0.000537488 0.000764841 -0.000569415 0.00069231185 0.0008013163 0.0 -0.0
-0.00042129608 0.00017833278 -0.000527449 0.00033020528 -0.00029951122 -0.0003784786 -0.0008848098 0.00059721805
-0.0004056648 -0.0011018633 0.0011008566 -0.00064240454 0.00090978155 0.00037505524 -0.00045398134 0.00064121373
0.00029951104 -0.00018919609 0.00042715055 0.0 -0.0 -0.0006452266 -0.0006273519 -0.0005610097
00000000: 0000 0080 bf5e 29ba f6ca e739 80f5 37ba
00000010: dee4 0c3a ca42 c1b9 d9bc deb9 525e 77ba
00000020: 4aa6 343a 1f07 cdb9 6b78 8bba 528a 8c3a
00000030: 81ad b539 72a6 40ba df43 653a 1749 0aba
00000040: 1211 453a c571 18ba acc8 393a 81bf 3d3a
00000050: 0000 0000 0000 0080 ccc7 a4b9 1d9f b238
00000060: f124 c6b9 a9d2 dcb9 36e1 35ba cad4 133a
00000070: 9908 bab9 ab99 d1b9 1669 97ba c3bc 973a
00000080: e394 ec39 1644 d839 1053 be39 6882 17ba
00000090: 82c7 403a b807 9d39 344d 0bb9 c873 bb39
000000a0: 0352 cb39 0000 0000 0000 0080 a6e2 21ba
000000b0: 350b cc39 9ce7 32ba fec6 fe39 9107 4dba
000000c0: 97b7 1e3a c696 c1b9 27a4 86ba 2074 33ba
000000d0: 21e0 8f3a fa64 54ba db43 8d3a 6d42 e639
000000e0: 2ae4 dc39 ec4f ca39 2e84 05ba c0cf 3a3a
000000f0: df91 deb9 6a49 2d3a 0000 0000 0000 0080
00000100: 61fb 1dba c0d8 c239 b007 9db9 b707 9db9
00000110: 137c c6b9 9bcf e7b9 c102 80ba 3930 383a
00000120: 4dd3 95ba 30e5 943a 830f 05ba 1def 893a
00000130: 58b9 bf39 d773 25ba e373 513a 95a5 ffb9
00000140: ee7e 323a cfce ccb9 5cc9 213a 0000 0000
00000150: 0000 0080 6415 ddb9 5b9c 60ba f559 303a
00000160: b807 9db9 885e c4b9 0ad9 dcb9 20f3 84ba
00000170: c35e 463a 76de 95ba e355 d439 a14c 953a
00000180: 0e58 3dba d3e4 813a 1633 c439 75f9 2cba
00000190: ede9 5a3a bfbe cc39 4b70 13ba 6997 4f3a
000001a0: 0000 0000 0000 0080 47bb 23ba 75c1 d539
000001b0: ea73 2dba 3ea2 fc39 2e47 3dba bac4 123a
000001c0: 8722 beb9 3052 d6b9 5b46 70ba 51c6 13bb
000001d0: fbde 883a 8cc8 b739 6c37 24ba 8193 493a
000001e0: b707 9d39 3d1b e0b9 c249 1c3a ae31 b7b9
000001f0: 0d82 123a 0000 0000 0000 0080 a36f ddb9
00000200: d794 f5b9 c84f 2bba 6970 023a 14cf c6b9
00000210: a9a3 e8b9 8bef 73ba 0265 2d3a cad1 8eba
00000220: 1cf5 c839 2ca6 8f3a 10f6 bc39 c0e8 33ba
00000230: 4b08 5e3a 2593 0cba 7081 383a 6b39 c939
00000240: ca4f c7b9 df26 1e3a 0000 0000 0000 0080
00000250: 498b fab9 493a 8039 5a2f 1bba 75d1 d439
00000260: deec c5b9 21a8 dcb9 d81b ddb9 ecad 81ba
00000270: beba 39ba 7914 9739 2375 953a 3e50 38ba
00000280: 0343 803a f624 c539 b807 9d39 0397 feb9
00000290: 7c03 333a 9d2a 9eb9 083a 0d3a 0000 0000
000002a0: 0000 0080 fa3d ddb9 89e3 27ba 8261 fa39
000002b0: a01c c6b9 30ce dcb9 de94 63ba 7365 193a
000002c0: 0089 d5b9 84d3 9aba 4052 983a 962a b639
000002d0: f652 5dba f85e 803a b129 c439 0358 08ba
000002e0: 30c5 353a ad07 9d39 4e4a aab9 9f05 0e3a
000002f0: 0000 0000 0000 0080 3205 3fba 41ad 2fba
00000300: 06df 023a 44a3 c7b9 1c3a ddb9 9de6 64ba
00000310: 5bd0 1b3a 3076 d2b9 4fd6 90ba cf77 903a
00000320: 258d ffb9 42dd 873a 2d7f c139 f39f 22ba
00000330: a77f 4f3a dd98 f1b9 52a1 2b3a e98b a0b9
00000340: 2515 0d3a 0000 0000 0000 0080 d256 3bba
00000350: b146 033a 8d23 c9b9 8254 4eba ca46 243a
00000360: ba07 9db9 58c0 beb9 7096 dcb9 772f 92ba
00000370: 4bdc a2b9 3e7c 8f3a 65cc d0b9 0277 763a
00000380: f7df bf39 36e6 0cba 9c7f 483a cb44 15ba
00000390: 437c 353a 6d0f 523a 0000 0000 0000 0080
000003a0: 67e1 dcb9 d7fe 3a39 8144 0aba 671f ad39
000003b0: b707 9db9 8a6e c6b9 95f2 67ba a08e 1c3a
000003c0: 68af d4b9 666c 90ba 9e4a 903a 0a67 28ba
000003d0: 687e 6e3a 10a3 c439 5804 eeb9 2017 283a
000003e0: b107 9d39 f062 46b9 2df3 df39 0000 0000
000003f0: 0000 0080 6d24 29ba e074 24ba b910 13ba
