trained_models/IOD_Training/crr_nn_best_model_25.pth (torch, 57674 bytes, 3 tensors)

conv_layer.conv_layers.0.parametrizations.weight.original f4 [8, 1, 7, 7]
000000 56 0d 41 bd 8c e7 5f bc ea 5d 15 bd 38 ad 44 3d
       -0.04713186 -0.013666045 -0.036466517 0.048016757
000010 ae 40 10 3e fc fa 0a be 8a dd 2f 3d e6 58 00 be
       0.14087173 -0.13572305 0.042935885 -0.12533912
000020 35 78 e5 3b 32 9f a6 3d 16 a7 eb 3c 11 de ad bc
       0.007002855 0.08135833 0.028766196 -0.021224054
000030 06 0d 67 3d b4 49 14 3e 3b 20 06 3d fa 46 f0 3d
       0.056408904 0.1448124 0.03274558 0.11732288
000040 5d d1 eb bd 53 71 9a bd a9 77 0a 3e 54 a2 f0 bd
       -0.11514542 -0.07541146 0.13522209 -0.11749712
000050 dc 8a db bd 18 ae 79 bd 8b 4e ca 3c f9 01 5a bd
       -0.10719845 -0.060957044 0.024695655 -0.053224538
000060 f3 1d 57 b9 aa 27 b9 3d 0d c2 a5 bd 58 82 01 3e
       -0.00020515155 0.090407684 -0.08093653 0.12647378
000070 52 3f b7 bd 02 08 c4 bc 9a b9 99 3d 75 7d 0f be
       -0.08947624 -0.0239296 0.07506104 -0.14012702
000080 34 ee 6c 3d 9f ab 64 3d 24 d6 8f 3d b9 e9 90 bc
       0.057844356 0.055827733 0.07023266 -0.017689573
000090 8f c4 0f 3e d4 91 e0 bd 0c 6c e9 bd 59 d2 2e bd
       0.14039825 -0.109653145 -0.113975614 -0.042681072
0000a0 a2 28 11 3d 72 60 fa 3c 94 ca e1 bc 4a 1d b5 3d
       0.03543914 0.030563567 -0.027562417 0.08843477
0000b0 53 d9 bc bd 76 bf 0a be 5e a5 8b 3d b4 8b 6a 3d
       -0.09221139 -0.13549599 0.06818651 0.057262138
0000c0 8e 36 9d 3d 7a 54 3a bd 08 fb 1a 3d 26 19 e5 3d
       0.07676421 -0.04549072 0.03783706 0.11186437
0000d0 dd 72 03 be b3 31 06 be d2 ab 18 3e 2b 05 f9 bd
       -0.12836786 -0.13104896 0.14909294 -0.12159189
0000e0 1a 9f 97 3d 24 fc 59 3c 49 0e a3 3d 51 b9 d6 3d
       0.07403393 0.013304744 0.07961709 0.10484565
0000f0 2d ae a8 bd 49 c7 cb 3d 51 60 c2 3d 98 c5 f0 3d
       -0.082363464 0.0995012 0.09491027 0.11756438
000100 ea 94 97 3d 8f 81 13 be 25 48 1b bd d4 dd da 3d
       0.0740145 -0.14404891 -0.0379106 0.106868416
000110 cd 6d 86 3d 72 0e e4 bd df 80 b5 3b 21 a5 2e 3d
       0.065639116 -0.11135568 0.0055390443 0.042637948
000120 5f 06 9f bd f6 6a b3 3c 9c b3 5d 3d 90 aa 5c bd
       -0.07764887 0.021901589 0.054126367 -0.0538736
000130 54 cb da bc bd e1 a7 3d 6b c7 d7 bd df c8 2c 3d
       -0.026708283 0.08197353 -0.10536083 0.042183753
000140 5d 6d 63 bd 6b ea 22 3e 75 df c6 bd 9b c4 04 3e
       -0.05552422 0.15909736 -0.0971059 0.12965624
000150 91 d7 8b 3d 18 9b 81 3d 2f 72 cd 3d 3c 20 e6 3a
       0.068282254 0.0632841 0.100315444 0.0017557214
000160 fb e3 22 3c af 62 12 be 44 78 21 3e d7 4b f9 3c
       0.00994205 -0.14295457 0.15768534 0.030431671
000170 d0 98 02 3e 9c 8e ce bd 6c a7 b3 bc 8c 9e 9a bd
       0.12753606 -0.10085794 -0.021930419 -0.07549772
000180 a5 2b e1 bd 7a 13 01 3e de 36 fa bc ad da b2 bd
       -0.10994653 0.12605086 -0.03054374 -0.08733115
000190 6b 93 ae bc 48 d9 63 3b 1f ae 00 be b7 bb 8a 3d
       -0.021310529 0.003476696 -0.12566422 0.06774085
0001a0 e2 65 bc 3d 33 79 5d 3c c1 a5 fd bc 1e c5 2d 3e
       0.0919912 0.013517666 -0.030962827 0.16969725
0001b0 c0 dc ee 3c 12 f6 bb 3c d0 ec 00 3e b5 7f 8e 3d
       0.029157996 0.022944484 0.12590337 0.06957952
0001c0 84 4e 0e 3d dd b0 16 3e 1d 0b 0c be 6b f1 06 3b
       0.034742847 0.14715905 -0.13676114 0.0020590674
0001d0 2a 3e 1c 3e 4a 8c 48 bd 99 d4 a7 3d b7 45 10 3e
       0.15258089 -0.048961915 0.08194847 0.14089094
0001e0 8f bd d8 bd 62 01 b8 bd b1 3d 91 3b 8e cc eb bd
       -0.105830304 -0.08984639 0.004432403 -0.11513625
0001f0 8d 15 21 bd d8 8e 3d bd d9 0a 2a bd 00 7c 2d be
       -0.039327193 -0.046278805 -0.04151425 -0.16941833
000200 21 80 9f bc 88 8b 04 be 59 47 7e 3d df 84 d4 bd
       -0.019470276 -0.12943852 0.06207976 -0.10376906
000210 3e 16 27 be be c1 46 3d 5a 1a 09 3e bd 5f b2 3d
       -0.16317078 0.04852461 0.13388959 0.08709667
000220 41 ad 14 bd 84 e8 75 bd b4 f8 4d 3c 90 c8 9c 3d
       -0.03629804 -0.060036197 0.0125715025 0.07655442
000230 e8 e7 d1 bc df 83 9a 3d fe a2 df bc 72 19 49 bd
       -0.025623277 0.07544684 -0.0272994 -0.049096532
000240 af 6a 07 3e 30 57 03 be d1 46 4c 3d 41 8f 19 be
       0.1322429 -0.12826228 0.049872223 -0.14996053
000250 c9 aa de 3d 40 9f 31 3d 48 5b 8c bd 64 5d cd 3d
       0.108724184 0.043364763 -0.06853348 0.100275785
000260 16 72 f8 3c b8 11 d3 3d 0c f4 d0 bb 7e 37 cc bc
       0.030327838 0.10306114 -0.006376749 -0.024928804
000270 dd 3b 84 bc 19 ef 05 be a1 2a e3 bd 63 ce 35 bd
       -0.016141826 -0.1307949 -0.11092115 -0.04438628
000280 f2 f9 d9 3c c0 02 04 3d 90 03 b7 3d 08 2e 20 3e
       0.026608441 0.032229185 0.08936226 0.1564256
000290 d2 01 e7 3d 81 c4 98 3d 5a 6e 8a bd 70 4b e6 bd
       0.11279644 0.07459355 -0.06759329 -0.11244857
0002a0 b2 57 87 bc 69 c7 da 3d 31 99 dd bd 4c fd 6f 3d
       -0.016521309 0.10682566 -0.108202346 0.058591172
0002b0 ce 2a f2 bd 78 a3 b4 bd 48 35 23 bd c5 ab 59 bd
       -0.118245706 -0.08820242 -0.039845735 -0.053142328
0002c0 f7 a9 be 3c 99 06 1c be 24 28 0e 3e e4 f6 65 bc
       0.023274405 -0.15236892 0.138825 -0.014035914
0002d0 c6 c9 74 3d 8f 24 ca 3d 92 9d e7 bd 00 47 be bd
       0.05976274 0.09870254 -0.11309351 -0.09290886
0002e0 e5 bb f2 3d 39 ed 95 bc f4 d6 9d 3d 67 7d f4 3d
       0.11852244 -0.018301593 0.07707015 0.11937981
0002f0 b0 e1 61 3d 81 1f 0b 3e 8c e5 1f 3c 72 db 2d 3d
       0.055146873 0.13586237 0.009759318 0.042445607
000300 4c a3 31 bd ad c1 11 be 4b a4 df 3d 13 3f 6e 3d
       -0.043368623 -0.14234038 0.10920008 0.05816562
000310 d6 d8 cc bc a8 e1 c7 3d 5e 54 08 3e 0e 21 f1 ba
       -0.02500574 0.097598374 0.13313434 -0.0018396692
000320 28 12 9a bd 01 6b 6a 3c 07 6b ba bd d6 c1 96 3d
       -0.07522994 0.014307738 -0.09102445 0.0736119
000330 88 5a 32 bd 66 e6 ab ba 20 41 52 3d 1b 7f e1 bd
       -0.04354337 -0.0013114929 0.05133164 -0.110105716
000340 d4 43 03 bc 49 e0 fd bd 8a 22 df 3d 3f 1b 6a 3d
       -0.008011777 -0.123962946 0.1089526 0.05715489
000350 3e 92 89 bd 14 6a 1e bd 33 b4 db 3d 75 cd d5 3d
       -0.067173466 -0.038675383 0.1072773 0.104395784
000360 5c eb 96 bd 0d ea a8 3d 69 a1 16 be e6 bd db 3d
       -0.0736911 0.08247767 -0.1471001 0.1072958
000370 d6 ed 80 bd d0 a3 09 be 3c 94 a0 3d 0f 6f 5b 3d
       -0.062953636 -0.13441396 0.078407735 0.05357271
000380 31 2a ac 3d 36 98 da bd f7 77 e5 bd 11 70 e0 3d
       0.08406485 -0.10673563 -0.11204522 0.10958875
000390 71 ff c5 3c eb 5a df bd 6e f9 63 3d 0a 8d 82 3d
       0.024169656 -0.10906013 0.055657797 0.06374557
0003a0 45 2f fd 3c ed a9 d9 bd 8a 07 95 bd 61 e5 22 3e
       0.030906329 -0.10628114 -0.072768286 0.15907814
0003b0 e9 cb a5 3d 01 84 c9 bd af c8 0d bc e3 bb ec 3d
       0.080955334 -0.09839631 -0.008653804 0.11559274
0003c0 62 f1 bf bc 3c ba b1 bd 95 2f 28 bd c6 81 2d 3d
       -0.02343053 -0.086780995 -0.041061003 0.04236009
0003d0 56 4f 60 bd fc f5 51 bd b7 bf 7d bd 2f 30 ae bd
       -0.05476316 -0.05125998 -0.06195041 -0.08505284
0003e0 01 3f 12 3e be 50 16 be 6e 7c 13 3d 45 85 60 bd
       0.14281847 -0.14679238 0.036007337 -0.054814596
0003f0 83 f2 0d be a2 35 0f be b8 54 12 be 7c 6b f9 3d
       -0.13862042 -0.13985303 -0.1429013 0.12178704

conv_layer.conv_layers.1.parametrizations.weight.original f4 [32, 8, 7, 7]
000000 37 66 59 bc 83 61 1a 3d 06 21 7f 3d 3a b4 46 bd
       -0.013268999 0.03769065 0.062287353 -0.04851172
000010 61 ea 09 3c 90 ef 4e 3d 1a b4 a9 3b ea fb a9 bc
       0.008417697 0.050521433 0.0051789405 -0.020750005
000020 87 27 8f bc e3 9a 6b 3d 2b 00 29 bc 50 43 32 39
       -0.017474903 0.05752076 -0.010314981 0.00017000479
000030 75 54 7d 3c 4e 6a 30 bb ac d2 10 3d b9 ee 6b bd
       0.015462031 -0.0026918831 0.035357162 -0.05760071
000040 53 01 1f bd 7b 5b 68 3c b5 b9 90 3b 2f 45 1f 3c
       -0.038819622 0.014181967 0.0044166693 0.0097210845
000050 b7 de 4e bb 9d 98 fc 3c 00 27 80 bd 2f ef 4c bc
       -0.0031565854 0.03083449 -0.06257439 -0.012508198
000060 d2 63 8a ba 43 e9 42 bd 40 14 be bc db 15 2d 3a
       -0.0010558313 -0.047585737 -0.023203015 0.0006602683
000070 62 f9 1e 3d 85 4f 7e bd 28 9d 87 ba 39 e7 8a 3d
       0.03881205 -0.062087554 -0.0010346519 0.067823835
000080 96 a9 51 bc 2d 72 2c 3d 3a 2e fe 3b 53 92 4a bd
       -0.01279678 0.042101074 0.0077569755 -0.049455952
000090 5f d0 d3 bc a0 e2 6d bd 61 46 10 bd 84 e0 94 3c
       -0.025856195 -0.058077455 -0.03522337 0.018173464
0000a0 20 f4 58 3b 6d 46 7e bc b8 ad 91 3d 3a e7 b5 3c
       0.0033104494 -0.0155197205 0.07113212 0.022204984
0000b0 52 9f 83 bb 04 55 04 3d 0a 15 64 bd 07 95 6c bd
       -0.004016795 0.03230764 -0.055684127 -0.05775931
0000c0 59 7c e1 3b ad 5d 37 3d d6 1c 5c bc 14 63 06 bd
       0.0068812785 0.04476707 -0.013434609 -0.032809332
0000d0 ab 97 48 bc 17 f9 84 bb 05 f3 a4 3b ec 66 18 bd
       -0.012243192 -0.004058014 0.005033853 -0.03720753
0000e0 43 16 c2 bb a9 7b 8c 3c 66 24 d5 3c 5b 47 12 3d
       -0.005923064 0.01714881 0.026018333 0.03571258
0000f0 81 73 44 bd c3 b2 0a bd a9 79 41 3d 43 c8 b6 bc
       -0.047961716 -0.033861887 0.047235165 -0.02231229
000100 35 88 75 3c 11 dc 5b 3d d7 3f 5c bd 41 48 e4 b8
       0.014986088 0.05367667 -0.05377182 -0.000108853455
000110 bb e1 2f bd 9b 1e 38 3b 5f e6 32 bb f0 22 29 3c
       -0.042939883 0.0028094414 -0.0027297956 0.010323271
000120 03 39 0d 3d 9e dc 14 bd 9a 7f 87 3d c8 38 2e bd
       0.0344782 -0.03634321 0.06616135 -0.04253462
000130 e9 a7 03 3c 5c a7 a5 bc 17 f6 45 bd ee 0b 07 ba
       0.008035638 -0.020221405 -0.048330393 -0.0005151619
000140 d3 21 05 bd 8b ef 77 3b b3 7d 89 3b 8f 52 6a 3d
       -0.03250296 0.0037831988 0.0041958927 0.05720764
000150 98 54 b2 3b e4 be 11 3c 1e 56 6a bd fe d4 98 3c
       0.0054422133 0.0088956095 -0.057211034 0.01865625
000160 16 44 81 bc af 1f 8e bd 70 9c 83 3c 2b 3a c9 bc
       -0.015779536 -0.06939637 0.016065806 -0.02456387
000170 73 d2 2f 3c 22 38 7b 3d 17 80 58 3d 05 4a 1c bc
       0.010731327 0.06133283 0.05285653 -0.009539132
000180 86 21 e1 bb f7 06 1a 3d ef 44 f6 ba 4b f1 99 bd
       -0.0068704514 0.0376043 -0.0018788854 -0.07516726
000190 9e b4 14 3d c7 60 5d bd 28 98 b7 bc 56 08 9f 3c
       0.036305062 -0.054047372 -0.022411421 0.019413155
0001a0 b3 7f 12 3d 88 43 07 3b 5d f3 98 3d 34 a8 52 bd
       0.035766315 0.0020639617 0.07468293 -0.051429942
0001b0 be 10 51 3c 98 84 26 bc 1e 50 75 3c c7 e0 cb bc
       0.012760339 -0.010163449 0.014972715 -0.024887456
0001c0 c5 01 04 3d b0 25 77 3c f0 e7 31 3d 69 ea dc 3c
       0.03222825 0.015084669 0.043434083 0.026967244
0001d0 c9 ab 08 bd ec e4 03 bd 7f e0 ff 3c 25 dc c0 bc
       -0.033366952 -0.03220074 0.031234978 -0.023542473
0001e0 f6 39 b4 3b f5 d6 90 3b c0 b9 54 bd 1d 55 2c bd
       0.0055000735 0.004420156 -0.051934958 -0.042073358
0001f0 d7 41 5d bd 9b 5b 21 3d bf 54 2b bc 79 38 33 bd
       -0.054017868 0.039394002 -0.010457217 -0.04375503
000200 bf 14 2b bd 29 8a ef 3c 94 0c 22 bc 31 49 77 bd
       -0.041767832 0.029240685 -0.009890694 -0.060372535
000210 86 38 8b 3d 67 7e 67 3d 3b 89 83 3c 44 86 35 3d
       0.0679789 0.05651703 0.016056648 0.0443175
000220 74 9f b1 3c dc 35 12 3d 47 33 61 bc 35 6f 87 bd
       0.021682478 0.035695896 -0.013745136 -0.06613008
000230 22 b8 72 ba 65 f9 90 3c b4 07 1a 37 95 15 5d 3c
       -0.00092590053 0.017697046 9.180909e-06 0.013493915
000240 79 55 f7 bc 26 93 c6 bb ff 1a e4 3c 67 75 48 3d
       -0.030192124 -0.006060022 0.027844904 0.04894009
000250 0b b7 01 3d b3 d7 90 bc da 6b 24 3d 94 9f 66 3c
       0.031668704 -0.017680978 0.040141918 0.014076132
000260 d2 db 50 bd 4d bd 3d 3d 3a 37 ce 3c 1c 8a 73 3d
       -0.050990887 0.04632311 0.025172818 0.059457883
000270 ab 7c 71 3d 9d a8 09 bd 8f 79 c3 bc af 56 40 bd
       0.058956783 -0.033608068 -0.023861675 -0.046957668
000280 6f 62 34 bd 76 57 79 bd 08 c7 cf bc dc ac df 3c
       -0.044039186 -0.060874425 -0.02536346 0.027304105
000290 5a 12 67 3d 77 48 62 bd 23 be 82 3d 50 07 3c 3d
       0.056413986 -0.05524489 0.06383922 0.04590541
0002a0 e6 94 5e 3d a0 5d 02 bd dc 53 0b bd ff 5d 6c bd
       0.05434122 -0.03182757 -0.03401552 -0.05770683
0002b0 a7 d6 43 bd 1f f6 1a 3d a3 f3 0e 3c cd 52 81 bd
       -0.04781213 0.037832376 0.00872508 -0.06314621
0002c0 8d 67 8e 3c 66 e5 86 3d c2 17 1c bc 05 60 dc bb
       0.017383361 0.06586723 -0.009527149 -0.0067253136
0002d0 71 3b 34 bc f0 e6 2d bd 2b c6 af 3c 79 f9 0b bd
       -0.0110005 -0.042456567 0.021456799 -0.034173463
0002e0 91 6f 88 bd c3 a9 3f 3d ac 85 2b 3d 01 34 8a 3d
       -0.066619046 0.046792757 0.041875526 0.067482
0002f0 6c 87 e7 3c 01 d1 89 bd 18 c6 3a 3d b1 68 63 bc
       0.028262816 -0.067293175 0.045599073 -0.013879941
000300 6f e8 63 bd 14 9d 01 bd b1 26 8b bd e9 97 34 bd
       -0.055641588 -0.031643942 -0.06794489 -0.044090185
000310 2d 24 23 3c de ae 3e bd 8d 40 fe bc 40 55 ec 3b
       0.009957355 -0.046553485 -0.03103664 0.007212311
000320 5c 0b 2b 3d ae d4 43 3d 5c b2 20 bc 11 67 00 3d
       0.04175888 0.04781025 -0.009808149 0.03134829
000330 f6 9e c5 bb b4 f2 4e bb 96 3e f4 3c 26 b6 c9 3c
       -0.0060309125 -0.0031577768 0.029815 0.024622988
000340 63 10 f4 bc fa 64 0a 3c 48 93 1b 3d 38 e6 f2 bc
       -0.02979297 0.008446926 0.037982255 -0.029650792
000350 f1 b3 12 bd fd 37 ab bc 51 a6 21 bc 4f e2 d4 bc
       -0.035816137 -0.02090072 -0.009866313 -0.025986819
000360 93 f6 13 bd 50 b0 a5 3a 74 ad c9 bc 1c 29 22 3d
       -0.036123823 0.0012641046 -0.024618842 0.039589986
000370 c0 3a 70 bd 9c 6d 21 3d 3b 5d 30 3b ef b3 a5 3c
       -0.05864978 0.039411172 0.0026911038 0.0202274
000380 cb a2 8c bd 68 d5 51 bd db db 2f 3d 43 00 00 3c
       -0.06866988 -0.05122891 0.04293428 0.007812562
000390 dd 62 4b 3c d4 0b 54 bc e8 5a d0 3c 48 2a 50 3c
       0.012413708 -0.012942273 0.025433972 0.012705393
0003a0 d3 9d 0b 3d 52 92 cb bc c7 22 92 bb 96 8e 59 3d
       0.03408606 -0.024850044 -0.004459712 0.053114496
0003b0 b1 07 5a bc 61 9b eb bc 59 97 87 bd 21 9c 3c ba
       -0.013307498 -0.028760614 -0.06620664 -0.0007194896
0003c0 7e 8e f8 3c 5f 8a 6b bd 22 eb 80 3d 3a 2a 03 bd
       0.030341383 -0.057505008 0.06294848 -0.032022692
0003d0 07 06 12 bd cb b2 54 bd ca a2 1e 3c 2b ae db 3c
       -0.03565028 -0.051928323 0.009682367 0.026816448
0003e0 da 6a 40 3d 8c 69 78 bb 95 f3 51 bd 18 a2 03 bd
       0.0469769 -0.0037904708 -0.05125769 -0.032137007
0003f0 2a 4e d7 bc 1d 9b 70 bc 67 30 8f bd f1 b3 7e bc
       -0.026282389 -0.014685419 -0.06991654 -0.015545831

activation.coefficients_vect f4 [672]
000000 00 00 00 80 79 24 97 b7 7d 9e 42 b9 65 07 a5 b9
       -0.0 -1.8017587e-05 -0.00018560323 -0.00031476762
000010 b6 b3 0a 39 e3 b3 80 b9 90 af 27 ba 3b 4e c0 39
       0.00013227653 -0.0002454809 -0.0006396705 0.0003667938
000020 18 5b 8c b9 4e 5f 52 ba 0a 00 9f 3a 59 cf 1a 3a
       -0.0002677075 -0.0008025066 0.0012130749 0.0005905531
000030 2d 11 f7 b9 af 15 3d 3a f4 22 7b 39 e0 c4 4b 39
       -0.00047124308 0.0007213009 0.00023950246 0.0001943293
000040 d5 b0 4a b9 f7 c3 c0 39 87 10 4b 36 59 0d 45 39
       -0.00019330096 0.000367671 3.0258977e-06 0.00018792356
000050 00 00 00 00 00 00 00 80 38 5b 95 38 10 3e 7b b9
       0.0 -0.0 7.1218645e-05 -0.00023960345
000060 31 27 a3 b9 66 7e 73 b9 30 cc 13 38 e1 48 76 b9
       -0.00031118983 -0.00023221373 3.5237696e-05 -0.00023487538
000070 1d 36 8b b9 cf 3d 0e ba 25 5e 9a b8 2a 9c 0c ba
       -0.00026552464 -0.00054260803 -7.360828e-05 -0.00053638464
000080 00 bf 1f 3a c2 8f 89 39 6e 13 73 39 9f f6 36 b9
       0.000609383 0.00026237784 0.00023181524 -0.00017448746
000090 76 7f a8 39 3c 95 f2 37 71 3e dc 39 9e 71 37 38
       0.00032138423 2.891814e-05 0.00042008192 4.3736414e-05
0000a0 a9 9f 99 b8 00 00 00 00 00 00 00 80 b1 38 98 b9
       -7.3253475e-05 0.0 -0.0 -0.00029033938
0000b0 14 0c 15 b8 d6 e8 9d b9 bd 60 76 b8 60 d2 a1 b9
       -3.5535617e-05 -0.0003011885 -5.8741065e-05 -0.00030865055
0000c0 c2 74 2d 39 3e 70 71 b9 1a f4 88 b9 47 fe bc b9
       0.00016542061 -0.00023025364 -0.0002612181 -0.00036047606
0000d0 69 2d 95 ba d1 50 34 3a e5 78 89 39 35 ca 72 39
       -0.0011381331 0.00068784977 0.0002622075 0.00023154246
0000e0 9c 98 a0 b9 ca 2f ed 39 9e 09 bb b8 08 9e 84 39
       -0.0003063128 0.00045239768 -8.918646e-05 0.00025294744
0000f0 7b ff 15 39 69 5f 25 38 00 00 00 00 00 00 00 80
       0.00014304921 3.9427923e-05 0.0 -0.0
000100 3c 67 3a 38 d9 cd 97 b9 3c 76 57 37 c7 4a 0f b9
       4.4442e-05 -0.00028954333 1.2842527e-05 -0.000136654
000110 04 63 7f b9 c4 a6 c2 b9 03 eb db 38 bb 52 03 ba
       -0.00024355581 -0.00037126814 0.00010486508 -0.0005009581
000120 9b 1e 8d 39 0e 3e 07 ba 5c 0f 45 3a de 4d c0 39
       0.0002691642 -0.0005159088 0.00075172423 0.0003667911
000130 50 39 8b 39 c7 36 7b 39 f8 9d b9 38 79 3c a4 b8
       0.00026554847 0.00023957631 8.8509114e-05 -7.831393e-05
000140 9b 06 bc 39 39 ab 6b 39 b5 01 d6 b7 00 00 00 00
       0.00035863076 0.00022475132 -2.5511583e-05 0.0
000150 00 00 00 80 de 59 37 b7 05 7a 2a b9 f4 cc 82 b9
       -0.0 -1.0928574e-05 -0.00016257919 -0.00024948234
000160 88 9e bf 38 07 1c 7a b9 eb bc 90 b9 2b 41 1c ba
       9.1371185e-05 -0.00023852299 -0.00027606575 -0.00059606385
000170 bf 79 b7 39 47 03 2a ba 7f d2 49 3a 01 93 b6 39
       0.00034995188 -0.0006485474 0.0007698908 0.00034823272
000180 c3 f3 1d b9 e8 73 0f 3a 14 3a 8b 39 4a 25 8b 39
       -0.00015063495 0.00054722885 0.00026555418 0.00026539929
000190 6e 96 7b 39 6d 71 f0 37 36 a7 88 39 94 95 82 39
       0.00023993265 2.8663047e-05 0.00026064523 0.00024906977
0001a0 00 00 00 00 00 00 00 80 d8 00 73 36 95 c9 39 b9
       0.0 -0.0 3.6210313e-06 -0.0001771807
0001b0 d5 c4 4b b9 d8 c4 4b b9 c2 d3 0d ba 14 a9 ce 39
       -0.00019432914 -0.00019432919 -0.00054102775 0.00039417355
0001c0 78 3f 75 b9 40 1d 8b b9 31 11 97 b9 78 9b 6d ba
       -0.00023388665 -0.0002653394 -0.00028813773 -0.0009063999
0001d0 f4 83 6f 3a d7 0f 6c 39 6d ae 1f ba c1 46 43 3a
       0.0009136789 0.00022512615 -0.000609136 0.0007449203
0001e0 0e 25 7b 39 fc 03 81 b9 25 03 d6 39 d2 44 c7 36
       0.0002395103 -0.00024607766 0.00040819604 5.938674e-06
0001f0 3f d3 34 39 00 00 00 00 00 00 00 80 b1 35 01 b9
       0.00017244833 0.0 -0.0 -0.000123224
000200 49 fb 0b 39 55 6c 26 b9 6e e2 c0 b9 a1 fe c6 b7
       0.00013349684 -0.0001587135 -0.00036789797 -2.372201e-05
000210 e8 e1 f7 b9 1b 8e a3 b9 30 08 47 39 f5 ea cc b9
       -0.00047279825 -0.0003119566 0.00018981169 -0.0003908497
000220 a6 43 56 3a 8d 42 a6 39 10 47 3f 39 c9 3a 5d b9
       0.00081735326 0.00031711572 0.00018241652 -0.00021098102
000230 be 06 0f 3a df c4 4b 39 b7 2b 3d 38 e9 15 ac 39
       0.0005456022 0.00019432929 4.5101824e-05 0.0003282272
000240 86 e9 d8 b6 c5 e4 43 b8 00 00 00 00 00 00 00 80
       -6.4644873e-06 -4.670468e-05 0.0 -0.0
000250 7f b7 06 ba f6 e1 e0 b9 a1 c6 9a 38 a3 e4 7c b9
       -0.00051390374 -0.00042892963 7.38029e-05 -0.00024117767
000260 c7 14 8b b9 6f 1b 8b b9 72 0c 58 ba 30 0b dd 39
       -0.00026527626 -0.00026532586 -0.00082416006 0.0004216074
000270 52 78 96 b9 70 af 73 ba 32 34 89 3a c5 6d e8 39
       -0.00028699875 -0.00092958566 0.0010467826 0.00044332273
000280 ad 49 71 39 ef 57 06 ba 6c 03 2b 3a 31 9d 8e b9
       0.00023010997 -0.00051247975 0.0006523642 -0.00027201467
000290 1e bd df 39 5b fd c5 b8 89 c1 89 39 00 00 00 00
       0.00042674778 -9.440883e-05 0.0002627487 0.0
0002a0 00 00 00 80 1d 10 23 38 12 8d 0d 38 ad 75 bf b9
       -0.0 3.8877235e-05 3.37484e-05 -0.00036518034
0002b0 f2 8f 92 b6 76 52 7d b9 7c ab 0b ba c9 39 59 39
       -4.3678965e-06 -0.0002415868 -0.00053279824 0.0002071626
0002c0 f7 8e 4b b9 76 ba 8d b9 8e 67 e3 b9 9f 01 09 3a
       -0.00019412847 -0.0002703254 -0.00043373968 0.0005226377
0002d0 fd 37 be 39 ae 9d 73 39 67 ae 4f 39 be 9b c5 b7
       0.00036281339 0.00023233026 0.00019806028 -2.3556753e-05
0002e0 55 fe be 39 3c 31 57 39 4d 8c fb 38 6d b3 02 39
       0.00036429116 0.00020522339 0.00011994746 0.00012464607
0002f0 00 00 00 00 00 00 00 80 af 52 29 b9 88 35 30 b6
       0.0 -0.0 -0.00016147898 -2.6257203e-06
000300 e1 a4 be b9 c7 15 62 39 e9 00 78 b9 b7 23 8b b9
       -0.00036362468 0.00021561152 -0.00023651462 -0.00026538756
000310 5d 69 4e ba 95 01 d0 39 2c 5d 6f ba e6 c6 6d 3a
       -0.0007873977 0.0003967403 -0.000913101 0.00090704707
000320 53 dd 01 ba 7e 31 66 3a 79 12 8b 39 fb 35 7a 39
       -0.00049539394 0.00087811786 0.0002652591 0.00023861967
000330 62 ea e9 b9 7b d8 1d 3a da c4 4b 39 4e bb 3a b9
       -0.00044615852 0.0006021333 0.00019432922 -0.00017808119
000340 5c 98 be 39 00 00 00 00 00 00 00 80 28 58 a2 38
       0.0003635314 0.0 -0.0 7.741182e-05
000350 e1 77 cd b7 5e 43 d8 b9 aa 87 ed b9 40 5b ad b7
       -2.4493727e-05 -0.00041248923 -0.0004530524 -2.0665699e-05
000360 59 38 8b b9 2c 74 19 ba 02 5e b7 39 dd d6 3a ba
       -0.00026554128 -0.0005853798 0.0003497452 -0.0007127354
000370 ed 8d 3a 3a f7 fb 84 39 1a 2d 6e 39 c9 d8 b3 b9
       0.00071164855 0.0002536473 0.0002271425 -0.00034303058
000380 ca 07 fc 39 d6 4c 86 b8 dc 31 2a 39 0c c8 d3 39
       0.0004807099 -6.40393e-05 0.00016231037 0.00040394103
000390 bd 69 5a 38 a0 c6 bb b8 00 00 00 00 00 00 00 80
       5.2073727e-05 -8.953852e-05 0.0 -0.0
0003a0 9a 87 bd 38 6c c7 87 b9 f2 c4 07 ba 9c df 2a b9
       9.03748e-05 -0.00025897787 -0.00051791884 -0.00016295764
0003b0 34 f4 db 38 de c4 4b b9 21 21 72 b9 99 7f 1c ba
       0.0001048822 -0.00019432927 -0.0002309126 -0.0005969941
0003c0 e4 1c 5e 39 2b 14 1b ba 7d d2 1c 3a 92 56 e4 b8
       0.00021182332 -0.0005915786 0.0005982293 -0.00010888012
0003d0 bb 65 05 3a b2 ff 75 39 df c4 4b 39 e5 74 d2 38
       0.00050887064 0.00023460275 0.00019432929 0.000100353536
0003e0 22 29 b9 b7 a0 17 ac 39 4c 69 87 b8 00 00 00 00
       -2.2072873e-05 0.00032823998 -6.456915e-05 0.0
0003f0 00 00 00 80 2f ca b5 b8 a8 60 eb b8 bf 01 99 b9
       -0.0 -8.668412e-05 -0.00011223677 -0.00029183735
