trained_models/IOD_Training/crr_nn_best_model_noise_50.pth (torch, 57798 bytes, 3 tensors)

conv_layer.conv_layers.0.parametrizations.weight.original f4 [8, 1, 7, 7]
00000000: 149a 4bbd ed2e 6c3d f991 fc3d 850d f6bd
00000010: 0cb9 0c3e 3461 9ebc 714a e93d 6513 2c3d
00000020: 31e5 763d 3ee1 1fbe f951 90bd 7675 543c
00000030: 76dc a83c 8d67 02bd 6c5a 833d 91ec 253e
00000040: 2cea 40bd 233b bf3d 505d 18be 4c6a 37be
00000050: 052d b8bd 6999 243e e7d7 f43d 44df 223e
00000060: e75c 303e a4ea 1c3e 018c 06bd d38e 2fbd
00000070: d5e7 0b3c c852 89bd 54d1 083e ffe4 c13c
00000080: 915b 31be 6749 633d ed57 1b3d 360c a63d
00000090: 061d 843d aa2d d83d 13d3 0f3e 6bf6 253e
000000a0: cfa1 cabd b30a 523c c26c 1abe d996 16be
000000b0: 3941 053e 2188 eebd 135b 97bd 7066 0d3e
000000c0: 5f6b 5b3a e220 613d 0f3b a0bd 5c47 0a3e
000000d0: bf40 1dbe edb9 263e f32e ecbd 9f78 5c3d
000000e0: bcd7 e43d b8e3 7fbd 49c5 16be 9d21 223e
000000f0: eae0 ce3d 2782 973a bc4f 88bd f690 69bc
00000100: 0c8c 23be 792f 88bd 2bf3 b43d 524f fbbb
00000110: d932 f33d dff7 0ebd ceb6 113d 4b75 f3bd
00000120: 8c43 27be ab6f 153e d166 95bd 27ce 363e
00000130: 26c4 15be fe9b 20be acf2 ea3d ae5d babd
00000140: 0f7b 2f3e 9683 cdbd 6c45 db3d e78e bb3d
00000150: 45b8 f03a 12cb 1d3c 3a8e 2c3e 23e1 303d
00000160: 0415 1ebe 2f1b 1dbe 40d5 4cbd 51d1 c8bd
00000170: 5876 22be 688a 2ebe 5662 033d 042e 5fbd
00000180: 04ae b73d a741 0bbe 9322 b63c 5514 2fbe
00000190: 14bb a5bc db00 8dbd 4354 273c 76e8 a63d
000001a0: 5f4d 0ebe 8bf2 13be 65cc cc3c b303 053e
000001b0: 627e b43d 4225 8abd 7911 2f3c 28de 8bbd
000001c0: 45f6 3c3d 0179 033e 79b7 b2bd 3c44 4b3d
000001d0: 1afb e1bd 55c7 9f3d 138d f43c d399 c33c
000001e0: 72bb cebd 8d06 06be eb06 8bbd f888 a7bd
000001f0: 7693 d1bd f125 5b3d 1788 9a3d 2938 bfbd
00000200: 6747 193e 4e4d b5bd 07f3 2bbe ad2d ebbd
00000210: 32b2 273e 8deb 083e bd54 7c3d 2db5 803d
00000220: 96b6 0e3e 4925 74bd 1bc9 9ebd 4012 a4bd
00000230: 4985 113c 44d6 ab3d ca2e 09be 327f 08be
00000240: 88b8 043e 3e97 c1bc 737a a1bd 6414 053e
00000250: f220 2abe cc52 2bbc f646 323d 7fa7 ac3d
00000260: 3a47 30be 0159 0b3e 2c85 21be 3b66 98bc
00000270: 4e18 ed3d b71c 26be a8e4 4e3d 66b5 323e
00000280: d0ce e33d 334c b7bd 820c 2d3e 7bb7 2c3e
00000290: c4ff 13bd cb14 22bd 69ae 2cbe bac3 be3d
000002a0: 0afb 2dbe b32c 8a3d 9318 023e 83f6 273e
000002b0: 8e8f 083e 5e56 fe3d f0e9 893d 286e 213e
000002c0: f19d 1f3e fe6d 14be fa04 053e 7e6a 173e
000002d0: c3b3 f9bd aa4d aebd 6e4f 9d3d b6e1 0f3e
000002e0: dcc4 99bd 35b1 d53c 6bf1 25be b4e3 103e
000002f0: 62c7 1c3e 946c 18be cad4 a03d b639 d1bd
00000300: ba4f 403d 2b62 d03d 647e 8ebd 004c 27be
00000310: 703f 9cbc 89b5 05be 4dac a0bd f24e f03d
00000320: b586 053e 5bf1 3e3b 9422 66bd b47f a33c
00000330: 0bfb 16bc 0f48 05be 3c6a b5bd 5f6b 08be
00000340: 388f 1a3e 8849 463d 3c40 be3d 27c8 123e
00000350: 7904 23be 6422 c9bd 7e4f e5bc 304e bdbd
00000360: 014d 473c 4e72 52bd 1eb4 aebb a95f 15be
00000370: b20b 29be d4f2 373e 36f3 d7bd 8d39 063e
00000380: eebc 1a3d ef1c f43d be85 a33b 7ea1 2e3e
00000390: a991 0a3e 00ac da3d 3ba4 75bd 25d0 9b3d
000003a0: 771e 86bd 7c38 143e c45e 2dbe 941d 21be
000003b0: 2818 ec3b 5510 8bbb e822 debd 900a 1a3e
000003c0: 2b91 15be 7bfe 98bc 6ad3 163e 73f6 38bc
000003d0: 4d94 11be 542a 163e 59c1 19be de9e 9bbc
000003e0: 88d6 173e b0d7 33be b361 c8bd d9e7 a1bc
000003f0: 9a2a dabd d1df 9bbd 8618 423d 1b5e ef3d
-0.049707487 0.05766194 0.123325296 -0.120142974 0.13742465 -0.01933346 0.11391152 0.042010684
0.060277168 -0.15613267 -0.07046885 0.012967458 0.020612936 -0.031837035 0.06413731 0.16203524
-0.047098324 0.09337451 -0.14879346 -0.17911643 -0.08992962 0.16074146 0.119552426 0.15905482
0.1722294 0.15323883 -0.032848362 -0.042860817 0.00853916 -0.067052424 0.13361102 0.023668764
-0.17320086 0.055489924 0.03792565 0.08107798 0.06450848 0.10555585 0.14045362 0.16207282
-0.09894144 0.012819934 -0.1508055 -0.14705981 0.13013162 -0.11647058 -0.07390418 0.13808608
0.00083701866 0.054963 -0.078237645 0.13503784 -0.1535673 0.16281863 -0.11532392 0.05382597
0.111739606 -0.06247303 -0.14723696 0.15833135 0.10101493 0.0011559174 -0.06655833 -0.014255753
-0.15971392 -0.0664968 0.08835443 -0.007669368 0.11874933 -0.034904357 0.035574727 -0.11887606
-0.16334361 0.14593379 -0.07295001 0.17852078 -0.14625606 -0.15684506 0.11472067 -0.09099899
0.17136787 -0.10034864 0.107066005 0.09158116 0.0018365463 0.009630935 0.1685113 0.043183457
-0.15437704 -0.15342401 -0.05000806 -0.09805549 -0.15865457 -0.17044985 0.032076202 -0.054487243
0.08968738 -0.13599263 0.022233283 -0.170976 -0.020230807 -0.06884929 0.010212961 0.08149807
-0.13896702 -0.14447992 0.024999807 0.12989692 0.08813168 -0.067453876 0.010685318 -0.06829482
0.0461333 0.12839128 -0.08726401 0.04962562 -0.11034222 0.078016914 0.029852426 0.02387706
-0.10094346 -0.13088436 -0.06788429 -0.081804216 -0.10233204 0.05350298 0.07545488 -0.093368836
0.14968644 -0.08852635 -0.16791926 -0.11483321 0.1637657 0.13371105 0.06160425 0.062845565
0.13936839 -0.05960587 -0.077532016 -0.080112934 0.008881875 0.08390477 -0.13396755 -0.13329771
0.12961018 -0.023631688 -0.078846835 0.1299606 -0.1661413 -0.010456752 0.043524705 0.08430385
-0.17214671 0.13608171 -0.15773457 -0.018603435 0.115769014 -0.16221891 0.050511032 0.1745201
0.11123431 -0.08950081 0.16899303 0.16866867 -0.03613259 -0.03957061 -0.16863407 0.09314676
-0.16990295 0.06746807 0.12704687 0.1640263 0.13336012 0.12418817 0.06734073 0.15764678
0.15587594 -0.14495084 0.1299018 0.14786717 -0.1219249 -0.08510907 0.07681166 0.14050946
-0.07508251 0.026085475 -0.16205375 0.14149362 0.15310434 -0.1488517 0.07853086 -0.102160856
0.046951033 0.10174974 -0.06957701 -0.16337585 -0.019073218 -0.13057531 -0.07845364 0.117338076
0.13039668 0.0029135558 -0.05618532 0.019958355 -0.009215127 -0.1301577 -0.08858153 -0.13322209
0.15093696 0.04840997 0.092895955 0.14334165 -0.15919675 -0.098210126 -0.027992006 -0.09243429
0.012164355 -0.05137854 -0.0053315302 -0.14587273 -0.16508368 0.17963725 -0.10544436 0.13107891
0.037777834 0.11919581 0.0049903085 0.17053792 0.13532127 0.10677338 -0.059971076 0.0760806
-0.065487795 0.14474672 -0.16930681 -0.1573394 0.007205028 -0.0042438903 -0.108465016 0.15043092
-0.14606158 -0.018676033 0.14729086 -0.011289227 -0.14216729 0.14664584 -0.15015163 -0.018996652
0.14827931 -0.17562747 -0.0978426 -0.019763874 -0.10652657 -0.07611049 0.04738667 0.11687871

conv_layer.conv_layers.1.parametrizations.weight.original f4 [32, 8, 7, 7]
00000000: 5adb 0cbd d0bd 8c3d 126b 743d 042a 863d
00000010: d566 743d 1543 8f3a cd38 9d3c 9279 243d
00000020: 23b0 85bd 8a64 f63a 90f7 9abc 991f 85bd
00000030: 6b0a f83c cf1f 253d f39a 3e3d e1ba eabc
00000040: cfc4 abbc c06c 213d 9cb5 2f3d a556 4a3d
00000050: d076 b13c 1751 1cbd a72a 50bd 5989 6bbd
00000060: 02ee b9bc 5c95 803d 61ee ecbc 9f08 4a3d
00000070: c2ba 673d e24d d6bc 067e c13c fc52 a4bc
00000080: 8d5d cebc 6f02 a1bb 25c0 063b 925d 8d3b
00000090: d3bc 163d 2cc5 b63a 36a6 6f3d c231 113d
000000a0: f91b dabc 82a8 84bd b8e0 fe3c ba2b 003d
000000b0: e4cc 84bd 43ce 43bc 6351 dc3c 574b 213d
000000c0: eeda cebc feaf febc e09e 603d 60e5 643b
000000d0: 5889 963a 58ff febc dd16 803c 5263 cdbc
000000e0: cdd5 913c b7f9 663d 66b9 b63c 2442 33bd
000000f0: 8275 cebb 5c8d 943d 3e7c 9c3d 1163 913d
00000100: 2d6d 313c 830c 94bc 5999 eabc 40f0 d7bc
00000110: 2fcc 35bd 1aac dcbc 375e cabc 3e1d 0bbd
00000120: 4755 09bd 840d 27bc b8f6 d73c 3ed6 333d
00000130: af89 a13d 9eec 933c f6dc b03c 0b26 893d
00000140: 6852 0b3d 5bb7 5c3d f070 95bb f9cf 4bbd
00000150: dc75 89bc 7b07 c6bb a12f b8bc c232 993c
00000160: efa1 babc a54c 58bc 225a 93bd cefc 19bd
00000170: b94f 2a3d 6165 f8bc eece 053d badd 4bbd
00000180: 29ca af3d 0eb7 56bd b5be 203d cd76 b5bc
00000190: 189a 6f3c 99ad 9a3d fbea 18bd c41d a43b
000001a0: 4469 8fbc 2f03 95bd 79fd 4d3d 10de 9ebd
000001b0: 74ee 683d d7e7 d7bc 108d 62bd c978 5dbd
000001c0: a2b9 6abd fc7c 053d a600 05bc f3b7 b0bd
000001d0: 1167 9bbb e671 a4bc c8af 2dbd d8a8 f83b
000001e0: 638d 2e39 555d 453d da4b 61bd a0db 693d
000001f0: fcba 993d 3ea8 333d b221 31bb 6fd5 813d
00000200: e491 b73b 68b7 8abd 4115 7d3c 8c76 95bd
00000210: 5ffd 833d a4de 96bc 70bd 163c 73ed 333c
00000220: 0acb 923d ca35 943d 6839 57bd 9b65 8ebd
00000230: f68e 4ebd 516e 07bd 0467 663c 5fe0 cd3a
00000240: 9a3f 5b3c 128d 833d 8483 873a 2971 6f3d
00000250: 3ffc 96bd 7209 3f3d 99e1 a53a 4a44 2fbc
00000260: 3a79 823d f1ed 09bd 5f95 8c3d 35cb 57bd
00000270: 4c4b 0cbc d245 e13b 33a1 483d 938b 20bd
00000280: 3cb8 423d f8a4 483d 16be 8bbc d1b0 9e3d
00000290: 850d a23d a1a4 613d ed63 7abd d88e 683b
000002a0: 5d5b 82bd 4065 b93c 47df 10bd 83ef 92bd
000002b0: 0cf0 86bd 78de 883d 0713 253d a50d 32bd
000002c0: 6798 1b3d 32c0 973d 2883 873d 54ca 29bd
000002d0: 6b75 343d 09fc 96bd 35a7 173d e169 38bd
000002e0: 0adb 483d ab55 d23c 7397 78bb 9210 fe3b
000002f0: 45b2 013d c399 ec3c 4839 6cbd a2b5 e73c
00000300: 167b e33b 1928 993c 2468 773d 6b42 713d
00000310: 5543 91bd 5952 9d3d 2c08 f9bc 795d 85bc
00000320: b7bd 39bb c01c 683c 9cfa b03d 07d6 ccbc
00000330: 94bf 91bb 3da5 67bc 8940 f33c 8be7 a23d
00000340: ce1f 933d 7e77 7dbd 2a42 86bd b4f7 7bbc
00000350: fc91 123d c9af 723c 6416 86bd c269 a13c
00000360: b683 adbd 231e 323c 405f 34bc 7e39 1e3c
00000370: 6d8e a939 c6c3 73bd dff0 9e3c 8cae 413c
00000380: d241 01bd a93f 8a3d aab3 d3bb 5d26 943d
00000390: 09c1 973d df99 94bd 9ed4 6c3d 3c0e 383d
000003a0: 0a15 8d3d 86f3 423d b92a b73c a679 ee3c
000003b0: ee6a 5cbd f10d 92bc 3c45 19bd a284 01bd
000003c0: f1a2 863d 2dc9 f0bc 2bf2 44bd 2975 8a3d
000003d0: 7d46 193c bf52 c9bc e3dc 2f3c 8d65 1dbc
000003e0: 4a1e 81bd b6bf 7f3d 98df 63bd 6be7 943d
000003f0: 282a 1ebd 0f34 68bd 10df 77bd 86c1 85bb
-0.034388877 0.06872141 0.059672423 0.065509826 0.05966838 0.0010930026 0.019192124 0.040155
-0.06527736 0.0018798274 -0.018916875 -0.065001674 0.030278405 0.04031354 0.04653449 -0.028653564
-0.02096787 0.039410353 0.042897806 0.049399037 0.0216631 -0.03816327 -0.050821926 -0.05750403
-0.022696499 0.06278488 -0.028922262 0.049324628 0.05657459 -0.026160184 0.023619663 -0.020059101
-0.025191093 -0.00491362 0.0020561304 0.004314133 0.03680117 0.001394426 0.05850812 0.035447843
-0.026624667 -0.06477453 0.031113014 0.0312917 -0.06484392 -0.011951032 0.026894277 0.03937849
-0.025250878 -0.031089779 0.054839015 0.0034926757 0.0011485023 -0.031127617 0.015635902 -0.025071774
0.017802143 0.05639049 0.022305202 -0.04376425 -0.006300629 0.07253525 0.07640885 0.070989735
0.010829252 -0.018072372 -0.028637575 -0.026359677 -0.044384178 -0.026937533 -0.024703128 -0.033963434
-0.033528592 -0.0101960935 0.026362762 0.04390549 0.07887589 0.018057164 0.021589737 0.06696709
0.034014136 0.0538858 -0.0045605823 -0.049758885 -0.016779833 -0.006043372 -0.022483649 0.018700961
-0.022782294 -0.013201867 -0.07194926 -0.03759461 0.041579936 -0.030321779 0.032668047 -0.049772
0.08583481 -0.05242067 0.039244372 -0.022151375 0.014624141 0.075526424 -0.03733347 0.005008431
-0.01750625 -0.07275998 0.05029056 -0.07757199 0.05686803 -0.026355667 -0.05531031 -0.054070268
-0.05730594 0.032589898 -0.00811783 -0.086288355 -0.004742511 -0.020073842 -0.042403966 0.007588487
0.00016646604 0.04818471 -0.05500398 0.057094216 0.075063676 0.04386162 -0.002702814 0.06339537
0.0056021083 -0.06773263 0.015446962 -0.07298002 0.06444811 -0.01841671 0.009200439 0.010981905
0.07167633 0.07236822 -0.05254498 -0.069529735 -0.050429307 -0.03306419 0.014062647 0.0015707127
0.013381863 0.064233914 0.0010338877 0.058457527 -0.07372331 0.046639867 0.0012655734 -0.010697434
0.063707784 -0.033674184 0.06864428 -0.052684028 -0.008562874 0.0068747783 0.048981857 -0.03919561
0.04753898 0.04898545 -0.017058413 0.07748569 0.07912735 0.055088643 -0.061130453 0.0035485532
-0.063650824 0.022631288 -0.035369184 -0.071745895 -0.06588754 0.066830575 0.04030135 -0.043470044
0.03798714 0.07409705 0.06616813 -0.04145272 0.04405729 -0.07372291 0.037024695 -0.04502285
0.049037017 0.025675615 -0.0037932068 0.00775344 0.03166415 0.028881913 -0.057671815 0.028284851
0.006942163 0.018695878 0.06040205 0.05890123 -0.07092921 0.07681722 -0.030399404 -0.016279923
-0.0028341839 0.014167011 0.0864155 -0.0250044 -0.0044478867 -0.014138517 0.029693859 0.079543196
0.07183801 -0.061881535 -0.065555885 -0.015378881 0.035783753 0.014812418 -0.065472394 0.01970375
-0.084723875 0.010871443 -0.0110090375 0.009657262 0.00032340307 -0.059512876 0.019401966 0.0118214
-0.03155691 0.067504235 -0.0064606266 0.0723388 0.074098654 -0.07255911 0.057819955 0.04493545
0.068887785 0.047595523 0.022359239 0.02911074 -0.053812914 -0.017828913 -0.037419543 -0.03162063
0.06574047 -0.029392803 -0.048082512 0.06760628 0.009355185 -0.02457559 0.010733816 -0.009606731
-0.06304605 0.06243869 -0.055633157 0.07270702 -0.038614422 -0.056690272 -0.060515463 -0.0040819077

activation.coefficients_vect f4 [672]
00000000: 0000 0080 ed3c 8bba 4ffa 6e3a cff7 8dba
00000010: 8df4 7b3a f953 b2b9 7197 cab9 ee70 9aba
00000020: d3a7 7b3a 082b 8dba 12a0 4ebb d969 a03a
00000030: 3324 39ba 4900 143a 2913 963a 3822 b239
00000040: 1ce3 80ba 7994 8f3a aefe 53ba 429b 8e3a
00000050: 0000 0000 0000 0080 c060 98ba d612 843a
00000060: 7769 99ba 5641 883a 3292 b5b9 f6d8 9fba
00000070: 9ed9 22ba 8539 883a e341 a9ba 7287 a83a
00000080: d307 4cba 6c17 173a 51a7 9f3a 8925 db39
00000090: bb01 db39 6b69 b939 aefe 85ba c77d 973a
000000a0: 631f db39 0000 0000 0000 0080 2c7b 99ba
000000b0: 1445 853a a5bd 99ba 5ce8 883a bd32 9dba
000000c0: e069 8d3a 3045 b1b9 dd38 9fba f7de 443a
000000d0: 7520 a1ba 8fc0 ec39 6032 0e3a 12c2 993a
000000e0: 5963 b239 7a18 87ba 774d 973a d7a4 82ba
000000f0: 6869 3a3a 8208 903a 0000 0000 0000 0080
00000100: ca25 dbb9 49f3 83ba 5bb4 2cba afc0 763a
00000110: e1a2 b3b9 7af6 dab9 397c 92ba b33e 0dba
00000120: a978 c039 e7d8 9dba b94d a23a bd1e de39
00000130: 7801 36ba 4ad1 993a 6e14 b339 767e 84ba
00000140: 1798 943a d2e7 7eba 061a 933a 0000 0000
00000150: 0000 0080 a97b 81ba c702 373a 6090 85ba
00000160: 2205 6f3a 64fc b1b9 ac4f 92ba 5270 283a
00000170: 2717 ddb9 4fc8 8fba e569 4cbb b892 ff39
00000180: 9ef5 a23a 62a6 37ba 0a05 243a 87b1 933a
00000190: 3079 b339 a48a 9b39 65db 6fba dc9a 8b3a
000001a0: 0000 0000 0000 0080 4798 84ba 8d5e 1eba
000001b0: d31e 733a a857 b1b9 d8a2 91ba 238a 693a
000001c0: 50de c4b9 e1cb dab9 ad59 9fba 938f 9d3a
000001d0: 9c9f 3cba a6c2 9a3a 1238 78ba 66cf 983a
000001e0: da23 b139 dca2 81ba 9582 8f3a cf4c 0cba
000001f0: 4f58 893a 0000 0000 0000 0080 349a 8bba
00000200: 47be 27ba f15f 7d3a 1a08 b4b9 d88a 91ba
00000210: b880 223a a1dc 97ba 2bb4 13ba de24 1c3a
00000220: aa77 9bba b343 9c3a e0b4 77ba cf6b 0c3a
00000230: 81d9 923a 1c9e 60ba 2b90 8e3a d790 b439
00000240: 2c45 72ba ee7c 8c3a 0000 0000 0000 0080
00000250: 846a 93ba b31c 803a bf36 b5b9 1b4b 95ba
00000260: 79b8 863a db7e b0b9 8ef8 9bba c5cc 3b3a
00000270: 42f4 a1ba c7e0 4dba 9368 a23a 4ed3 82ba
00000280: d139 9f3a 9406 78ba 95f5 993a 2c0f b439
00000290: 5e4c 84ba c1f2 2e3a 01f7 903a 0000 0000
000002a0: 0000 0080 0a4c dbb9 7ced dbb9 1d41 97ba
000002b0: 4b24 873a 3c77 b5b9 dd0c 9fba 2657 813a
000002c0: 3678 c5b9 8b32 a6ba 0118 a63a fc8b df39
000002d0: 70ac 44ba fb3d a03a cab6 b539 6c3c 8dba
000002e0: 675e 9e3a f957 89ba 1494 9a3a 2d3b db39
000002f0: 0000 0000 0000 0080 eccb 9bba 2d55 863a
00000300: eb36 bdb9 f822 99ba d604 2d3a b35a a0ba
00000310: 6ec1 803a c71f cab9 4f91 95ba 2055 53bb
00000320: fa80 a63a 5435 c939 d053 80ba 0a94 9f3a
00000330: cdad d539 1ad9 b939 dbe5 84ba 65f9 cb3a
00000340: aba0 8f3a 0000 0000 0000 0080 8c21 8eba
00000350: db2a 513a 6b3b 8bba 2e2c 2aba 1614 643a
00000360: 6670 96ba 8f70 723a e9cb 98ba 0035 01b9
00000370: 374e 43bb ea49 a03a 40e6 7dba 3f41 1a3a
00000380: ec62 963a 49fb b439 51ad 82ba 9fd3 323a
00000390: 785a 8d3a 1830 db39 0000 0000 0000 0080
000003a0: 762c dbb9 c966 8dba 433d 153a ef7b 93ba
000003b0: c671 673a 5847 dbb9 5f14 95ba 13b1 09ba
000003c0: 13b4 30b9 5ed7 19bb be43 a13a 2399 c539
000003d0: a3d4 7bba 0770 9b3a b9cd b339 240e 85ba
000003e0: 2587 953a c665 81ba db2e 953a 0000 0000
000003f0: 0000 0080 ed21 dbb9 4d13 e9b9 eb4a 97ba
-0.0 -0.0010623016 0.00091162784 -0.0010831299 0.0009611331 -0.0003401337 -0.00038641275 -0.0011782923
0.0009599898 -0.0010770271 -0.0031528515 0.0012238576 -0.0007062584 0.00056457944 0.0011449802 0.000339763
-0.0009833309 0.0010954282 -0.00080869615 0.0010880011 0.0 -0.0 -0.0011625513 0.0010076414
-0.0011704405 0.0010395448 -0.00034631934 -0.0012195397 -0.0006212237 0.0010393119 -0.0012913313 0.0012857749
-0.00077831483 0.0005763683 0.0012180601 0.000417989 0.00041772224 0.00035364492 -0.0010222995 0.001155787
0.0004179432 0.0 -0.0 -0.0011709682 0.0010167682 -0.0011729492 0.0010445225 -0.0011993271
0.0010789 -0.0003381162 -0.0012147684 0.0007510031 -0.0012292998 0.00045156895 0.00054243766 0.0011730811
0.00034024825 -0.0010306977 0.0011543472 -0.0009967339 0.00071110437 0.0010988864 0.0 -0.0
-0.0004179909 -0.0010067011 -0.00065881544 0.00094128674 -0.00034262895 -0.0004176384 -0.0011175937 -0.0005388066
0.00036710993 -0.0012042791 0.0012382782 0.0004236604 -0.0006942968 0.0011735347 0.00034156762 -0.0010108489
0.001133683 -0.0009723875 0.0011222966 0.0 -0.0 -0.0009878773 0.000698131 -0.0010190122
0.00091178913 -0.00033948116 -0.001116266 0.00064254284 -0.00042169655 -0.0010969731 -0.0031191048 0.00048746704
0.0012432819 -0.0007005689 0.00062568544 0.0011268117 0.00034231832 0.000296672 -0.0009149819 0.001065101
0.0 -0.0 -0.0010116183 -0.0006041311 0.00092743075 -0.0003382538 -0.0011111153 0.00089088286
-0.0003754967 -0.00041732102 -0.0012157463 0.0012020938 -0.00071954145 0.0011807277 -0.00094688043 0.0011658489
0.00033786782 -0.0009890455 0.0010948951 -0.00053520215 0.0010478589 0.0 -0.0 -0.0010650815
-0.0006398898 0.00096654805 -0.00034338312 -0.0011104001 0.000619899 -0.0011586138 -0.0005634452 0.00059564214
-0.0011861224 0.0011922031 -0.0009449255 0.0005356641 0.0011203737 -0.0008568482 0.0010876706 0.0003444019
-0.0009241875 0.0010718384 0.0 -0.0 -0.0011246954 0.0009774178 -0.000345638 -0.0011390181
0.0010278366 -0.0003366385 -0.0011899637 0.0007163997 -0.001235612 -0.0007853624 0.0012390785 -0.0009981187
0.0012147968 -0.00094614294 0.0011746163 0.0003434358 -0.001009356 0.00066737464 0.0011059941 0.0
-0.0 -0.0004182759 -0.00041947875 -0.0011539791 0.0010310499 -0.00034611847 -0.0012134571 0.0009867891
-0.00037664332 -0.0012679858 0.0012671949 0.0004263817 -0.0007502502 0.0012225503 0.000346592 -0.0010775453
0.0012082577 -0.0010478488 0.0011793398 0.00041815024 0.0 -0.0 -0.0011886335 0.0010248773
-0.00036089806 -0.0011683395 0.0006600147 -0.0012234062 0.0009823272 -0.00038552118 -0.0011411103 -0.0032246783
0.0012703233 0.0003837744 -0.0009790603 0.0012174856 0.00040756018 0.00035447703 -0.0010139303 0.0015561996
0.0010957917 0.0 -0.0 -0.0010843738 0.0007979103 -0.0010622566 -0.00064915686 0.0008700503
-0.0011477589 0.000924834 -0.001165745 -0.00012322143 -0.0029801258 0.0012229059 -0.0009685494 0.0005884356
0.0011473573 0.00034519497 -0.0009969865 0.0006821695 0.0010784408 0.00041806768 0.0 -0.0
-0.0004180406 -0.0010788079 0.00056930276 -0.0011252145 0.0008828904 -0.0004182409 -0.0011373869 -0.00052525214
-0.00016851751 -0.0023474316 0.0012303514 0.00037688864 -0.00096065755 0.0011858948 0.00034294816 -0.0010151309
0.0011408074 -0.000987225 0.0011381762 0.0 -0.0 -0.00041796212 -0.00044455603 -0.0011542713
