trained_models/IOD_Training/crr_nn_best_model_blur_(1, 1).pth (torch, 57892 bytes, 3 tensors)

conv_layer.conv_layers.0.parametrizations.weight.original f4 [8, 1, 7, 7]
000000 5c 79 f1 bc 94 56 ff 3c 46 d8 e2 bd 17 93 d2 3d
       -0.029476814 0.031169213 -0.11076407 0.102819614
000010 74 9b 52 bd 47 c4 c2 bd c5 9b 8a 3c 55 f7 12 bc
       -0.051417783 -0.09510093 0.01691998 -0.008970101
000020 f7 35 b9 bb 88 49 6f 3d 18 99 a8 3c 0f e2 4a 3d
       -0.005652185 0.058419734 0.020580813 0.049531993
000030 7a ae 43 3d aa 76 e1 bd ef 4f 8d 3d ee a4 c8 3d
       0.047773816 -0.110089615 0.06900012 0.09797083
000040 9d b2 f5 bb ff f6 02 3d f9 cf a4 bd ef fa 82 bd
       -0.007498099 0.031973835 -0.0804748 -0.06395518
000050 c9 5d 83 3c e1 d7 d0 bd fc 32 9d 3d f8 3e 2a bd
       0.016035931 -0.10197426 0.0767574 -0.041563958
000060 12 3e fb bc 51 54 6a 3d ba d0 0e bd 10 a3 02 be
       -0.030669246 0.057209317 -0.034867026 -0.12757516
000070 5c 11 4e 3d b1 1c 24 3c fa 31 d8 3d aa be d9 bd
       0.050309524 0.010016606 0.10556407 -0.106320694
000080 b7 b4 91 bd f3 81 9d bc df 97 0f 3e e9 6e 23 3c
       -0.07114547 -0.019227004 0.14022778 0.0099751735
000090 53 7c df bd fd ab 03 be dd 4d e4 3d 1e 65 6a 3d
       -0.10912385 -0.12858577 0.11147664 0.05722534
0000a0 1f 7a 2f bd 30 68 8c 3c 1c f3 86 3d a7 89 50 bd
       -0.042841073 0.017139524 0.06589338 -0.050912526
0000b0 38 c3 6c bc d7 59 f3 3d b4 ab 1d bc 12 b7 bd 3d
       -0.014450841 0.1188237 -0.009623457 0.092634335
0000c0 f4 d3 77 3d 5c bd 01 be d5 6b ca 3c 8d cb 46 3d
       0.06050487 -0.12669891 0.024709621 0.048533965
0000d0 be 17 1a bd f7 15 a0 3d c7 67 32 bd 74 c0 a7 bd
       -0.0376203 0.078166895 -0.043556 -0.081910044
0000e0 c2 ec 03 3e 08 88 6f 3b 92 90 f4 3d 85 b1 19 3d
       0.12883285 0.0036549587 0.11941637 0.03752281
0000f0 48 d7 10 be ca 16 0a 3d 46 e5 c8 3c 57 0b ee bc
       -0.14144623 0.03371314 0.024523389 -0.029058142
000100 53 9c d1 bc 00 92 d2 3d 46 cd d1 bd df e3 db bd
       -0.025587237 0.102817535 -0.10244231 -0.10736822
000110 60 be f1 bd 8b d4 83 3d f2 75 b6 3d c2 14 af 3d
       -0.11803889 0.06437024 0.08909215 0.08548881
000120 a6 03 23 bd f9 68 6f 3d 5c a5 d2 bd 22 43 7a 3d
       -0.0397984 0.05844972 -0.10285446 0.06109918
000130 41 01 b0 bd 05 16 e6 bd 03 7a f4 bd fb 44 97 bd
       -0.08593989 -0.11234669 -0.119373344 -0.07386204
000140 e5 ed 87 3d 0f f5 a9 3c 07 e8 f0 bd 0b 63 ab bd
       0.06637172 0.020746736 -0.11763006 -0.083685
000150 50 64 c5 3d 66 e2 cb bc ce 8a b7 3d a5 ad 89 bd
       0.09638274 -0.024888229 0.08962022 -0.06722573
000160 49 0e 30 bd 5d 9e 82 bd c8 8f 06 be ca 11 50 3d
       -0.042982373 -0.06377862 -0.13140786 0.050798215
000170 ec 6c 94 3d b4 3b 16 bd 10 89 ab bd 12 d6 6b bd
       0.07247338 -0.03667803 -0.08375752 -0.0575772
000180 4e df c4 bb 49 fc 01 be c8 0e 5c bd d0 ab 92 3d
       -0.0060080653 -0.12693895 -0.053725034 0.07161677
000190 74 6f da 3d eb 1d d4 3d 8e 65 9c bd b7 fe 03 3e
       0.10665789 0.10357269 -0.076365575 0.12890135
0001a0 50 9d 97 bc 21 be a5 bc 9b 6f d6 bd e2 19 c0 3d
       -0.01850763 -0.020232262 -0.10470506 0.09379937
0001b0 64 52 b9 bd 67 97 92 3b c0 be b5 3d a4 98 42 3d
       -0.09048918 0.004473615 0.08874273 0.04750885
0001c0 e3 02 00 be 3c 52 ed bd f2 3b b7 3c 22 ec 8a bb
       -0.12501101 -0.115879506 0.022367451 -0.004239575
0001d0 bb 0e ef bd 0c 19 7e 3d ea 0c a6 b8 3f c1 27 bd
       -0.116727315 0.062035605 -7.917902e-05 -0.04095578
0001e0 a9 7c 79 3d 72 9b 38 3d c7 e1 fa 3c 02 eb a6 bd
       0.0609099 0.04507012 0.030625237 -0.08150293
0001f0 7e 53 7b 3d 26 84 ca 3d c3 ba e9 bd 92 70 bc bd
       0.06135892 0.098884866 -0.11412575 -0.092011586
000200 34 c4 ea 38 59 9c e5 bd dc 29 b0 bd ce c4 4e 3d
       0.00011194535 -0.112114616 -0.08601734 0.050480656
000210 9d 0e ad bd 19 93 ae 3d 31 b3 ef bd e3 c7 11 3d
       -0.08450053 0.085241504 -0.117041 0.035591017
000220 73 1c 69 3d 59 cb 72 bd b7 6b a5 3d a9 8e 32 3b
       0.056911897 -0.05927596 0.080771856 0.0027245677
000230 12 98 21 3d 68 3f dc 3d b8 04 47 3d 1b 59 98 3d
       0.039451666 0.10754281 0.048588485 0.074388705
000240 3b 02 6a 3d f0 47 9d 3d 24 40 fb 3d c7 41 85 bd
       0.057131033 0.076797366 0.12268093 -0.06506687
000250 fb 02 15 bd 95 c9 97 bd 79 0c d0 bd ae 1b 46 3d
       -0.036379796 -0.074114956 -0.10158629 0.04836624
000260 36 a1 90 bd 52 ad c7 3c ff b5 17 3d 6e 29 de 3d
       -0.070619985 0.024374638 0.0370388 0.10847746
000270 d5 83 9e bc b4 a1 02 be a7 20 e2 3d 42 92 48 3c
       -0.019349972 -0.12756997 0.11041384 0.012241902
000280 7e bf 83 bd 6c 7a 34 3c 05 12 e1 bd 3c 66 d6 3c
       -0.064330086 0.011015516 -0.10989765 0.026171796
000290 87 2f c6 bd da df ab bd 94 2e 90 3d 05 e1 cc bd
       -0.09677034 -0.08392306 0.07040134 -0.100038566
0002a0 8b 20 ce 3b 3f ba 92 3d e5 16 88 3d 5b 2f ac bd
       0.0062905005 0.0716443 0.06644992 -0.0840747
0002b0 74 dc e1 3c aa b7 12 3d 8e fc f7 3d 28 7f 64 bd
       0.02757094 0.035819687 0.12108718 -0.05578533
0002c0 53 ef 04 be 6a f3 7a bd 05 50 31 3d e6 aa 18 3d
       -0.1298192 -0.061267294 0.043289203 0.037272356
0002d0 b8 ae 09 be 08 e6 01 3c 47 3a ef bd af 4b a0 3d
       -0.13445556 0.007928379 -0.116810374 0.078269355
0002e0 3c 46 9b bd 3a 83 a7 bd 8e 88 ff 3b 62 ed ad bd
       -0.075817555 -0.08179326 0.007798261 -0.08492543
0002f0 cb 2b dc bc fc 40 c5 bb 23 4c c5 3d a7 88 10 3d
       -0.02687635 -0.0060197096 0.096336626 0.03528657
000300 93 da 45 bd f4 7c ba bc a9 f4 06 3c 7b 4b e2 bc
       -0.04830415 -0.02276466 0.008237042 -0.027623883
000310 0b 8f dc bd a8 7b 61 bc 76 a8 b1 bd 89 01 0c 3d
       -0.10769471 -0.013762392 -0.086747095 0.03418115
000320 db 05 69 bd 2b a6 81 bc 40 35 d3 3d bb 72 8a 3d
       -0.05689035 -0.015826305 0.10312891 0.06760164
000330 ce b0 87 bd da 44 eb bd 7e fd 82 3d 00 91 a3 bd
       -0.0662552 -0.11487742 0.06396006 -0.07986641
000340 2f 9c 1e bd 94 00 8c bb 00 e1 d1 3c f8 e4 f7 3d
       -0.038723167 -0.00427253 0.025619984 0.12104219
000350 c6 0d 35 bb c6 2a 0b 3c 49 fe 03 3d 89 29 a1 3d
       -0.0027626618 0.008494085 0.032224927 0.0786925
000360 36 21 de 3d f8 37 b8 3c 17 a2 23 bc ea 60 26 bd
       0.10846178 0.022487625 -0.009987376 -0.04061977
000370 51 ee 24 3d 99 6d 4f bd 75 98 98 3b cc 7e d8 bd
       0.04026634 -0.05064163 0.004656846 -0.105710596
000380 5d bf c2 bd 1d 46 d4 bb bd 8d 75 bd fb 0e d6 bd
       -0.09509156 -0.0064780847 -0.059949625 -0.10452076
000390 58 41 fb bd 56 93 e2 3d d0 54 ce bd 82 aa 0c 3d
       -0.12268323 0.11063258 -0.100747705 0.034342296
0003a0 9d e2 ff bc fa af 81 3c 5c 5d 02 be 6b c1 80 bd
       -0.031235987 0.015830982 -0.12730926 -0.062868915
0003b0 c5 a6 ad 3d 07 fd 1f 3d bf 98 ff bd 8d 07 45 bb
       0.084790744 0.039059665 -0.12480306 -0.0030064315
0003c0 6d 06 b3 bc e0 9d e0 bd 9f d0 a2 bb 57 30 b7 bd
       -0.02185365 -0.10967612 -0.004968717 -0.08944767
0003d0 65 11 89 bd 3f bf ea bd 55 af eb 3b 7a 5a 3a bd
       -0.06692771 -0.114622585 0.007192532 -0.04549644
0003e0 eb 5e a2 bd 6a 8f 04 be 02 8f 81 3d f4 97 31 3d
       -0.079282604 -0.12945333 0.06326105 0.043357804
0003f0 b5 df 6d bd da 90 09 3e c4 f7 bb bd 27 c9 fc 3d
       -0.05807467 0.13434163 -0.09178117 0.12343054

conv_layer.conv_layers.1.parametrizations.weight.original f4 [32, 8, 7, 7]
000000 f9 45 12 3d 7d 7a 0c 3c 7a f7 88 3c 03 46 49 bc
       0.035711262 0.008574125 0.016719569 -0.0122847585
000010 02 40 2e 3b 60 65 95 3c 28 c2 2c bd 2d 3c b5 bc
       0.0026588445 0.018236816 -0.04217735 -0.02212342
000020 4a 4f ef bc 8c b9 af 3c d4 77 30 3d 96 1a 32 3d
       -0.029212613 0.02145078 0.043083027 0.043482386
000030 95 69 84 bc a6 c3 b6 3c fe 23 54 3d d5 f7 f0 bc
       -0.016163627 0.02231009 0.051792137 -0.02941505
000040 bc ea 35 3c 4f 53 73 bc 92 c7 d4 bc ad b5 31 bd
       0.011103328 -0.014851405 -0.025974069 -0.04338615
000050 42 6c 12 bc c1 d9 b2 bc f5 f4 d1 3c 5e 5c 1b 3d
       -0.0089369435 -0.021832349 0.0256295 0.037929885
000060 53 36 e4 3c 6e b9 b4 bc 88 eb 2c 3c 1a a4 a0 bb
       0.027857935 -0.022061076 0.010554202 -0.004902375
000070 8a 3a be 3c 78 43 f3 3c 60 5b ce bc 9d d2 7c bb
       0.023221273 0.029695258 -0.025190055 -0.0038577684
000080 19 04 f1 3c 08 f0 ae 39 c2 d5 0f 3d 1d 90 98 bc
       0.0294209 0.00033366703 0.035115965 -0.018623406
000090 31 1c 8e 3c 2c 12 bc bc 9b bd a0 bc c7 40 0b bc
       0.017347427 -0.022957884 -0.019621661 -0.008499331
0000a0 d6 23 40 3b 8a 10 e4 bb 4d 2f e4 3c eb 46 17 bb
       0.0029318235 -0.0069599794 0.027854586 -0.0023083042
0000b0 fe 82 17 3d 49 6b b8 bb e3 01 c8 bc 27 d7 36 bb
       0.03699016 -0.0056280238 -0.024414962 -0.0027899237
0000c0 04 99 17 3d b1 bd 33 3d 80 d9 b1 bc 0b e1 4e 3d
       0.03701116 0.043882076 -0.021710157 0.050507586
0000d0 2b 70 2c 3c 8b 91 28 bd f0 56 3b 3c e7 7b 00 bb
       0.01052479 -0.041154426 0.011434302 -0.0019605102
0000e0 e1 b6 75 3c 10 03 0d 3d ff 3f 33 3b 8c 8e ad 3c
       0.014997215 0.03442675 0.0027351377 0.021186136
0000f0 26 22 1c 3d 88 dd e9 3c c5 14 d0 bb 9f ee 6a 3c
       0.038118504 0.028548017 -0.006350132 0.014339118
000100 0f 2d 4d bd ad ca 9f 3c 09 a0 c2 bb 15 90 87 3c
       -0.0500918 0.019505823 -0.005939488 0.016548196
000110 f0 31 5b 3c b5 2f 63 bc d5 bf e2 bb 10 af 53 3a
       0.013378605 -0.013866355 -0.006919841 0.00080750976
000120 65 37 b1 3c 4a e9 ff bb 86 42 27 bd a8 a4 33 bc
       0.02163286 -0.0078097926 -0.040834926 -0.01096455
000130 9e b2 e4 3b f6 63 0c 3d 97 aa 73 bc 44 93 86 3c
       0.0069793006 0.034275018 -0.014872215 0.016427644
000140 b7 61 d6 bc 1e 01 bc 3c 73 7a 92 bb 82 8d 1f 3d
       -0.026169641 0.022949751 -0.0044701635 0.03895331
000150 b7 61 17 bd f3 9b 2c 3d a3 d6 c2 3b 0f 2f 4b bb
       -0.036958423 0.042140912 0.005945997 -0.003100339
000160 71 62 16 bc b3 f1 cb 3c c6 f4 43 bb 3a 88 a4 3a
       -0.009178744 0.024895525 -0.0029900535 0.0012552806
000170 21 c4 ac 3c d6 5a 52 3a 72 f9 ba 3c 21 90 29 bd
       0.021089615 0.00080244 0.022824023 -0.041397218
000180 59 40 20 3d 5d d3 c8 bc 7b 03 ef 3c df 1e a4 bc
       0.039123867 -0.024514848 0.029176464 -0.020034252
000190 43 9c 3b 3d d6 e2 96 bc f4 0e 97 3c df 5d 00 bd
       0.04580332 -0.01841871 0.018439747 -0.031339522
0001a0 59 2a 61 3d d6 b6 4b 3c c4 d4 34 bd 6a 43 e9 3b
       0.054972026 0.012433728 -0.04414822 0.007118632
0001b0 cf 94 e6 3b db d4 16 3c bc 7d 1b 3c 7b df 61 3c
       0.0070367823 0.009206022 0.009490427 0.013786192
0001c0 8e b7 e9 3c fb cc 49 bb f3 3b 06 3d a6 1c 89 3c
       0.028529909 -0.0030792344 0.032772016 0.016737293
0001d0 e1 29 b0 ba c1 6c 13 bd ec 23 d4 3c dd a0 a5 bc
       -0.0013440215 -0.035992388 0.025896035 -0.020218307
0001e0 3f 22 99 3c e0 48 70 bc 32 f2 1a b9 b2 94 01 3d
       0.018693088 -0.014665812 -0.00014776809 0.031635948
0001f0 8e e1 4e 3b de 95 97 3a 5b 08 3b 3c 9f a3 63 bc
       0.0031567547 0.001156505 0.011415566 -0.013893991
000200 53 f4 ea bc d7 e7 96 3c 57 18 5f 3c 36 17 ab 3b
       -0.028680956 0.018421097 0.013616643 0.005221273
000210 cb 12 42 bb 7e 75 16 3d 87 49 c9 3c 87 73 2d 3d
       -0.0029613252 0.036733143 0.024571193 0.042346504
000220 20 72 5d bd ac c0 0d bd 35 70 46 3d 12 17 1c 3d
       -0.054063916 -0.034607574 0.048446853 0.03810794
000230 e7 38 ec 3b ea d3 39 bb ba 81 75 bc 73 45 51 bc
       0.0072089317 -0.002835507 -0.0149845425 -0.012772906
000240 b0 a6 32 bd 56 da 5b 3d c3 d4 dd 3c 06 99 50 3a
       -0.043615997 0.05367502 0.027078992 0.00079573726
000250 d6 8f ae 3c 71 fe be 3c 6a d4 0e 3d 15 3f fe bc
       0.02130882 0.023314686 0.034870543 -0.03103594
000260 ef 93 0a 3d c7 03 a9 bc 09 bc 69 3c fe a9 d3 3c
       0.033832487 -0.020631684 0.0142660225 0.025837895
000270 f4 88 c0 bc ad 84 85 bc 1b 51 7d bc fc 54 b1 bc
       -0.023502804 -0.016298616 -0.015461232 -0.021646969
000280 86 43 51 3c ea c0 00 3d df 92 39 bd bc 48 25 bd
       0.0127724465 0.031433977 -0.045306083 -0.040352568
000290 5e 19 39 bd b0 6a d0 3c 49 75 ac bc 2b 71 3a bc
       -0.045190208 0.025441498 -0.02105202 -0.01137952
0002a0 8c 76 9c 3c 87 59 c0 3b 07 db d4 bc 3e 8c ee 3c
       0.019099496 0.0058700475 -0.025983347 0.029119607
0002b0 97 95 2b bd 48 18 6a 3d 13 ca 6d 3c d5 6e b5 bc
       -0.041890707 0.057152063 0.01451351 -0.022147575
0002c0 9e 64 12 bc 24 aa 8b bc 52 12 25 bc 30 28 00 bc
       -0.008935122 -0.017048903 -0.010075169 -0.007822081
0002d0 07 e1 23 bc 1b 0a a9 bc 9f dd c6 3c 98 33 8f 3b
       -0.010002381 -0.020634701 0.024275599 0.004370164
0002e0 7d 2f 0e 3d 02 06 5b 3d ba d2 a6 3c 8d 0e 1b bd
       0.034713257 0.053472526 0.020364154 -0.037855674
0002f0 9f bf 5a 3d 35 08 21 bd 8c e9 f3 3c b4 f7 a9 bb
       0.0534054 -0.039314467 0.02977445 -0.005186999
000300 cb 5c 95 3c 8a 79 24 bc 38 30 20 bd 75 0f 44 3d
       0.018232724 -0.010038743 -0.039108485 0.047866303
000310 d8 9b 9c bc 2f ca 70 3c 8c d7 34 bc 6b d4 53 bd
       -0.01911728 0.014696642 -0.0110377185 -0.05171625
000320 36 67 85 bc e0 30 db 3c 40 b6 1d bd 1f 61 e9 b9
       -0.016284566 0.026756704 -0.038503885 -0.00044513584
000330 a1 d8 33 bd c3 ff c5 3c 3f 7a 42 bd 1f 7b 53 bc
       -0.043907765 0.024169808 -0.047479864 -0.012907772
000340 b0 20 bf 3c ee 18 a1 bc 8c 5d 11 3d 66 89 01 bc
       0.023331016 -0.019665208 0.035489604 -0.0079062935
000350 73 ed 16 3b c8 e7 68 bc 01 1c 3a bd e1 96 35 bd
       0.0023029714 -0.014215417 -0.045436863 -0.044333342
000360 1f 92 ff bc a7 01 29 3c 7c d6 83 3a fc a3 12 bd
       -0.031197606 0.010315335 0.0010058428 -0.03580092
000370 da fa ea 3c 95 33 02 3d 38 01 43 bd 8a 4b 04 3d
       0.028684068 0.031787474 -0.047608584 0.032298602
000380 ae 4f 2c 3d 2d 78 62 3c cb 3b 1a 3d 39 f5 46 bd
       0.042068176 0.013822597 0.03765468 -0.048573706
000390 48 ed 88 bc 78 b5 76 3d fe c1 a9 bc 35 b3 39 3a
       -0.016714707 0.060231656 -0.020722385 0.0007083894
0003a0 9f 7d c0 bc f7 58 b7 3c 84 c8 4a bd ea 72 b6 3b
       -0.0234974 0.022381289 -0.049507633 0.005567898
0003b0 3b 30 d5 3c 32 17 81 3c 4d 43 e0 3c 68 81 04 bd
       0.026023975 0.01575813 0.027375842 -0.032349974
0003c0 d6 11 bd bc 82 9e 2e 3c 00 48 29 3d 4f 5c 0a bc
       -0.023079794 0.010657908 0.04132843 -0.00844486
0003d0 1a 0a 04 39 5f 1d 15 3c 61 68 b1 3c ce 94 35 bd
       0.00012592264 0.009101241 0.021656217 -0.044331364
0003e0 68 5b ad 3c fc de 12 3d 91 4f 90 3c 69 d8 89 bc
       0.02116175 0.035857186 0.017616065 -0.016826825
0003f0 0b bb b9 bb 64 f8 51 3d d1 44 73 ba 4f 3c 73 bb
       -0.005668049 0.051262274 -0.0009279969 -0.0037114804

activation.coefficients_vect f4 [672]
000000 00 00 00 80 d4 48 e6 38 e8 3b 60 b9 78 cf 44 39
       -0.0 0.0001098082 -0.00021384622 0.00018769305
000010 a4 80 33 36 6f 4a ac 38 c5 25 05 38 a4 c5 86 39
       2.6747957e-06 8.2154635e-05 3.1744847e-05 0.00025705725
000020 cc df 1f b7 16 75 58 38 32 b1 99 35 39 ed 56 b8
       -9.529245e-06 5.1607458e-05 1.1450959e-06 -5.1242507e-05
000030 93 72 8d b8 19 f0 37 b9 83 9a a6 38 92 3d 24 b9
       -6.744745e-05 -0.00017541683 7.944277e-05 -0.00015663196
000040 aa bc a0 38 68 60 8d b9 6f d7 04 b9 5f 53 1a b8
       7.664536e-05 -0.00026965444 -0.00012668756 -3.6794107e-05
000050 00 00 00 00 00 00 00 80 bd 07 9d 39 b4 07 9d 39
       0.0 -0.0 0.0002995114 0.00029951113
000060 f7 6f 99 39 79 ce 9b b8 d4 bc 9e 39 21 fa 51 b7
       0.00029265854 -7.4294345e-05 0.00030276796 -1.2515608e-05
000070 9a a7 16 39 d4 5d 13 39 03 42 08 39 5e 05 a0 38
       0.00014367551 0.00014053966 0.00012994562 7.630394e-05
000080 9f 1e 3a b8 b6 7f ed b8 57 a6 ab b6 f1 80 83 b9
       -4.4374374e-05 -0.00011324829 -5.1155616e-06 -0.00025082336
000090 bf a0 05 39 7e 0c 25 b9 26 44 a8 38 62 08 68 b9
       0.00012743751 -0.0001574028 8.023558e-05 -0.00022128367
0000a0 bd 07 9d b9 00 00 00 00 00 00 00 80 f4 9e 91 39
       -0.0002995114 0.0 -0.0 0.00027774984
0000b0 13 d7 a8 39 f2 1a 4e b9 34 88 d9 b7 7a f7 59 39
       0.000322037 -0.00019655729 -2.593184e-05 0.00020786925
0000c0 92 7b 2e 39 e8 ad a8 39 52 1d 56 39 d7 95 c3 b7
       0.00016639967 0.00032173027 0.00020419553 -2.3315586e-05
0000d0 3b 97 17 ba ea 46 be 39 d9 24 14 b9 cb 55 bc 35
       -0.0005782728 0.0003629246 -0.00014128107 1.403206e-06
0000e0 89 33 3c 38 c2 4e a9 b9 37 c0 28 39 12 b3 87 38
       4.487069e-05 -0.0003229287 0.00016093334 6.470656e-05
0000f0 02 43 90 b7 38 7e a0 b9 00 00 00 00 00 00 00 80
       -1.719734e-05 -0.00030611618 0.0 -0.0
000100 c9 e6 0c 39 95 2b 29 37 c2 4f 8e b7 8c 01 bb 38
       0.00013437415 1.0083332e-05 -1.696486e-05 8.917143e-05
000110 22 60 16 39 1a 19 cc 38 9d 71 4e 39 0a ac f1 38
       0.00014340927 9.7321536e-05 0.00019688015 0.0001152382
000120 0e fa 83 38 72 46 c6 36 62 68 a0 b8 64 fe 38 b7
       6.293143e-05 5.9090607e-06 -7.648837e-05 -1.1026485e-05
000130 24 97 42 b9 00 63 10 b9 37 9d f9 36 d0 37 b4 b5
       -0.00018557586 -0.0001376979 7.4390805e-06 -1.3427289e-06
000140 d6 a9 13 b9 c5 f0 9d b9 bd 07 9d b9 00 00 00 00
       -0.00014082281 -0.0003012476 -0.0002995114 0.0
000150 00 00 00 80 93 8d 5f 39 07 e9 35 39 15 e5 36 b9
       -0.0 0.00021319678 0.00017348315 -0.00017442212
000160 7f 9a 64 b7 20 e0 27 b8 94 c6 83 38 b4 2c 8f 38
       -1.362583e-05 -4.0024635e-05 6.283555e-05 6.827098e-05
000170 85 8a 69 38 e9 d2 fd 38 af 77 d8 b6 d1 a9 1d b9
       5.5680535e-05 0.00012103265 -6.4512346e-06 -0.00015035948
000180 99 0a b7 37 5b 50 89 b8 00 e2 a5 b7 98 7c ad 38
       2.1820235e-05 -6.5476364e-05 -1.9774772e-05 8.27249e-05
000190 b6 14 08 b9 85 21 99 38 d3 23 34 b8 1e fd 28 b9
       -0.00012977686 7.301852e-05 -4.2948708e-05 -0.00016116022
0001a0 00 00 00 00 00 00 00 80 0b 5d 8c 39 87 3c 83 b6
       0.0 -0.0 0.00026772203 -3.9111505e-06
0001b0 c7 c4 37 b7 96 d1 d9 38 82 cb 4c 39 6d 6a a3 b8
       -1.0953466e-05 0.00010386405 0.00019530769 -7.792269e-05
0001c0 9d 99 b2 38 6d 65 70 39 45 7b 1a 39 a6 63 01 39
       8.516314e-05 0.00022925968 0.00014732506 0.0001233952
0001d0 66 e9 2c b8 6c 15 4c 38 82 81 57 b9 d8 46 9f b9
       -4.1225365e-05 4.865734e-05 -0.00020552243 -0.00030379626
0001e0 31 5c f5 b7 43 b5 ef b8 04 48 9f b8 85 d1 55 b9
       -2.9249206e-05 -0.00011430171 -7.595125e-05 -0.00020391315
0001f0 55 5b df b9 00 00 00 00 00 00 00 80 28 59 bc 39
       -0.00042601922 0.0 -0.0 0.0003592458
000200 c8 0d 6b 38 93 e6 8a b9 38 fb a2 39 a8 82 4a 39
       5.60412e-05 -0.00026493202 0.0003108622 0.00019312894
000210 d8 ae d7 35 00 59 11 39 cc 2b 62 38 b6 ea 13 38
       1.6069635e-06 0.00013861433 5.3923388e-05 3.5266123e-05
000220 77 f9 0f 37 15 c0 88 b8 a6 03 52 b9 3c 0d 63 b8
       8.581547e-06 -6.5207634e-05 -0.0002002852 -5.4133343e-05
000230 ea 23 ce b8 79 e0 bf 37 71 10 e4 b8 3e 97 3a b9
       -9.829535e-05 2.2873503e-05 -0.0001087495 -0.00017794684
000240 5c 6a b0 b9 ac 07 9d b9 00 00 00 00 00 00 00 80
       -0.0003364858 -0.0002995109 0.0 -0.0
000250 d9 2b d6 39 d5 b5 99 39 df b2 ad 39 11 d1 7a 39
       0.0004084993 0.0002931791 0.000331304 0.00023919741
000260 27 24 19 39 6c ac b1 39 af ca 3a 39 c7 92 ef 38
       0.00014604685 0.00033888535 0.00017813848 0.000114237475
000270 9f ac 20 39 20 a3 c8 38 0b 98 87 b9 08 39 33 b9
       0.00015323095 9.5671276e-05 -0.00025862487 -0.00017092016
000280 56 98 30 b9 9e 88 0b b9 2a 4c 65 b9 e8 0f 80 b8
       -0.00016841418 -0.00013306967 -0.00021867515 -6.1064784e-05
000290 47 84 ff b8 34 6d 88 b9 42 07 9d b9 00 00 00 00
       -0.00012183986 -0.00026021304 -0.0002995078 0.0
0002a0 00 00 00 80 5b 47 32 39 13 6c 67 b8 e1 0d 97 b7
       -0.0 0.00017001985 -5.5175344e-05 -1.8007066e-05
0002b0 8f 9f c0 b7 1c a1 b0 37 b9 fc 93 39 ed 98 57 39
       -2.2962484e-05 2.1055857e-05 0.00028226318 0.00020560967
0002c0 df b7 91 39 dd b5 32 39 9e 40 66 b5 94 ef 22 b9
       0.0002779355 0.00017043152 -8.577571e-07 -0.00015538774
0002d0 46 db 07 b8 dd 99 c9 37 2e 47 94 b9 b2 5d 80 b8
       -3.2390722e-05 2.4032715e-05 -0.00028281793 -6.120968e-05
0002e0 92 bf d0 38 31 e8 76 b7 5c 85 88 b9 ac 94 df b9
       9.953896e-05 -1.4716804e-05 -0.00026039302 -0.00042644644
0002f0 00 00 00 00 00 00 00 80 5c fc 54 39 a2 85 05 b9
       0.0 -0.0 0.00020311907 -0.0001273365
000300 43 74 55 39 49 83 1f b9 ed c5 f2 38 97 fe be 38
       0.00020356574 -0.00015212329 0.00011576326 9.107327e-05
000310 43 9f 8a 38 0c 9e d9 38 db 7b df 38 f8 b7 b5 37
       6.6100176e-05 0.00010376805 0.000106565385 2.1662549e-05
000320 79 d8 0c b9 94 d8 cd b8 49 bf de b8 79 0e 7a b9
       -0.00013432083 -9.8155026e-05 -0.000106214145 -0.0002384725
000330 2b 71 5d 39 01 cb 00 38 52 2f 05 38 cd 8d 9e b9
       0.00021118361 3.070664e-05 3.175374e-05 -0.00030241758
000340 7c d2 4d b9 00 00 00 00 00 00 00 80 bd 9a ad 39
       -0.00019628735 0.0 -0.0 0.0003311242
000350 4c e1 48 b9 57 8d a3 39 58 10 3e 39 51 92 d3 38
       -0.00019157416 0.0003119509 0.000181259 0.000100885176
000360 dc 47 22 39 65 75 de 38 fd e6 cd 38 b4 01 16 39
       0.00015476294 0.00010607651 9.818187e-05 0.00014305749
000370 d8 9e a8 b8 c0 61 b5 b8 f1 50 14 b9 9b 18 a5 b9
       -8.040451e-05 -8.64896e-05 -0.00014144533 -0.00031489585
000380 4c a6 83 b9 24 5b 06 39 f7 9f 90 b9 90 95 0d 39
       -0.00025110168 0.00012813188 -0.00027585003 0.00013502524
000390 9a 27 24 36 ea 4e b5 b9 00 00 00 00 00 00 00 80
       2.4460956e-06 -0.00034581806 0.0 -0.0
0003a0 64 4a bf 37 42 a0 4a b7 a2 0a 21 b9 3d a8 6c 39
       2.2803615e-05 -1.2077451e-05 -0.00015358118 0.00022569388
0003b0 f7 42 14 39 06 52 e4 b5 27 c3 e5 38 88 4f 5a 39
       0.00014139326 -1.7011196e-06 0.00010955921 0.00020819728
0003c0 a8 e8 18 b9 35 41 ea 39 ed 96 09 b9 b9 9a 12 b7
       -0.00014582521 0.0004468054 -0.00013121562 -8.738302e-06
0003d0 ea e7 e3 b8 e8 53 78 b7 4d 72 42 b9 1b fc 4b b9
       -0.00010867401 -1.4801488e-05 -0.00018543862 -0.00019453505
0003e0 f9 61 d5 38 61 8d ab 38 3b ba 9b b9 00 00 00 00
       0.0001017488 8.180249e-05 -0.00029702656 0.0
0003f0 00 00 00 80 bb 07 9d 39 16 fb 9e 39 ed cd cf b8
       -0.0 0.00029951133 0.00030323182 -9.908886e-05
