trained_models/IOD_Training/crr_nn_best_model_inpaint_25.pth (torch, 57818 bytes, 3 tensors)

conv_layer.conv_layers.0.parametrizations.weight.original f4 [8, 1, 7, 7]
-0.11993809 0.12914628 0.00016732192 -0.15405798 -0.04633753 -0.008751107 0.11465325 0.009766082
0.106737055 0.083328635 0.12758939 0.14701124 0.024925949 -0.16370688 0.01773163 0.13948734
-0.006849806 -0.07056419 -0.11919872 0.084165595 0.056763966 -0.027790427 0.16917759 -0.13088967
0.11016508 0.019455675 0.00793094 -0.050155066 -0.105143815 -0.1183388 0.06438938 -0.115560085
-0.040943634 -0.1386865 0.15177687 0.074707285 -0.004157157 -0.117272235 0.050553907 0.102609314
-0.07136536 0.097617164 0.046778835 -0.053063232 -0.121118106 -0.09352818 0.119574524 -0.09707306
-0.07657139 -0.1015173 -0.11628234 0.013202276 -0.02518358 0.09556605 -0.14546573 0.09588319
-0.10676619 -0.042435624 -0.14055292 -0.15828782 0.06502542 0.14138205 -0.123019636 -0.12253985
0.12255318 -0.037084173 0.021467276 -0.05430747 0.1428043 0.06795304 0.14236769 -0.13632174
-0.05243721 -0.11582017 -0.1379723 0.095100485 -0.027086101 -0.0195872 0.020213872 -0.11957592
0.08351071 0.17341027 0.11754433 -0.1368827 0.15454239 0.0272955 -0.055272203 0.13467142
-0.054127075 0.08557692 0.12401573 -0.037774872 0.09735691 0.015791371 -0.14677534 -0.019413846
0.12363597 0.009685505 0.032357715 0.11423258 -0.054022748 0.07504935 -0.04673389 -0.111456715
-0.10399289 0.023886105 -0.02817342 -0.07894781 0.09772632 -0.11041055 -0.12371076 0.13823205
0.07784229 -0.028825305 -0.025198948 -0.10944391 0.05518972 0.011710652 -0.030946957 0.1313998
0.08443105 -0.14678231 -0.09361132 0.1387883 0.016464148 -0.1715315 -0.06731797 0.041102875
0.1231869 -0.066379696 0.16481906 0.017613098 0.15144062 -0.14588724 -0.13741735 0.030923199
0.03958691 0.09953029 0.00486081 0.09513464 0.14663334 0.10016126 -0.08891414 -0.08979778
-0.085030496 -0.044314902 0.049700107 -0.097910345 0.13922404 0.008324511 -0.1216548 -0.093186215
0.10319689 0.029207429 -0.06629802 -0.15178351 -0.072739825 0.16841671 0.06602127 -0.12795149
-0.025157487 -0.12515287 0.07834021 0.11006613 0.09807342 0.096963115 0.07871042 0.058317393
0.16392258 0.11220147 0.052849244 -0.0010892226 0.058696065 -0.11350697 0.1499888 -0.068800844
-0.041410506 0.16023102 -0.08466299 0.13129495 0.0792708 -0.1352181 0.077071205 0.03133477
-0.0749417 -0.13730088 -0.034877006 -0.045698658 -0.046397246 0.002877874 0.0015760179 -0.03532404
-0.07659321 0.018800892 -0.14394291 -0.06136597 -0.00074362766 0.12665409 -0.13412467 -0.10770789
-0.081529945 0.103400774 -0.025143586 -0.122006685 0.038879618 0.029248053 -0.036262605 -0.0030546072
-0.021371292 -0.03310207 -0.007235154 0.05115832 0.11852306 0.07501742 0.028904658 -0.09094073
-0.02697477 -0.14966568 -0.029210242 0.08110947 0.08398998 0.06695149 0.13452978 -0.1332346
0.126121 -0.15392677 -0.11740867 0.042610034 0.037358444 0.09610768 -0.044676296 0.089044884
0.16244091 -0.103194095 0.1527473 0.1009431 0.07219037 -0.087903604 0.0027109522 -0.06510974
-0.06088227 -0.16799264 0.021813655 -0.10125991 0.0965396 -0.011327689 0.12030132 0.07211583
-0.046291605 -0.0031830529 -0.05054801 0.012837636 -0.14797932 0.03683015 0.0078026415 -0.12723793
00000000: 1aa2 f5bd ec3e 043e 2373 2f39 60c1 1dbe
00000010: 6ccc 3dbd ce60 0fbc 53cf ea3d eb01 203c
00000020: f598 da3d 34a8 aa3d cba6 023e 1d8a 163e
00000030: 8131 cc3c c7a2 27be ec41 913c c5d5 0e3e
00000040: 5674 e0bb f583 90bd 751e f4bd 035f ac3d
00000050: 5581 683d c0a8 e3bc e43c 2d3e f107 06be
00000060: 3b9e e13d 8261 9f3c c6f0 013c 666f 4dbd
00000070: a455 d7bd 9d5b f2bd 94de 833d c4aa ecbd
00000080: 83b4 27bd d503 0ebe 656b 1b3e 2200 993d
00000090: c338 88bb 6d2c f0bd 9d11 4f3d d524 d23d
000000a0: 0028 92bd 82eb c73d 2a9b 3f3d d558 59bd
000000b0: c50c f8bd b48b bfbd 7de3 f43d 3ece c6bd
000000c0: 76d1 9cbd 4de8 cfbd 6f25 eebd 5c4e 583c
000000d0: cc4d cebc 22b8 c33d f8f4 14be 685e c43d
000000e0: 3ba8 dabd fad0 2dbd 1bed 0fbe 3416 22be
000000f0: 0c2c 853d 75c6 103e b8f1 fbbd 2cf6 fabd
00000100: 29fd fa3d 93e5 17bd 24dc af3c 8271 5ebd
00000110: 4a3b 123e f72a 8b3d d6c8 113e ed97 0bbe
00000120: 66c8 56bd 2033 edbd 9c48 0dbe 0bc4 c23d
00000130: ace3 ddbc 5675 a0bc 9097 a53c 38e4 f4bd
00000140: aa07 ab3d 7692 313e 15bb f03d fa2a 0cbe
00000150: 5c40 1e3e d09a df3c 1b65 62bd 4ee7 093e
00000160: 5ab4 5dbd f442 af3d f6fb fd3d d3b9 1abd
00000170: 0f63 c73d e85c 813c 464c 16be c909 9fbc
00000180: db34 fd3d f4af 1e3c 8689 043d c5f2 e93d
00000190: f546 5dbd 79b3 993d 096c 3fbd 6b43 e4bd
000001a0: 39fa d4bd cbac c33c f2cb e6bc 64af a1bd
000001b0: bd24 c83d ed1e e2bd 115c fdbd b48c 0d3e
000001c0: c76b 9f3d 0c23 ecbc 066e cebc 2124 e0bd
000001d0: 9e0e 623d 09de 3f3c 7984 fdbc ab8d 063e
000001e0: 30ea ac3d 1a4e 16be 4bb7 bfbd 851e 0e3e
000001f0: d2df 863c f4a5 2fbe 01de 89bd 7d5b 283d
00000200: 6a49 fc3d 14f2 87bd 54c6 283e 5849 903c
00000210: 4013 1b3e 7763 15be 22b7 0cbe a652 fd3c
00000220: e225 223d 89d6 cb3d 6e47 9f3b f3d5 c23d
00000230: 0d27 163e 5921 cd3d 9e18 b6bd e6e7 b7bd
00000240: 7824 aebd 8b83 35bd 5792 4b3d 3885 c8bd
00000250: bf90 0e3e 8863 083c 2726 f9bd 6ad8 bebd
00000260: e458 d33d 6b44 ef3c 42c7 87bd 236d 1bbe
00000270: 9ef8 94bd 6e75 2c3e 2936 873d b705 03be
00000280: 1317 cebc 1328 00be d570 a03d 5a6a e13d
00000290: b8da c83d 9994 c63d ee32 a13d 38de 6e3d
000002a0: 52db 273e e2c9 e53d 7378 583d 3fc4 8eba
000002b0: 496b 703d 5876 e8bd aa96 193e 75e7 8cbd
000002c0: 109e 29bd 9a13 243e ca63 adbd 2f72 063e
000002d0: bb58 a23d 9d76 0abe 82d7 9d3d e358 003d
000002e0: 097b 99bd 9a98 0cbe 31db 0ebd 842e 3bbd
000002f0: 0a0b 3ebd b79a 3c3b 6392 ce3a f1af 10bd
00000300: e7dc 9cbd 5404 9a3c c565 13be e25a 7bbd
00000310: 02f0 42ba 9cb1 013e fa57 09be f495 dcbd
00000320: 2cf9 a6bd c9c3 d33d ecf9 cdbc a4de f9bd
00000330: 3c40 1f3d 9d99 ef3c 1988 14bd ce2f 48bb
00000340: d912 afbc 0996 07bd df14 edbb 638b 513d
00000350: 38bc f23d bca2 993d 76c9 ec3c 223f babd
00000360: 31fa dcbc f641 19be 514a efbc b91c a63d
00000370: f002 ac3d dd1d 893d 2dc2 093e a76e 08be
00000380: dd25 013e fb9e 1dbe f573 f0bd dc87 2e3d
00000390: 2b05 193d 1ad4 c43d 7efe 36bd 2a5d b63d
000003a0: e956 263e 6d57 d3bd ca69 1c3e 42bb ce3d
000003b0: 8bd8 933d ce06 b4bd 3baa 313b 4158 85bd
000003c0: b05f 79bd 4306 2cbe 8db2 b23c 5b61 cfbd
000003d0: 8eb6 c53d c597 39bc 8a60 f63d 77b1 933d
000003e0: 449c 3dbd c49a 50bb 6e0b 4fbd f354 523c
000003f0: e487 17be 36db 163d 4dad ff3b a94a 02be

conv_layer.conv_layers.1.parametrizations.weight.original f4 [32, 8, 7, 7]
-0.0123876445 -0.058404177 0.011890946 -0.03347254 0.05648465 -0.057984173 0.059349597 0.027565256
0.04427097 0.03323638 0.036264222 -0.040781483 -0.023211945 0.0043653967 -0.058882177 0.0031639074
0.0076696975 -0.060341526 -0.042492516 -0.014289228 -0.041427065 -0.061820764 0.05330874 0.01761898
-0.003480507 -0.052590996 0.011340444 0.009784066 0.074617684 -0.071788676 -0.026063548 -0.047767546
0.00093701127 -0.022233313 0.055832703 0.0033387502 0.021830203 0.05258781 0.02174075 -0.029983247
0.01845706 0.063645385 0.032849614 0.05107404 -0.04017821 -0.020630687 -0.029603317 0.0099184
-0.02109468 0.01669404 0.034367163 0.0066367206 -0.050367963 0.00051919196 -0.041964885 -0.0119826505
0.036221206 -0.08003111 -0.028908834 -0.02265855 0.02678861 0.042073295 -0.03726079 -0.03570825
-0.012918637 -0.039346144 0.010126045 0.041648317 0.026064398 -0.029512422 -0.017679442 -0.01367414
0.028668411 -0.0024276085 -0.033867408 -0.022386033 0.034550633 0.008240284 0.005541852 0.029644443
0.023905534 -0.060186327 0.007883875 -0.008817071 0.048851073 -0.061639983 0.040917337 0.008693699
0.030341553 -0.016319143 0.010149342 -0.0061241044 -0.029723348 -0.00015004934 0.017412325 -0.012667913
0.04326466 0.026644297 0.0798309 -0.03517797 -0.021697858 -0.040218256 0.046457466 -0.054727137
-0.013710817 0.014668458 0.0029607334 -0.00079502375 -0.06648501 0.037515726 -0.04220903 0.008014911
0.05528066 -0.031931274 0.055191923 0.03413058 0.012208508 -0.008248146 0.0047226585 -0.034560416
-0.07479058 0.03448876 0.0060323393 0.0036643564 -0.031379912 -0.015840024 0.014634797 0.011716842
0.024584426 -0.039229877 -0.024823807 0.006071664 -0.049974456 -0.0032447465 -0.02258796 0.012487267
-0.03524809 0.021137996 0.012099003 -0.0013920075 0.03689231 0.008231518 -0.0039609885 0.008445199
-0.00808361 0.04673981 -0.014406847 0.015046153 -0.05916279 0.042115387 0.041362595 -0.01404511
-0.07266581 -0.006648772 -0.032930702 -0.054881874 0.0532579 -0.014525323 0.019329572 0.0780727
0.025086466 0.038436495 0.024351107 -0.039089147 -0.027308447 0.0035269756 -0.037013974 -0.0074287592
-0.019481821 0.042747453 -0.0040683877 -0.022470113 -0.04780905 0.032645684 -0.022617286 -0.03714454
0.011445067 -0.02817256 -0.014931856 0.06438635 -0.019647578 -0.052516367 0.050755307 -0.037249856
0.058542173 0.0496987 -0.05385556 -0.025978586 -0.01877068 -0.008355654 -0.052966416 -0.032666888
0.02953465 0.00032201447 -0.0022845892 0.019244932 -0.03881551 0.023067804 -0.05311869 0.032337286
0.08373521 -0.05290033 0.01623278 -0.041280963 0.07272753 -0.06002479 0.023564693 -0.0654094
-0.009471551 -0.005641705 0.04684772 -0.019400358 -0.00071507087 -0.007578963 0.04631846 0.016500516
0.053009104 0.011038348 -0.019719617 -0.041919794 -0.010545704 -0.006164078 -0.019231595 -0.042861585
-0.025570145 0.031139882 0.040828317 0.039203353 -0.0020190605 0.06581034 -0.016076483 0.013682043
-0.044876333 -0.044164974 -0.03633535 -0.030384054 0.046877928 -0.022975707 0.019828286 0.027496228
-0.010049512 0.043201894 -0.0397548 -0.053629167 -0.06877037 -0.029066505 -0.01218903 -0.04245287
-0.0025930165 0.04737537 -0.03538552 0.02162967 -0.045240555 -0.025078421 -0.021560498 -0.05336523
00000000: 8cf5 4abc 3839 6fbd 3ed2 423c 811a 09bd
00000010: 735c 673d d080 6dbd 9018 733d 88d0 e13c
00000020: 7a55 353d df22 083d cb89 143d 7c0a 27bd
00000030: fa26 bebc 9a0b 8f3b 702e 71bd 8f59 4f3b
00000040: 1652 fb3b ad28 77bd a20c 2ebd 5e1d 6abc
00000050: 6daf 29bd c537 7dbd 445a 5a3d ae55 903c
00000060: 3819 64bb a869 57bd 45cd 393c 594d 203c
00000070: 28d1 983d f105 93bd 3983 d5bc e7a7 43bd
00000080: c3a1 753a a322 b6bc d5b0 643d efce 5a3b
00000090: 41d5 b23c 5166 573d a819 b23c 6d9f f5bc
000000a0: 4333 973c 8358 823d 518d 063d 0333 513d
000000b0: e891 24bd b001 a9bc a882 f2bc c980 223c
000000c0: c0ce acbc f0c1 883c 95c4 0c3d d978 d93b
000000d0: a34e 4ebd 621a 083a 5fe3 2bbd e152 44bc
000000e0: b05c 143d 5ae7 a3bd 38d2 ecbc 6c9e b9bc
000000f0: c973 db3c 0c55 2c3d c59e 18bd d042 12bd
00000100: b1a8 53bc 6c29 21bd b6e7 253c 6d97 2a3d
00000110: 0185 d53c 09c4 f1bc 7ad4 90bc 8009 60bc
00000120: 04da ea3c 8318 1fbb 8db8 0abd ea62 b7bc
00000130: f784 0d3d 4202 073c 6d98 b53b e7d8 f23c
00000140: 8ad5 c33c f085 76bd 5e2b 013c 7a75 10bc
00000150: 1018 483d 357a 7cbd f098 273d 0470 0e3c
00000160: d98e f83c b9af 85bc 6d49 263c b6ac c8bb
00000170: 617e f3bc 9056 1db9 4ba4 8e3c 148d 4fbc
00000180: 4936 313d 2445 da3c 627e a33d c616 10bd
00000190: b5bf b1bc e6bb 24bd 2f4a 3e3d 9029 60bd
000001a0: 56a3 60bc f953 703c dd08 423b 2469 50ba
000001b0: 4b29 88bd 17aa 193d 60e3 2cbd f950 033c
000001c0: f96d 623d 5eca 02bd ed10 623d 82cc 0b3d
000001d0: 3206 483c 3b23 07bc 88c0 9a3b 398f 0dbd
000001e0: ce2b 99bd 1644 0d3d eeaa c53b b325 703b
000001f0: 3988 00bd f0c2 81bc cac6 6f3c fff7 3f3c
00000200: 4765 c93c 82af 20bd 4c5b cbbc cff4 c63b
00000210: 04b2 4cbd d0a5 54bb 630a b9bc 6597 4c3c
00000220: 4d60 10bd 9729 ad3c e63a 463c 0574 b6ba
00000230: 641c 173d 7ddd 063c 2ecb 81bb bb5d 0a3c
00000240: 1e71 04bc 3e72 3f3d b20a 6cbc 2484 763c
00000250: af54 72bd 2f81 2c3d d36b 293d 761d 66bc
00000260: d0d1 94bd f1dd d9bb 58e2 06bd d1cb 60bd
00000270: f524 5a3d 9ffb 6dbc 0d59 9e3c 94e4 9f3d
00000280: 2282 cd3c 966f 1d3d f97b c73c f11b 20bd
00000290: f7b5 dfbc d524 673b f79b 17bd f36c f3bb
000002a0: 5798 9fbc f417 2f3d 1c50 85bb 3e13 b8bc
000002b0: 6cd3 43bd 7bb7 053d e347 b9bc e024 18bd
000002c0: 1784 3b3c 24ca e6bc bea4 74bc fedc 833d
000002d0: f5f3 a0bc 671b 57bd cce4 4f3d 4e93 18bd
000002e0: ebc9 6f3d dd90 4b3d a697 5cbd 0bd1 d4bc
000002f0: f8c4 99bc 27e6 08bc 50f3 58bd b7cd 05bd
00000300: a6f2 f13c 0dd4 a839 0cb9 15bb 8ca7 9d3c
00000310: 03fd 1ebd b1f8 bc3c fc92 59bd 1a74 043d
00000320: 5e7d ab3d 04ae 58bd 9bfa 843c 3a16 29bd
00000330: 2cf2 943d 8edc 75bd be0a c13c 5df5 85bd
00000340: 902e 1bbc 0dde b8bb 65e3 3f3d 80ed 9ebc
00000350: 9873 3bba f358 f8bb 6db8 3d3d 172c 873c
00000360: 1320 593d 30da 343c 098b a1bc 17b4 2bbd
00000370: e3c7 2cbc 09fc c9bb 948b 9dbc a18f 2fbd
00000380: 7b78 d1bc 1119 ff3c 983b 273d b293 203d
00000390: 3752 04bb 92c7 863d d4b2 83bc a62a 603c
000003a0: 3fd0 37bd 55e6 34bd 60d4 14bd fbe7 f8bc
000003b0: 1203 403d 8d37 bcbc ee6e a23c c53f e13c
000003c0: b5a6 24bc 78f4 303d eed5 22bd 42aa 5bbd
000003d0: 7bd7 8cbd e11c eebc 7fb4 47bc 10e3 2dbd
000003e0: 99ef 29bb ad0c 423d 68f0 10bd b530 b13c
000003f0: 294e 39bd 4371 cdbc a49f b0bc 8095 5abd

activation.coefficients_vect f4 [672]
-0.0 -0.00029951142 -0.00040626532 0.00014814748 -0.0003812118 -0.00050342287 -0.00044632397 0.00023108299
-0.00041105368 0.0002941764 -0.0005078329 0.0004761677 0.00029951145 -0.00022362624 0.0006003363 0.00039207467
-0.0001230319 0.00044313024 0.00037847162 0.00036061963 0.0 -0.0 -0.00029951142 -0.00042403932
0.00016460351 -0.00029951142 -0.00037470722 -0.0006814912 0.00024286148 -0.00035228833 -0.0015694064 0.0010077488
-0.0005611744 0.000551024 0.0005970334 0.00036847917 -0.00016339989 0.00039178456 0.00040205006 -0.000110448345
0.00036730123 0.0 -0.0 -0.00036925424 -0.00049093505 0.00018802122 -0.00029951142 -0.00040917605
0.00023819118 -0.00034918115 -0.0014785219 0.0003195955 -0.0005016678 0.0016105666 0.00034680558 -0.00027621325
0.0008246873 0.0003986464 0.00037687624 -0.00017859136 0.0004992871 0.00036927406 0.0 -0.0
-0.00035988452 -0.00049004273 9.457394e-05 -0.0004856041 0.00016797976 -0.0003915335 -0.00039807006 -0.00040541083
-0.0014656293 0.001348832 0.0003420019 -0.00034789916 0.00060763146 0.0007964509 0.00038929709 -0.0001617234
0.00053026463 0.00038613024 0.00036554944 0.0 -0.0 -0.0003223682 -0.00029113874 -0.0001635144
-0.00033727396 -8.076966e-05 -0.00040505023 -0.00043267856 -0.00015992347 -0.00040542713 -0.0006810705 0.0005417641
0.00029951142 -0.00025543143 0.0006992201 0.00022884499 0.00045497293 -0.00012488972 0.00046386287 0.00036394247
0.0 -0.0 -0.00037267973 -0.00045969491 -0.00042173508 0.00016222599 -0.00038244124 -0.00075440883
-8.947751e-05 -0.0011852599 -0.0008065823 0.00081585674 0.0017520951 0.00035233432 -0.00024000433 0.0006398516
0.0003013441 0.0004297662 -9.203033e-05 0.00043199473 0.00029951142 0.0 -0.0 -0.00029951142
-0.00038344937 -0.00033027938 -0.00043878358 0.00015961709 -0.0003679625 -0.00054019794 0.00022904403 -0.0004030078
0.0013679313 0.00032089287 -0.00023430459 0.00037697566 0.00029951142 -0.0001851283 0.0004139166 0.00034852707
0.00039322392 0.00029951142 0.0 -0.0 -0.00036869067 -0.00039722517 -0.00053615804 0.00020272605
-0.0004078313 0.0002351472 -0.0004215734 0.00027969593 -0.0004329998 0.001004167 0.00034200115 -0.00025225896
0.0004178184 -0.0001965086 0.00041105732 -0.00015795407 0.00041417053 -0.00012545049 0.00037618505 0.0
-0.0 -0.00029951142 -0.00043248272 0.00011244099 -0.00043748692 0.00016011369 -0.00038357786 -0.00072537025
0.00026046595 -0.0004760498 0.0009120753 0.0004734075 0.0003402517 -0.0001933589 0.00041541547 0.00038335807
-0.000125301 0.00037731856 0.00036284697 0.00036028412 0.0 -0.0 -0.0003650998 4.0853192e-05
-0.00043896292 0.00010370903 -0.00044260808 0.0001804629 -0.00037294792 -0.00040624174 -0.0012724992 0.00051491853
-0.00035557584 0.00058337516 0.0008013012 0.000388523 0.00022059145 0.00046946286 -0.00012521769 0.00049392815
0.00037037046 0.0 -0.0 -0.0003718339 -0.00055113086 0.00019154779 -0.00037870693 -0.0007555686
0.00026799925 -0.00034951465 -0.0015368721 -0.0011687949 0.0011649765 -0.00030009495 0.0005303041 0.00057408615
0.0003799922 0.00043622102 0.0004599805 0.00029951142 -9.8721874e-05 0.00040433148 0.0 -0.0
-0.00037733364 -0.00051965186 -0.00043313095 0.00017145736 -0.00029951142 -0.00037952798 -0.0011873223 -0.000928801
0.0004833893 -0.0007351343 0.0016524333 0.00036735713 -0.00037085405 0.00060370006 -0.00025669433 0.0006206109
0.00046684922 -0.00014787463 0.00040762106 0.0 -0.0 -0.00031416063 -0.00021338074 -0.00045622137
00000000: 0000 0080 be07 9db9 0200 d5b9 0958 1b39
00000010: 62dd c7b9 23f8 03ba 9700 eab9 de4e 7239
00000020: b182 d7b9 b03b 9a39 1720 05ba 26a6 f939
00000030: bf07 9d39 367d 6ab9 e35f 1d3a 5f8f cd39
00000040: 2002 01b9 ef53 e839 9a6d c639 8c11 bd39
00000050: 0000 0000 0000 0080 be07 9db9 9851 deb9
00000060: 6b99 2c39 be07 9db9 5a74 c4b9 1aa6 32ba
00000070: a2a8 7e39 57b3 b8b9 8ab4 cdba 7016 843a
00000080: c71b 13ba 9872 103a 3c82 1c3a 7030 c139
00000090: 5356 2bb9 6f68 cd39 3fca d239 81a0 e7b8
000000a0: 5692 c039 0000 0000 0000 0080 7798 c1b9
000000b0: 18b2 00ba 9027 4539 be07 9db9 ae86 d6b9
000000c0: f5c2 7939 4d12 b7b9 f6ca c1ba 628f a739
000000d0: 5b82 03ba a619 d33a 75d3 b539 b7d0 90b9
000000e0: d42f 583a 6a01 d139 7997 c539 4144 3bb9
000000f0: 97e2 023a 209b c139 0000 0000 0000 0080
00000100: e2ae bcb9 3676 00ba ff55 c638 ae98 feb9
00000110: b923 3039 bd46 cdb9 0fb4 d0b9 528d d4b9
00000120: 5c1a c0ba 4bcb b03a b84e b339 3c66 b6b9
00000130: 7549 1f3a eac8 503a 921a cc39 4b94 29b9
00000140: 7501 0b3a 8671 ca39 37a7 bf39 0000 0000
00000150: 0000 0080 8703 a9b9 fba3 98b9 1075 2bb9
00000160: 25d4 b0b9 e262 a9b8 ec5c d4b9 22d9 e2b9
00000170: 21b1 27b9 828f d4b9 de89 32ba 2c05 0e3a
00000180: be07 9d39 6deb 85b9 de4b 373a 1cf6 6f39
00000190: 6f89 ee39 d4f4 02b9 9f32 f339 88cf be39
000001a0: 0000 0000 0000 0080 3a64 c3b9 3503 f1b9
000001b0: 531c ddb9 351b 2a39 6582 c8b9 85c3 45ba
000001c0: dfa5 bbb8 b95a 9bba d270 53ba 38df 553a
000001d0: 8ea6 e53a 83b9 b839 aca9 7bb9 b7bb 273a
000001e0: b8fd 9d39 3e52 e139 6800 c1b8 5a7d e239
000001f0: be07 9d39 0000 0000 0000 0080 be07 9db9
00000200: b409 c9b9 5929 adb9 890c e6b9 e35e 2739
00000210: 17eb c0b9 129c 0dba 8a2b 7039 cb4a d3b9
00000220: 284c b33a 833d a839 a9af 75b9 d1a4 c539
00000230: be07 9d39 001f 42b9 f202 d939 83ba b639
00000240: 9f29 ce39 be07 9d39 0000 0000 0000 0080
00000250: d34c c1b9 a942 d0b9 f58c 0cba dc92 5439
00000260: 31d2 d5b9 d991 7639 a006 ddb9 27a4 9239
00000270: 4004 e3b9 419e 833a 9e4e b339 a041 84b9
00000280: a30e db39 e00d 4eb9 2e83 d739 79a0 25b9
00000290: 0725 d939 5c8b 03b9 b43a c539 0000 0000
000002a0: 0000 0080 be07 9db9 d9be e2b9 4cce eb38
000002b0: 805e e5b9 31e4 2739 f31a c9b9 c626 3eba
000002c0: 268f 8839 5396 f9b9 5618 6f3a ae33 f839
000002d0: cf63 b239 62c0 4ab9 1fcc d939 73fd c839
000002e0: 3b63 03b9 d7d2 c539 7f3c be39 84e4 bc39
000002f0: 0000 0000 0000 0080 de6a bfb9 c859 2b38
00000300: 9b24 e6b9 5d7e d938 da0d e8b9 a43a 3d39
00000310: 3988 c3b9 d8fc d4b9 fdc9 a6ba 99fb 063a
00000320: 956c bab9 a5ed 183a 6a0e 523a adb2 cb39
00000330: 914e 6739 3d22 f639 de4c 03b9 f57a 013a
00000340: 482e c239 0000 0000 0000 0080 b4f2 c2b9
00000350: c479 10ba 38da 4839 2f8d c6b9 5a11 46ba
00000360: 4082 8c39 103f b7b9 df70 c9ba 4032 99ba
00000370: 20b2 983a 1056 9db9 1b04 0b3a 457e 163a
00000380: b139 c739 98b4 e439 8a29 f139 be07 9d39
00000390: e708 cfb8 74fc d339 0000 0000 0000 0080
000003a0: ddd4 c5b9 3f39 08ba da15 e3b9 3cc9 3339
000003b0: be07 9db9 62fb c6b9 ed9f 9bba c87a 73ba
000003c0: 6a6f fd39 07b6 40ba 7696 d83a d799 c039
000003d0: 306f c2b9 a041 1e3a ee94 86b9 7eb0 223a
000003e0: 71c3 f439 cb0e 1bb9 f9b5 d539 0000 0000
000003f0: 0000 0080 edb5 a4b9 f5be 5fb9 ff30 efb9
