trained_models/IOD_Training/crr_nn_best_model_noise_50.pth (torch, 57798 bytes, 3 tensors)

conv_layer.conv_layers.0.parametrizations.weight.original f4 [8, 1, 7, 7]
00000000: 7c4f cc3d 496a 0cbe 8b7b e1bd 2006 07bd
00000010: 6bae 4ebd 4fba 953c 35c0 a8bd 3576 ee3c
00000020: 7981 9e3c e3c0 cc3c 13fc 5abc 0335 003e
00000030: 1d0c 28be 25b0 8a3d 07ab 103e 32c4 f6bd
00000040: 402c 8cbd ebe5 73bd ef2d 093e 83c5 ab3d
00000050: 5153 91bd ffb2 ae3c e82d d63d 747a 1a3e
00000060: 3c9a c9bd 3672 ac3d 1041 8abd 8bef eebd
00000070: 17fb 223b 6677 003e 48a2 61bd ba8d 30bd
00000080: 8eeb 8cbd c5f7 113e bf9e 8fbd 8325 da3c
00000090: ad66 1ebe bd7c 093d 9b82 2e3e 4624 9f3d
000000a0: b3ca 253e e208 073e a1a1 1fbe 52c9 8d3c
000000b0: cfee f33c 390a 00be e9cd 4d3d 6469 87bd
000000c0: 1e04 ea3d 91b3 bb3d 2c27 0a3e 00c3 503d
000000d0: fda6 c5bd 8a7b 563d d2c7 013e 6c26 86bd
000000e0: 8a5a 063e 2b75 19bd 6716 8d3d 0264 1bbe
000000f0: d17b b93c efbe 9abd 1946 13be 1e4c 163d
00000100: dcfe 2bbe 95d4 fa3d d93b 17be e43b 9ebd
00000110: b0fb 063e bfd3 b43d 5a5d eebd a9db 94bb
00000120: 3c10 fd3d a4c0 09be 48df 9b3d 0824 6d3d
00000130: 8c4e fc3d 9aa7 a8bc 69ba bcbd 5144 99bd
00000140: ecd4 c9bd c51b 253e 9a31 c83c 1a99 b43d
00000150: 91b2 2f3d 2dc6 153e e9a2 b4bd 543b 05be
00000160: cc65 033e bf2f 083e c148 023c 1ea0 2dbe
00000170: d304 023e 1ea6 113e 252c 8c3c 5d09 03be
00000180: 8f0b 03bc 42df c3bd 6e2b 1d3d c432 b33d
00000190: 7f6d 373d aedb 90bd f1ab 13be bd11 df3d
000001a0: fa03 163e 0f0f 11bd 658a 1cbe 848e 65bd
000001b0: 497b 2d3d 5486 aabb b537 48bd 840a b13c
000001c0: 18c9 f5bd bbca 7a3d 772a 25bd 4e98 88bd
000001d0: 22a2 083e 461d d13d e7e2 163d 8c97 903d
000001e0: cfda 083e c1d7 253e d9d0 2abe 12e6 0fbd
000001f0: db75 fbbb d9bf 84bd 77e7 21be 6eb0 283e
00000200: f708 21be de9a 0e3e 2883 edbc 2074 183e
00000210: 4dcf d13c 7f97 1f3e 9737 e6bd 42e6 51bc
00000220: 14ce e9ba 376c 46bc f25b 15be 1050 bb3d
00000230: 71d7 073e fa88 9c3d b475 20be a7f7 113e
00000240: 8122 de3c 40c8 3c3d e834 21bd 3c68 a73c
00000250: c347 07be 9329 f03d e3bb 21be af8b fd3a
00000260: e89b b13d 9898 f3bd 6195 f93d 9b80 79bd
00000270: 1da5 133e a69c 33bd 465d fdbc 56f0 0e3e
00000280: 0d7c 923d eaaa 553c 6303 b6bd e857 bd3c
00000290: cc66 1b3e 8b31 aabd d21f e63d 2ace c23d
000002a0: dbff 2ebc 5960 aa3d c3ce 2e3d 6897 efbc
000002b0: 4f15 1c3e 0273 2bbc c1cd 4a3d b8df 2c3d
000002c0: e86a 27be 14b0 19be 8443 093e 4bab 06be
000002d0: 3e2a 9b3d e3c3 2d3e bfaa 183e cc7f 12be
000002e0: 55b0 903c 8de5 303e 4928 ab3d e413 e93d
000002f0: 5a33 dcbd 6da7 243e 6ec2 04be dac7 793d
00000300: 36c1 cbbd aab3 3f3d b9a6 c93d 3783 85bd
00000310: ecce bf3d d579 0c3d 307b e7bd 1939 243e
00000320: 788a 263e 843e 923d b41a f83d aa49 79bb
00000330: b180 1e3d 70c6 763d 6367 08be 6c17 bf3d
00000340: 6e8d 03be 99f7 be3d 9be8 04bd 24e6 23be
00000350: e710 973d 26d8 843d 6f11 22be 7afe 51bd
00000360: 113f 3d3c 4b7a 6cbd ebc9 f63d 2988 d6bd
00000370: 14e4 9ebd b521 fb3c ce21 0c3e 8f66 83bd
00000380: 4d82 613c 3150 cbbd 46c7 113e e13c fb3d
00000390: cf69 8ebd 505c b3bc 812c 02be 26a7 83bd
000003a0: cbe9 e03d 6318 f03d 4c6d 9e3d 86d5 d5bd
000003b0: eeb8 c3bd 2114 123e 3b02 12bd 4bf7 a93d
000003c0: ad89 9cbc 2d90 093e 01bb 8dbd a884 2d3e
000003d0: 8402 3b3d 65d9 9dbc fc4b 04be 00c5 dc3c
000003e0: 56a5 f03d 935a 02be 38dc 0c3d 5182 cc3b
000003f0: fa71 8cbb da41 c1bc d354 18be f183 263e
0.09976098 -0.1371242 -0.11009892 -0.032964826 -0.050459307 0.018277315 -0.082397856 0.0291091
0.019348847 0.02499432 -0.013365763 0.12520222 -0.16410871 0.06771878 0.14127742 -0.1204914
-0.068443775 -0.05954544 0.13396429 0.08387282 -0.070959695 0.021325586 0.10457975 0.15085775
-0.09843871 0.084202215 -0.06750691 -0.11666783 0.00248689 0.12545547 -0.055086404 -0.04310391
-0.06880866 0.14254673 -0.070127 0.026629215 -0.15468855 0.033566225 0.1704201 0.077705905
0.16190605 0.13186982 -0.15589 0.017307911 0.029776959 -0.125039 0.0502452 -0.066118985
0.114265665 0.09165109 0.13491505 0.050967216 -0.09650991 0.05236391 0.12673882 -0.06550297
0.13120475 -0.037465256 0.068890385 -0.15174869 0.022642048 -0.07555949 -0.14382209 0.036693685
-0.1679644 0.12247578 -0.14768924 -0.07726267 0.13181949 0.0882945 -0.11638899 -0.004542787
0.12356612 -0.13452393 0.07610947 0.05789569 0.12319669 -0.020587731 -0.092152424 -0.074837334
-0.09855065 0.16123874 0.024437714 0.08818264 0.042894904 0.1462638 -0.08820135 -0.13010913
0.12831801 0.13299464 0.007951916 -0.16955611 0.12697153 0.14223525 0.017110894 -0.1279654
-0.007998361 -0.095640674 0.038371496 0.08749917 0.044782158 -0.070731506 -0.14421059 0.10892055
0.14649954 -0.03541475 -0.15287168 -0.056044117 0.042353902 -0.0052040014 -0.04888125 0.02161146
-0.12001246 0.061228495 -0.0403237 -0.06669675 0.13343099 0.102106616 0.036837485 0.07060155
0.13364719 0.16195585 -0.16681232 -0.03513152 -0.0076739616 -0.064819045 -0.15810953 0.16473553
-0.15726076 0.13926265 -0.028993204 0.14888048 0.025611544 0.15585135 -0.11241072 -0.012811245
-0.0017837905 -0.012110761 -0.14585856 0.0914613 0.13265778 0.07643314 -0.156699 0.14254628
0.027116062 0.04608941 -0.039357096 0.020435445 -0.13210969 0.1172668 -0.1579433 0.0019343997
0.08672315 -0.11894339 0.12186695 -0.060913663 0.14418454 -0.043850563 -0.030928265 0.13958868
0.07152567 0.013041237 -0.08887365 0.023113206 0.15175933 -0.08310231 0.11236538 0.09511979
-0.010681118 0.08319158 0.042677652 -0.029247 0.15242504 -0.010464432 0.04951263 0.042205542
-0.16349375 -0.15008575 0.13404661 -0.1315128 0.075764164 0.16969256 0.14908884 -0.14306563
0.017662207 0.17275067 0.08357293 0.11380747 -0.10751982 0.16079493 -0.12964794 0.06098161
-0.099489614 0.0468022 0.09846253 -0.06519168 0.09365639 0.034295876 -0.11302793 0.16037406
0.16263759 0.0714083 0.12114468 -0.0038038292 0.03869695 0.06024784 -0.13320689 0.09330639
-0.1284692 0.09324569 -0.032448392 -0.1600576 0.07376271 0.064865395 -0.15826963 -0.05126808
0.011550681 -0.057733815 0.120502315 -0.10475189 -0.07758346 0.030655721 0.1368477 -0.06416046
0.013763976 -0.09927405 0.14236173 0.12267471 -0.06953775 -0.021894604 -0.1271229 -0.064283654
0.109820925 0.117234014 0.077356905 -0.10441117 -0.09556757 0.14265491 -0.03564666 0.082991205
-0.019108618 0.13433905 -0.06920434 0.16945136 0.045656696 -0.0192687 -0.1291961 0.026949406
0.11750285 -0.12729864 0.034389704 0.006241121 -0.004286048 -0.02359097 -0.14876108 0.16261269

conv_layer.conv_layers.1.parametrizations.weight.original f4 [32, 8, 7, 7]
00000000: 6028 19ba 7689 37b9 1b7d 99bd 1308 e43c
00000010: d2dd 8b3d bb6a 543d b901 12bd 9c2d 9dbb
00000020: 52da 0abd bcef 0d3c c652 d43c 1fc6 4e3c
00000030: e9ba 11bc 3e7d cebc f801 303d 7ddb 2ebd
00000040: 4b1e b1bc 6ccd f23c 2497 76bd 7085 b8bc
00000050: 3032 f6bc 2643 5dbd 16ba ef3c 86e6 513d
00000060: 5eaf bfbc 5a2e d9bc 647d f13c ff1e 233d
00000070: 553a e53c b3bf 973d 9aa3 80bd 2c17 903d
00000080: a25a 7cbd a887 51bb 8307 783d b9b5 e6bc
00000090: 7ae6 1d3d 59d7 213d f69f c9bc e580 c7bc
000000a0: 1a87 b03c 3481 8b3c c5f8 21ba 2e8d 3a3d
000000b0: 36e0 9a3c 0322 18bd 823d 6bbc 38e7 c5bb
000000c0: 8456 dd3b b451 86bd 3612 adbc 6838 133d
000000d0: 54f2 493d 5ba3 7d3c 5fec 6dbd 2633 913d
000000e0: 3fab 133d 11e7 403d 33bf 4dbd f534 acbc
000000f0: 288d de3a e8da 32bd 6c24 c1bc e704 4fbd
00000100: 456c 0ebb 8cb1 44bd 657c e43c e5e6 69bd
00000110: f6d0 59bd 0bc4 233d c080 81bc a6dd 2e3d
00000120: aef2 afbc f933 623d 3b1b 5d3d a733 98bd
00000130: 610a 59bd 92a0 533b 313b 0fbd 9105 64bd
00000140: ff1f c93c 7b7a 6f3d 0d2d 01bb 3545 c23c
00000150: cda1 d93c 12eb 4fbd 258f 983d c84b 723d
00000160: 6a86 27bd 80a6 2d3d 23d1 813d be56 603c
00000170: e709 18bd 2bd1 60bd 9a17 f8b9 830b 9ebd
00000180: 5438 91bd 8570 683b d7ba 873d 91e0 39bd
00000190: 9306 55bd 877a 113d b0e0 8f3c 8426 80bd
000001a0: 70cb 343d 4b40 7a3c 8043 a3bb 8e00 1d3c
000001b0: 25d4 523d 563e 37bb f526 d9bb ae0e 62bd
000001c0: b37e 38bd f812 bf3c a3d8 143c aa6c 6fbd
000001d0: b0a7 a3bd f2f6 403d 9587 fdbc 3493 843c
000001e0: 103e ee3c d13e f83c c8e6 7fbd 06d1 283d
000001f0: ed8a 99bd 5b4d 353d 6b74 96bc 1c11 793a
00000200: 6a74 88bd c82a 3f3d 7b9c 1bbc c77b 7f3d
00000210: 7ce2 4fbd b92c 4a3d f8ab 16bd 87e3 fb3c
00000220: 2f91 35bd 83ab 683d 2d4c 88bd 1e38 023d
00000230: 84da 60bd 4b3d 28bd a0db 7ebd b0dd 913c
00000240: 997c b3bd 57ae 803c 6900 f6bc 51d4 683d
00000250: 0db4 1ebd be02 23bd f5df 733d 578b a03d
00000260: b909 a9bc 091c b43c b8b0 d93b 5650 cfbc
00000270: 86e2 5c3a 9c4e f1bc d425 d63c e21a 623d
00000280: 3ecb 95bd e445 363d 3fa1 b2bc 2992 1e3d
00000290: 6bfe 833d 5dfe 42bd e397 3a3d 0c14 64bc
000002a0: deea d6bc 572a 1c3d 2461 d8bc 3e34 b63a
000002b0: 1c29 163d 2d7a 89bd 2d6f 323d 6e80 82bd
000002c0: 46e8 913d 3cfa 533d 47af f7bb ee32 1d3d
000002d0: 25b5 8dbd 2f8e 0ebd 7942 343d b1e1 80bd
000002e0: 2996 0cbc bf16 233c 846b 403c 2f64 403d
000002f0: b559 86bd afaa bf3c 8406 443d 0ab1 32bd
00000300: 8040 ebbc 4d80 c4bc 1134 7b3d 2fcd 89bd
00000310: 3b4b 173d f97d 873d 5b73 72bd 30b8 843c
00000320: ea42 fe3c e13d 1fbd c57c 7ebd 1cf0 44bb
00000330: 58a6 38bc 67e5 f03b f927 46bc 1996 edbb
00000340: 6e54 8abb e093 6b3a 2d76 753c e182 693d
00000350: 45e7 53bd a36f 5d3d c032 7c3d 0a87 8cbd
00000360: 36ea 223d 71ff 0dbd f0bb 20bd 1f37 5fbc
00000370: f2d9 b3bc 90ad c7bc 2b0e 5d3d 9e73 0bbd
00000380: 23e3 28bc 4795 af3c 5722 043d 715b a7bc
00000390: 1515 24bd 26cc 8d3d 3c4a 88bc 5784 6fbc
000003a0: ed94 023d f046 40bd 876d eebc beee 323d
000003b0: a54f 39bd f00d 9f3b 3bb1 39bd b0a5 f1bc
000003c0: fab3 93bc 03ea 6fbb 81f5 ce3b b768 74bd
000003d0: b042 16ba b915 1c3c 566a 9fbd fd37 8dbd
000003e0: f1e0 5a3c cda5 15bd 64ec 72bd 4330 693d
000003f0: 02e8 8f3d 523d 503d 3713 69bd 8af8 3f3d
-0.0005842503 -0.00017503448 -0.07494565 0.027835881 0.06829418 0.0518596 -0.035646174 -0.004796697
-0.033899613 0.008663114 0.025918376 0.012620478 -0.0088946605 -0.025206205 0.042970628 -0.04268979
-0.02162089 0.029638968 -0.060202733 -0.022524565 -0.030053228 -0.054019116 0.029263537 0.051245235
-0.023399051 -0.02651136 0.029478736 0.039824482 0.027981916 0.074096106 -0.062812045 0.0703567
-0.06160987 -0.0031971727 0.06055404 -0.028162824 0.038549878 0.039512012 -0.024612408 -0.024353454
0.021548796 0.017029382 -0.0006178732 0.045544796 0.01890574 -0.03714181 -0.014357926 -0.0060395263
0.006754698 -0.065585524 -0.021126848 0.035942465 0.049303368 0.0154808415 -0.05808675 0.07089834
0.036051985 0.047095362 -0.05023117 -0.021021346 0.0016979324 -0.043665797 -0.023576938 -0.050541785
-0.0021732014 -0.048020884 0.027891347 -0.057104964 -0.053177796 0.039981883 -0.015808463 0.04269185
-0.021478023 0.055225346 0.053981047 -0.07431727 -0.052988414 0.0032291752 -0.03496856 -0.05566937
0.02455139 0.058466416 -0.001971069 0.023714641 0.02656641 -0.05076129 0.07449178 0.059154302
-0.04089967 0.042395115 0.06338718 0.013692556 -0.03711882 -0.054886978 -0.0004731983 -0.077170394
-0.07090822 0.0035467457 0.06627434 -0.04538018 -0.052008223 0.03551724 0.017563194 -0.06257346
0.044139326 0.015274118 -0.004982412 0.009582652 0.051471848 -0.002796074 -0.0066269585 -0.05518978
-0.045042705 0.023324475 0.009084853 -0.05845324 -0.07990968 0.047110505 -0.03094844 0.016183473
0.029082328 0.03030339 -0.06247595 0.041214965 -0.07497201 0.044263225 -0.01836606 0.00095011457
-0.06662829 0.04667166 -0.009497757 0.062373903 -0.0507531 0.049359057 -0.036785096 0.030748142
-0.04432791 0.05680419 -0.066551544 0.0317918 -0.054895893 -0.04107408 -0.06222117 0.017805904
-0.087639995 0.015708132 -0.030029492 0.056843106 -0.03874593 -0.039797537 0.059539754 0.07839077
-0.020634519 0.021986024 0.006643381 -0.025306862 0.00084260886 -0.02945643 0.026141085 0.05520142
-0.07314156 0.044500247 -0.021805404 0.038713608 0.06445011 -0.04760586 0.045555007 -0.013920795
-0.02623504 0.038126316 -0.026413508 0.0013901067 0.0366603 -0.06712756 0.043563057 -0.06372152
0.07124381 0.051752314 -0.0075587365 0.03837865 -0.06919316 -0.034803566 0.044008706 -0.06293047
-0.008580723 0.009954154 0.011744384 0.046970543 -0.06560079 0.023396818 0.047857776 -0.04362587
-0.02871728 -0.02398696 0.06132895 -0.06728589 0.03693698 0.06615824 -0.059192043 0.016201109
0.031037766 -0.03887737 -0.06213071 -0.0030050343 -0.011270128 0.0073515656 -0.012094491 -0.007250559
-0.0042214906 0.00089865737 0.014981789 0.05700958 -0.051734228 0.054061543 0.061571836 -0.06861694
0.039774142 -0.034667436 -0.03924173 -0.013623982 -0.02195451 -0.024374753 0.05396859 -0.034045808
-0.01030806 0.021433486 0.03225931 -0.020429345 -0.040059168 0.06923704 -0.01663696 -0.014618955
0.031880308 -0.04694265 -0.029104961 0.043684714 -0.04524197 0.0048539564 -0.045335036 -0.029497951
-0.018030155 -0.0036607988 0.0063158874 -0.059670176 -0.0005731983 0.009526663 -0.07783954 -0.068954445
0.013359294 -0.036535073 -0.05930747 0.05693079 0.07026674 0.05083973 -0.05690309 0.046867885

activation.coefficients_vect f4 [672]
00000000: 0000 0080 1223 89ba 1b18 36ba 940f 773a
00000010: 446b b6b9 6575 d1b9 8192 91ba 39ba 673a
00000020: b4d0 94ba 935c 713a d029 98ba 3364 973a
00000030: 88db c339 e95c 6dba 85eb 933a 2c0f b339
00000040: e9ba 7dba ea28 8f3a 65b0 75ba 06d8 8e3a
00000050: 0000 0000 0000 0080 e3be 86ba a815 033a
00000060: 2543 90ba 7dd0 803a 0f8e b4b9 a57a 98ba
00000070: bec9 333a eec7 dfb9 b57e 9fba 3dde 9d3a
00000080: 5e59 3cba 2d5f 9a3a 31b8 75ba aff2 983a
00000090: 7f43 b539 d399 7eba ca3f 8f3a 1442 48ba
000000a0: 17f5 8a3a 0000 0000 0000 0080 faae 9bba
000000b0: 7f34 863a b883 9aba f197 883a 3a9b b7b9
000000c0: 8f8a dab9 0185 9aba 98ca 3b3a e576 9cba
000000d0: c9f8 9c3a 8eb6 7eba 5a53 9c3a be0e b439
000000e0: fbab 87ba a5cb 943a 6554 e739 c1a1 bd39
000000f0: 9e0e 80ba 3dea 953a 0000 0000 0000 0080
00000100: d011 93ba ceb5 7b3a c6de bab9 597b d8b9
00000110: f09a 97ba 0bce 883a 0d31 b2b9 0ac0 9bba
00000120: 34c1 b438 bef6 b1ba ef5f 9f3a 8970 80ba
00000130: 6907 9e3a 39b9 b439 5ccc 87ba 99f8 973a
00000140: 2778 60ba 39b8 933a 788b da39 0000 0000
00000150: 0000 0080 c76c 86ba 3e5e 653a e680 b4b9
00000160: d0b7 8bba 594b 5a3a 8445 92ba 0ca2 6a3a
00000170: eca8 94ba 4ccc d8b9 8b11 973a 7913 33ba
00000180: 0169 953a 5619 6cba 3ebf 933a 3484 b339
00000190: ef5b 75ba d8ee a33a 660c 8b3a 6772 883a
000001a0: 0000 0000 0000 0080 33f5 91ba 9135 acba
000001b0: fe4b 813a 8324 b6b9 a719 96ba 3c22 6f3a
000001c0: 0b75 99ba 22e1 793a e4f7 9aba 3825 b839
000001d0: 07ea 9c3a b789 39ba cd5b 9a3a f7aa da39
000001e0: 3b0a b639 3c54 84ba d3fe 933a bc4a db39
000001f0: f442 da39 0000 0000 0000 0080 4686 dab9
00000200: d66d 82ba 5636 29ba f4a8 713a d01c b4b9
00000210: d58b 8cba f036 5d3a a9fb 8bba cc2b 213a
00000220: 69fc 89ba bca4 893a 945c f639 7c46 e139
00000230: a630 0bba eddb 823a 32a9 da39 0ca5 b539
00000240: eb34 60ba fc73 843a 0000 0000 0000 0080
00000250: 9de8 90ba 330c 563a 5d9b dab9 3ae8 8fba
00000260: a1c0 213a 8051 97ba 55dc 743a 664c c4b9
00000270: a02c 9bba 2c12 9b3a db74 c439 0521 77ba
00000280: 2679 223a 56ee 943a 09d3 d239 46e2 b639
00000290: f1b4 79ba 04d6 8c3a 2750 da39 0000 0000
000002a0: 0000 0080 2f7e dab9 e5bb e7b9 1cda 88ba
000002b0: 9795 773a bc23 b6b9 96be 8fba d307 1dba
000002c0: 4c01 6f3a a0e3 c3b9 0316 95ba 185f 963a
000002d0: 098d 71ba 6563 953a bb51 cf39 4d63 b539
000002e0: 0f5e 80ba e5e9 8f3a 1752 dc39 5c95 da39
000002f0: 0000 0000 0000 0080 c299 99ba 88fb 843a
00000300: a317 9bb9 700d 9bba 1a58 8a3a 94cd b3b9
00000310: d985 99ba efff 0dba dcbd 413a a329 9cba
00000320: 97a3 9c3a 2f5c 7cba 6471 103a 1805 963a
00000330: d80a b439 ebab 83ba 103d 333a a52f 8e3a
00000340: b782 da39 0000 0000 0000 0080 7175 dab9
00000350: 4c2a 90ba e0cf 7f3a 0592 b7b9 1ea7 dab9
00000360: 8306 94ba 05bb 2b3a 490e e1b9 e069 f4b9
00000370: f3e3 9bba 7005 9d3a 8cf2 39ba 2195 993a
00000380: 7707 b339 e36a 88ba b0f9 983a 1244 85ba
00000390: 50d6 953a 856b da39 0000 0000 0000 0080
000003a0: 52e7 8dba e224 83ba 78aa 723a 63f7 b3b9
000003b0: f261 cdb9 7ff8 8fba 10ef 663a bfcb c3b9
000003c0: 0b71 93ba bcc6 923a 03d6 db39 8259 2eba
000003d0: f89b 943a 1928 6aba 65a1 933a 9687 d339
000003e0: 85fa b739 d674 79ba 660d 913a 0000 0000
000003f0: 0000 0080 4ab4 8eba 0ae7 743a a29b 91ba
-0.0 -0.0010462722 -0.0006946341 0.00094246236 -0.00034793664 -0.00039951052 -0.0011106284 0.00088397
-0.0011353702 0.0009207215 -0.0011609141 0.0011550247 0.00037356862 -0.0009054677 0.00112854 0.00034152844
-0.0009679036 0.0010922228 -0.0009372293 0.001089812 0.0 -0.0 -0.0010280277 0.00050004805
-0.0011006339 0.0009827759 -0.00034438117 -0.0011633231 0.000685837 -0.00042682834 -0.0012168499 0.0012044382
-0.00071849476 0.0011777632 -0.0009373455 0.0011669005 0.000345733 -0.00097122526 0.0010929045 -0.0007639241
0.0010601607 0.0 -0.0 -0.0011877709 0.0010239034 -0.0011788523 0.0010421259 -0.00035020133
-0.00041683434 -0.0011788906 0.00071636727 -0.0011937289 0.0011975999 -0.0009716534 0.0011926696 0.0003434326
-0.0010350937 0.0011352195 0.00044122632 0.00036169405 -0.0009769981 0.0011437606 0.0 -0.0
-0.0011220518 0.0009601981 -0.00035642664 -0.00041290632 -0.0011566561 0.0010437382 -0.0003398735 -0.0011882794
8.619056e-05 -0.0013577563 0.0012159328 -0.0009799163 0.0012056652 0.00034470277 -0.0010360586 0.0011594474
-0.0008562826 0.0011270113 0.00041684113 0.0 -0.0 -0.0010255807 0.00087497 -0.00034428312
-0.0010659639 0.0008327268 -0.0011159633 0.00089505385 -0.0011341847 -0.00041350944 0.0011525614 -0.000683121
0.0011399091 -0.0009006461 0.0011272205 0.0003424004 -0.00093597075 0.0012507094 0.0010608553 0.0010410071
0.0 -0.0 -0.0011135697 -0.0013138523 0.0009864566 -0.00034740948 -0.0011451737 0.0009122228
-0.0011707855 0.00095321436 -0.0011823145 0.00035122945 0.0011971601 -0.0007077711 0.0011776626 0.0004170758
0.00034721367 -0.0010095905 0.0011291153 0.00041826617 0.00041630084 0.0 -0.0 -0.00041680242
-0.0009950947 -0.0006454935 0.00092185964 -0.00034353742 -0.0010722826 0.0008438667 -0.0010679859 0.0006148189
-0.0010527495 0.0010501365 0.00046989752 0.0004296786 -0.00053096784 0.0009983756 0.0004170626 0.0003464598
-0.0008552807 0.0010105367 0.0 -0.0 -0.0011055652 0.000816527 -0.00041695955 -0.0010979243
0.00061703665 -0.0011544675 0.00093406934 -0.00037440954 -0.0011838861 0.0011830977 0.00037471097 -0.00094272225
0.0006197862 0.0011362534 0.00040211555 0.00034882332 -0.00095255586 0.0010744934 0.00041639918 0.0
-0.0 -0.00041674214 -0.00044199746 -0.0010440978 0.0009444593 -0.0003474037 -0.0010966833 -0.00059902406
0.000911732 -0.00037362892 -0.0011374358 0.0011472432 -0.0009214436 0.001139742 0.0003954301 0.00034596995
-0.0009793657 0.001097974 0.00042022832 0.00041691482 0.0 -0.0 -0.0011718797 0.0010145763
-0.00029581515 -0.0011829566 0.0010554821 -0.00034294708 -0.0011712863 -0.000541686 0.0007390657 -0.0011914264
0.0011950609 -0.00096267735 0.00055100606 0.001144561 0.00034340355 -0.0010045742 0.0006837407 0.0010847939
0.0004167759 0.0 -0.0 -0.000416677 -0.0010998934 0.0009758454 -0.00035013273 -0.00041704712
-0.0011293445 0.00065510004 -0.00042925988 -0.0004661819 -0.0011893496 0.001197977 -0.0007093332 0.0011717418
0.00034147102 -0.0010407831 0.0011671092 -0.0010167381 0.0011431668 0.00041660308 0.0 -0.0
-0.0010826385 -0.0010005499 0.0009256969 -0.00034325858 -0.00039173622 -0.0010984092 0.0008809427 -0.000373451
-0.0011248899 0.0011198143 0.00041930386 -0.0006650911 0.0011337986 -0.00089323666 0.0011263309 0.00040346076
0.00035091132 -0.0009516006 0.0011066615 0.0 -0.0 -0.001088747 0.0009342289 -0.0011109004
