trained_models/IOD_Training/crr_nn_best_model_inpaint_15.pth (torch, 57818 bytes, 3 tensors)

conv_layer.conv_layers.0.parametrizations.weight.original f4 [8, 1, 7, 7]
000000 f7 79 13 be 95 92 f3 bd 04 c3 7f bd 3c 09 02 3e
       -0.14401995 -0.11893193 -0.06244184 0.12698835
000010 83 bd 37 3d ae 0e 60 bd 4f ff 02 bd 10 00 4b 3d
       0.044858467 -0.0547015 -0.031981762 0.049560606
000020 29 a3 22 3e ec 77 68 bd 40 60 45 bd 7c 2b 7f b8
       0.15882553 -0.05675499 -0.048187494 -6.0837236e-05
000030 b4 8c 84 bd 40 a2 d5 3d 56 15 86 bd 97 c1 2d bd
       -0.064721495 0.10431337 -0.06547038 -0.04242095
000040 5e 06 31 be dc e4 14 3c 93 fc 87 bc 82 9c 0e 3e
       -0.17287585 0.009087767 -0.016599929 0.1392689
000050 b8 69 88 bd ad 9e 00 be 21 ba 07 be c5 b4 13 3e
       -0.06660789 -0.1256053 -0.13254596 0.14424427
000060 4c 8e 51 3c 95 8d 63 3d 94 19 c3 bd d6 39 b0 3d
       0.012790274 0.055554945 -0.09526363 0.08604781
000070 cf 7a e8 bd b5 1e 15 3b 5f cb 43 bd 70 01 31 be
       -0.11351549 0.0022753899 -0.04780137 -0.17285705
000080 55 5c 4e bd 8a 88 ce bd 3f b3 12 bc 42 d8 92 3d
       -0.050381023 -0.100846365 -0.008953868 0.07170154
000090 d8 f3 e9 bd b9 9a 23 3d 6b 48 d2 3d 93 89 18 3e
       -0.11423463 0.039942477 0.10267719 0.1489623
0000a0 2f 34 6c bd a9 51 e0 3d db cb b2 3d aa de 88 bc
       -0.057666954 0.109530754 0.087302886 -0.016707737
0000b0 5a 92 cf bd 51 df 6f bd ac 0a 37 3c 9f f0 eb bd
       -0.10135336 -0.05856258 0.011171978 -0.11520504
0000c0 53 13 09 be 3b da b7 bd a5 c8 53 3c 43 ca 9a bd
       -0.13386278 -0.08977171 0.012926255 -0.075581096
0000d0 99 3c 06 be 56 11 68 3d c1 b5 ef 3d 9a b2 d0 3c
       -0.13109054 0.056657158 0.11704589 0.025475789
0000e0 25 33 9b 3d c9 95 d9 bc 1e 25 d0 3d fd e3 e4 bd
       0.075781144 -0.026560681 0.101633295 -0.11176298
0000f0 9f 4f 21 be c1 71 14 be ff c6 ff bd 5c 3f 9a bd
       -0.1575303 -0.14496519 -0.12489127 -0.07531616
000100 fd cb e2 3d ce f7 eb bc 8c b5 4f bd f6 ca c8 bb
       0.11074064 -0.028804686 -0.050710246 -0.0061277105
000110 a2 34 24 3e 39 33 3c 3d 8d c9 8b ba 71 a2 68 bd
       0.16035703 0.045947287 -0.0010664925 -0.05679554
000120 28 36 29 be d3 a4 09 3e 5f 8e 19 be 0b b7 02 3e
       -0.16524565 0.13441782 -0.14995717 0.12765138
000130 ab 43 1f 3e ba 11 87 bc 58 44 d3 bd 89 e4 cf 3d
       0.15553157 -0.016487945 -0.1031577 0.101510115
000140 2e 07 08 be 9a 9c 36 3e e7 37 e9 bd fb 40 1b 3d
       -0.13283989 0.17833176 -0.11387616 0.037903767
000150 69 e5 7b 3d 27 27 4d bd 11 a9 0a bd d5 96 00 be
       0.06149808 -0.050086167 -0.03385264 -0.12557538
000160 28 d8 c6 3d 55 10 3f 3d b9 d6 29 be 98 51 10 be
       0.09709197 0.046646435 -0.16585816 -0.14093626
000170 6d dc ec 3d e1 e7 cc 3c 9f 91 f7 3d 8c 34 f5 bd
       0.115654804 0.025012912 0.12088322 -0.11972913
000180 7c 25 9b bd fb 24 6c 3d c7 fd d6 3d 5e e0 74 3c
       -0.07575509 0.057652455 0.10497623 0.014946071
000190 84 b8 2f 3d e5 55 1b 3c 4d d3 0f bd 4a ee 5d 3d
       0.042900577 0.009480928 -0.03511362 0.05418233
0001a0 fe 7e 5a bd 32 fe c4 bd 5c e0 db bd 6f d8 3a 3e
       -0.053343765 -0.096187964 -0.107361525 0.18246625
0001b0 fe 3b 28 be 08 58 c5 3c 07 ee da bd 2b 44 7e bd
       -0.16429135 0.024089828 -0.10689931 -0.06207673
0001c0 1b 4e fc 3d 5f 01 dd 3d 98 55 5c bd 56 b9 b6 3d
       0.12319585 0.10791277 -0.053792566 0.08922069
0001d0 56 ce 0c 3e 24 e7 0f 3d 56 74 92 3c 3c 40 18 be
       0.13750586 0.035132542 0.017877739 -0.14868253
0001e0 ea a4 52 bd ae 99 34 3d b6 8c 0c be 6c da 2d bd
       -0.051426806 0.044091873 -0.13725552 -0.04244463
0001f0 0f 67 7f bd 9f a6 58 3c e6 06 ef b9 9c 44 0a be
       -0.062354144 0.013223319 -0.00045590772 -0.13502735
000200 fd 0f d0 3d 38 29 13 be 2a 8c e2 ba c7 af 2c 3d
       0.101592995 -0.14371192 -0.0017284204 0.04215982
000210 ac 5a 06 bd 79 f4 eb 3b 05 97 ba bc 2b c6 75 bd
       -0.032801315 0.0072007743 -0.02277709 -0.06000344
000220 a0 80 71 bc b6 f5 f0 bc df 12 f3 bd e5 8b 07 be
       -0.014740139 -0.02941404 -0.11868834 -0.1323696
000230 33 f9 f2 3c 5d cd f9 bc da cd eb bd 2b e1 46 bd
       0.029659843 -0.030493433 -0.115138724 -0.04855458
000240 e8 3f 1f bd f9 9f 14 3e 0c 3a 6e 3c 90 fc 5e 3d
       -0.038879305 0.1451415 0.014540207 0.05444008
000250 1f fe c1 bd c8 22 8d bc b5 fa 49 3d f9 e7 90 3d
       -0.09472298 -0.017228499 0.04931136 0.07075495
000260 58 62 c8 3c 13 5f 15 be 75 07 18 3e b6 ef 8e bd
       0.024460956 -0.14587049 0.14846595 -0.06979315
000270 93 a3 dd 3d bf df f2 3d 24 ad 4a 3d 86 89 cf 3d
       0.10822215 0.118590824 0.049481526 0.101336524
000280 73 86 26 3c 30 2c e2 bd ef a7 c2 3d 93 28 9b 3d
       0.010163891 -0.11043584 0.09504687 0.07576098
000290 3f 54 03 be b2 5e e9 3d 2f 67 86 bc d6 8b 25 bd
       -0.12825106 0.11395015 -0.016406624 -0.04041656
0002a0 02 47 90 3d 39 ad f5 3d c1 95 06 bc 62 a7 23 bc
       0.07044794 0.1199593 -0.008214415 -0.009988638
0002b0 3c 11 f3 bc 85 86 61 3c 4f 01 62 bd 14 60 0c be
       -0.029671304 0.013764982 -0.05517703 -0.13708526
0002c0 2c 39 1f bd a9 72 03 be 47 d1 21 bc e5 ef 1e be
       -0.038872883 -0.12836708 -0.009876556 -0.155212
0002d0 91 62 60 3d 40 86 1a 3e 9a 9b 07 3d 7d a0 3d 3d
       0.0547815 0.15090275 0.033107378 0.04629563
0002e0 36 2f 1f be c7 16 ef 3d 1f e8 0e be a7 99 15 bc
       -0.15545353 0.11674266 -0.13955735 -0.009130872
0002f0 ac 20 fa 3d 19 2a a0 3d 95 b6 cd 3d 9b 91 c4 3d
       0.12213263 0.078205295 0.100445904 0.095980845
000300 83 22 9c 3c 4e 62 e0 3b e1 7c 6b bd 87 47 92 bd
       0.019059425 0.0068476563 -0.05749214 -0.07142549
000310 ab 1f f1 bd f1 02 cb bd fb 4f dd 3c 1b c2 13 3e
       -0.11773618 -0.099126704 0.027015677 0.14429514
000320 db 95 a7 bd e8 d6 f2 bc dc c6 68 3d ea 2d 5c 3d
       -0.081828795 -0.02964349 0.056830272 0.053754725
000330 63 21 4a bd c3 8d e4 bd c0 30 9e ba a9 2a 0a be
       -0.049348246 -0.111598514 -0.0012068972 -0.13492836
000340 eb 5d ec 3d 1d 62 09 3e d4 c9 1f 3e 65 bc 18 3b
       0.11541351 0.13416333 0.15604335 0.0023305651
000350 44 c4 1d bc c4 7a e3 bd 6d 98 24 3e 51 fb b0 bd
       -0.009629313 -0.111074 0.16073771 -0.08641685
000360 52 58 c8 bb a7 ce 85 3b 49 76 a1 3b a3 2b 1f be
       -0.006114044 0.004083473 0.004927431 -0.1554399
000370 c9 a0 3e 3d 51 1d 11 be cb 64 f4 3d 2a 48 ff 3d
       0.046540055 -0.1417134 0.11933287 0.12464936
000380 92 f9 38 3d 79 92 b0 bd 1c 43 70 bc a1 ff 17 3e
       0.045159884 -0.086216874 -0.014664438 0.14843608
000390 c8 3f bd 3d 48 82 dd bd 3b 62 98 3c 83 45 3a bd
       0.09240681 -0.10815865 0.018601527 -0.045476448
0003a0 96 27 d6 3d aa 43 23 3d 84 fe 01 3e f9 e8 1d 3d
       0.10456769 0.03985945 0.12694746 0.03855226
0003b0 97 5b 0e 3e 6d c6 84 bd 53 2b 84 bd 14 9c d7 3d
       0.13902126 -0.06483159 -0.06453576 0.105278164
0003c0 ce c5 64 3d d2 f4 0d 3e b9 25 20 bd 0a 4b e4 3c
       0.055852704 0.13862923 -0.039098475 0.027867813
0003d0 36 27 6a bd f4 ab 80 bd f8 b8 09 3e 1e c3 3b 3d
       -0.0571663 -0.062827975 0.13449466 0.045840375
0003e0 3a 8c 07 3e 31 f2 3e 3c e8 eb 9c bd c1 e1 a6 bd
       0.13237086 0.011654423 -0.07662183 -0.08148528
0003f0 95 81 a8 bd c0 d0 b7 bd 7b 34 be bb fe 97 8b bd
       -0.08227841 -0.08975363 -0.005804596 -0.068160996

conv_layer.conv_layers.1.parametrizations.weight.original f4 [32, 8, 7, 7]
000000 cf 85 0a 3d 92 d5 d0 bb be 1c 2c 3d 91 df 1f 3d
       0.033819016 -0.006373116 0.0420196 0.03903157
000010 ed 6f cc bc 14 13 37 3c a2 55 41 3d 71 39 86 3c
       -0.024955714 0.011173982 0.047200806 0.016384812
000020 50 6e 2e 3d e0 e2 e1 bc 1b f9 b5 3c a7 b7 50 3c
       0.04258567 -0.027574003 0.02221351 0.012739099
000030 77 40 24 3d 82 73 81 3b 25 d1 d0 3c 7e fe 7a bc
       0.04010054 0.003950537 0.025490353 -0.015319465
000040 a7 c4 63 bd 97 e6 2b 3b 0d 73 dd 3c 2d 0d 4a bd
       -0.055607464 0.0026229972 0.0270324 -0.04932897
000050 bc 80 52 bc 15 dd e9 3c 8f cc 77 bc 06 4d ad 3c
       -0.0128480755 0.028547803 -0.015124454 0.021154892
000060 86 51 fe bc cb df a9 bb d1 ac 31 3d 03 eb 33 3d
       -0.031044733 -0.005184149 0.0433777 0.043925297
000070 61 4f ca 3b df a9 73 bc da 9b 36 3d 97 da 25 3d
       0.0061740135 -0.014872043 0.044582225 0.040491667
000080 91 55 af bc 3a fc 02 3c a5 ca 75 bd d5 72 2a bd
       -0.021403106 0.007994706 -0.06000771 -0.04161342
000090 bd b6 56 bc a6 40 24 bd ae 84 6b bd d2 7e 98 bc
       -0.013105092 -0.040100716 -0.05749958 -0.01861516
0000a0 8a eb 71 3d 22 89 53 3c 4d 09 2c bc 80 8f 19 bc
       0.05906252 0.012911113 -0.010500264 -0.009372592
0000b0 fa 09 9e 3c 21 69 d7 3c 5e 1d ae 3c cb d1 45 bc
       0.019291867 0.026295247 0.021254238 -0.012073944
0000c0 82 be 03 bd 32 28 78 3c 90 e2 ea 3c 36 af 3b 3d
       -0.032164104 0.015146302 0.028672487 0.04582139
0000d0 35 1c 25 3d 64 b8 0e 3c e8 32 5d ba bf 2c 46 3c
       0.040310103 0.008710954 -0.00084380666 0.012095629
0000e0 ed 2b 20 3d 06 10 0e 3d b6 6c 82 bd 4a 1a 32 bd
       0.03910439 0.03468325 -0.06368391 -0.043482102
0000f0 31 75 e2 bc d1 bd 6e bc 0b f2 83 bc 2e 46 3c bb
       -0.027643772 -0.014571623 -0.016106626 -0.0028728354
000100 46 d3 07 3d bc 27 32 3d 6a 21 87 3c 1b f8 e4 ba
       0.03316047 0.043494925 0.016495425 -0.0017468961
000110 8a d1 45 bc 44 94 8e bc eb 9f 74 3c 15 28 39 bd
       -0.012073884 -0.017404683 0.014930706 -0.04520424
000120 ee cb db 3c 03 0c a3 bc 0c 66 a2 3c 12 44 09 3c
       0.02683064 -0.019903189 0.01982405 0.008378046
000130 cd db e4 bc ac 2d 71 bd 4d 06 81 bc 7c 6a 66 3c
       -0.02793684 -0.058881447 -0.015750075 0.014063474
000140 46 a2 9b 3c 35 58 64 bd da fb 8a bc 87 08 50 bc
       0.018998276 -0.055748183 -0.016965795 -0.012697346
000150 eb 1f 75 3d 75 fb 08 bd d1 61 0c bd 5a 5c 91 3c
       0.059844892 -0.033442933 -0.034272972 0.017744232
000160 f7 9a fd 3b 48 22 8f 3c 38 b4 75 3d f8 a0 07 3d
       0.0077394205 0.017472401 0.059986323 0.033112496
000170 cc ca b8 3c ab b0 fb bc e0 06 0a bd 9b 52 80 3d
       0.022557639 -0.03072389 -0.033697963 0.06265756
000180 04 86 54 bd ac aa d6 bc c0 4f dd 3c 7c 08 e9 3b
       -0.05188562 -0.02620443 0.027015567 0.007111607
000190 49 56 d2 bb 40 ac 7e bd b9 a3 b5 bb 50 ff 39 bd
       -0.0064189774 -0.06217599 -0.005543199 -0.0454095
0001a0 04 c5 5e bd c4 5d 2c bd c2 12 e2 bc dc 0c 35 bc
       -0.054387107 -0.04208161 -0.027596835 -0.011050429
0001b0 e5 c4 b9 3c 1e df f3 bc 2a 0d cc 3b ff ba 7d 3d
       0.022676894 -0.029769477 0.006227155 0.06194591
0001c0 e5 a9 38 3d 01 53 34 3d 44 3f 1c 38 1e aa 95 3c
       0.0450839 0.04402447 3.725222e-05 0.018269595
0001d0 08 66 21 bd 03 ab 84 bb 7b 66 e3 3c 19 45 97 3d
       -0.039403945 -0.0040487065 0.027758827 0.07386226
0001e0 9c 9b c4 bc ff 9d fe bc a5 27 f3 bc d5 c7 6e 3b
       -0.023999982 -0.031081198 -0.02968199 0.0036435027
0001f0 d6 b9 da 3c 84 dd c2 bc 21 07 49 bd 93 97 c9 3a
       0.026699942 -0.023787268 -0.049079064 0.0015380256
000200 28 3a 79 3c 2b 35 9b 3c 00 5d 0d bb da 22 b1 bc
       0.015211619 0.01894625 -0.0021570325 -0.021623064
000210 b2 0b a9 3b 11 c1 d7 bc 66 a8 dd bc 48 58 0e bd
       0.005158865 -0.026337178 -0.027057838 -0.03475216
000220 9b f0 05 3d 42 2c fa bb f4 b2 a1 bb 99 06 36 bd
       0.032700162 -0.0076346705 -0.004934663 -0.044439886
000230 aa 0c 9b 3b a6 1e 3c bd 22 88 09 bd 8f b6 a4 3c
       0.0047317343 -0.045927666 -0.033577092 0.020106582
000240 8a 12 25 bd dc 13 2a 3c f1 24 ee bc a1 81 28 bd
       -0.040300883 0.010380711 -0.02907035 -0.04113925
000250 fb 3b 20 3c 2c d5 79 bd 4f 71 1a bd 0e c8 0f bd
       0.009779925 -0.060994312 -0.037705716 -0.035102896
000260 b9 3a 1e bd 74 71 2e 3d 11 78 71 3c b6 91 8c 3b
       -0.03863022 0.042588666 0.014738099 0.004289831
000270 f7 80 ad bc 92 18 9d 3c 89 ee 77 bc 3b f7 08 bd
       -0.02117966 0.019176755 -0.015132555 -0.033438902
000280 df 5f 30 bd 8e 9a 13 3d 75 e8 2b 3d 93 97 d5 bc
       -0.04306018 0.036036067 0.041969735 -0.026073253
000290 c4 f2 1c 3d 2e 75 86 bb 8e b5 1a 3d c4 cb 73 bd
       0.038317457 -0.0041033244 0.0377708 -0.059520498
0002a0 aa 60 27 3d 99 b9 4d bd 2a b2 66 ba 2c 12 30 bd
       0.04086367 -0.050225828 -0.0008800352 -0.04298608
0002b0 a4 87 14 bc 48 e8 ac 3b 46 89 53 3d e4 95 0f bc
       -0.009065542 0.0052767135 0.051644586 -0.008763764
0002c0 f0 59 b5 3c 80 00 70 3c 8b 6f 22 bc de 20 1e 3d
       0.022137612 0.014648557 -0.009914289 0.038605563
0002d0 7b d2 48 bc c0 a5 c4 bc 73 8e 2d bd 70 44 44 bc
       -0.012257214 -0.024004817 -0.04237218 -0.011979207
0002e0 bc c6 d9 bc 0b 4b 45 3d 76 04 b0 bc e8 95 9d 3c
       -0.026584022 0.04816727 -0.021486502 0.01923652
0002f0 b3 23 13 bd e9 b6 28 3d 01 9f 82 3c 58 37 2b 3d
       -0.035922717 0.04119006 0.01594496 0.041800827
000300 fa 53 41 bc 89 cf 44 3d 2c 8e a8 bb 9b 32 b6 39
       -0.011799807 0.048049483 -0.0051439013 0.0003475145
000310 65 9c 3e 3d 93 d2 3d bd cd 1b 38 bd 04 91 0f bd
       0.04653587 -0.046343397 -0.044948388 -0.035050407
000320 18 9f 17 bc fb b2 46 bd e5 3e 00 3d ec e9 bf bb
       -0.0092542395 -0.048510533 0.03130998 -0.005856743
000330 f0 e2 3c 3d 88 f0 59 bd 0c b2 76 bb 17 39 80 bc
       0.046114862 -0.053207904 -0.0037642745 -0.015652223
000340 a6 17 87 3c 8f 05 34 bd f8 ae 48 bd 95 7e 63 bc
       0.016490769 -0.043950614 -0.04899499 -0.01388516
000350 cc 01 a8 bc 36 a4 6f bd ad 03 e8 3b ed 8c 41 3d
       -0.02050867 -0.058506213 0.0070805163 0.047253538
000360 3a 6b 1f bd df 5b 81 3d a8 da 53 bd 07 f1 c2 3c
       -0.03892062 0.06316351 -0.0517222 0.023796571
000370 a0 7f eb 3c 6f 1b e5 3c 06 0a ef 3b 12 a3 50 3c
       0.02874738 0.027967183 0.007294896 0.0127341915
000380 bb d7 10 bc cf e6 4d 3c 89 b0 78 bb a2 65 08 3d
       -0.008840497 0.012567236 -0.003794702 0.03330005
000390 3b c0 a0 3c ad 9b 9c bc 8d 3e 9e 3b 68 32 30 bc
       0.019622913 -0.0191172 0.004829234 -0.010754205
0003a0 29 93 66 bd 96 cb 47 3d 43 82 c0 3c 66 85 ea 3c
       -0.056292687 0.04877814 0.023499614 0.028628062
0003b0 99 f6 8d 3b cc 85 b0 bc a1 30 ee bc 07 36 21 bd
       0.0043323752 -0.021548174 -0.029075922 -0.039358165
0003c0 89 ac 4b bd aa 81 2f bb d1 81 12 3d e7 ff 35 bb
       -0.04972509 -0.0026780167 0.035768334 -0.0027770938
0003d0 aa 32 99 bc a7 ca 11 3d 75 62 88 3b 54 80 32 bd
       -0.018700916 0.035593655 0.0041621276 -0.043579414
0003e0 ab 4b 06 3d c9 e0 2b bd 56 e2 cc 3c bc d8 15 bd
       0.032787006 -0.04196242 0.02501027 -0.036583647
0003f0 6a 4c e0 bc 45 57 10 bd c1 e0 09 bc 78 c7 0b bd
       -0.027380187 -0.035239477 -0.008415402 -0.034125775

activation.coefficients_vect f4 [672]
000000 00 00 00 80 81 6b b6 b9 55 1c 90 b9 40 fc d4 38
       -0.0 -0.00034793842 -0.0002748693 0.00010155933
000010 47 da 9d b9 d6 52 94 b9 9e 0b 7a b9 ae 52 0b b9
       -0.00030108003 -0.00028290477 -0.00023846186 -0.00013286874
000020 6e f8 1f 38 62 fc 74 39 79 61 f2 b9 ff 6a 39 3a
       3.8139922e-05 0.00023363673 -0.0004623046 0.00070731336
000030 6d 4c b4 39 eb b2 cc 39 a8 3d 10 b9 d4 fd d2 39
       0.00034389217 0.00039043216 -0.00013755879 0.00040243438
000040 a8 1e a0 39 f7 4d e2 39 3a 64 d0 b8 66 b3 c3 39
       0.0003054042 0.00043164167 -9.9368815e-05 0.0003732696
000050 00 00 00 00 00 00 00 80 be 07 9d b9 23 91 e3 b9
       0.0 -0.0 -0.00029951142 -0.0004340495
000060 1b e5 d6 b9 a2 1b d9 38 be 07 9d b9 d3 2b cf b9
       -0.00040987958 0.00010352513 -0.00029951142 -0.00039514768
000070 47 7d d1 b9 a3 9c d2 b9 80 da 99 ba 54 99 10 3a
       -0.00039956925 -0.00040171025 -0.0011738092 0.0005516012
000080 f2 3a da b9 f7 e3 df 39 56 72 73 b9 06 e5 0b 3a
       -0.00041624118 0.00042703722 -0.0002321688 0.00053365564
000090 7a ef b5 39 31 05 fe 39 99 7d c7 39 b6 20 1f b9
       0.00034701434 0.00048450523 0.00038049815 -0.00015175607
0000a0 ee b3 d0 39 00 00 00 00 00 00 00 80 13 6c c8 b9
       0.0003980691 0.0 -0.0 -0.00038227494
0000b0 23 c3 e6 b9 bf 42 38 39 7e 0c c3 b9 12 fc f6 b9
       -0.00044014407 0.00017572472 -0.00037202606 -0.00047108583
0000c0 5d 97 d5 b9 06 9d da b9 a8 64 ee b9 20 0e 87 39
       -0.000407393 -0.00041697192 -0.00045469892 0.0002575973
0000d0 bc b5 f3 b9 2a d8 6f 3a 4c 17 c0 39 22 e2 33 b9
       -0.00046483974 0.00091493374 0.0003663845 -0.00017155011
0000e0 29 09 ec 39 0b 23 ca 39 da b4 b4 39 d6 6a de 39
       0.00045020253 0.0003855455 0.0003446702 0.0004242274
0000f0 1f 65 98 b8 e2 11 c3 39 00 00 00 00 00 00 00 80
       -7.26676e-05 0.00037206622 0.0 -0.0
000100 81 4a 9c b9 54 c5 9f b9 5f 28 d5 b9 d4 5b cf b9
       -0.00029810148 -0.00030473864 -0.00040656605 -0.00039550534
000110 f6 cc d0 b9 76 be fa 38 76 6f c7 b9 b4 1f d5 b9
       -0.0003982556 0.00011956405 -0.00038039283 -0.00040650147
000120 17 55 d7 b9 37 41 b5 ba aa 8a b2 3a 30 58 bc 39
       -0.00041071392 -0.001382864 0.0013621647 0.0003592386
000130 5a f1 80 b9 0f 6c 2d 3a fb 37 ca 39 cd 5a 1a b9
       -0.00024593883 0.0006615528 0.0003857015 -0.0001472041
000140 71 1b e1 39 50 ca 85 39 96 e2 a1 39 00 00 00 00
       0.0004293579 0.0002551847 0.00030877133 0.0
000150 00 00 00 80 be 07 9d b9 20 c5 da b9 dd fd 0f 39
       -0.0 -0.00029951142 -0.0004172707 0.00013732114
000160 bf 07 9d b9 86 3e c7 b9 4d bb 05 ba ba 19 57 39
       -0.00029951145 -0.0003800282 -0.00051014574 0.00020513582
000170 88 97 b9 b9 c5 5f c5 b9 67 d0 6f ba e3 7a 9a 3a
       -0.0003539885 -0.00037646122 -0.0009148181 0.0011785891
000180 39 a0 bc 39 53 82 7b b9 9c 74 ee 39 ee 33 33 b9
       0.0003597753 -0.00023985775 0.00045481778 -0.00017090116
000190 bd dc 07 3a a2 15 aa 39 96 17 ea 39 be 07 9d 39
       0.0005182734 0.00032441044 0.0004464953 0.00029951142
0001a0 00 00 00 00 00 00 00 80 56 5c 9c b9 e4 0f a0 b9
       0.0 -0.0 -0.00029823434 -0.00030529418
0001b0 85 61 c9 b9 4a 6b cf b9 5f 3d c6 b9 cd 66 c0 b9
       -0.00038410365 -0.00039562053 -0.00037811228 -0.00036697686
0001c0 77 0a 0f 39 68 0b b6 b9 6c dc f4 b9 ee f4 4d ba
       0.00013641441 -0.00034722243 -0.00046703534 -0.0007856627
0001d0 6b 04 b5 3a 17 32 d3 39 8f 10 d1 39 48 a1 cd 39
       0.0013810521 0.00040282376 0.00039875924 0.0003922081
0001e0 ab 1a ff b8 c0 07 f0 39 3e cc b3 39 fb 3d e6 39
       -0.00012164315 0.0004578214 0.00034293713 0.00043915198
0001f0 be 07 9d 39 00 00 00 00 00 00 00 80 7f c4 c7 b9
       0.00029951142 0.0 -0.0 -0.0003810264
000200 5d 56 19 38 e7 5e f1 b9 e1 0c cb 38 bd 07 9d b9
       3.6558475e-05 -0.0004603781 9.682193e-05 -0.0002995114
000210 7e d3 04 ba 6a bd d1 b8 c8 c5 c8 b9 52 67 b3 ba
       -0.0005066915 -0.00010001178 -0.0003829433 -0.0013687408
000220 5e 09 31 3a bd c8 b5 b9 50 6e fb 39 07 72 61 b9
       0.000675341 -0.00034672572 0.0004795664 -0.0002150015
000230 07 71 d8 39 a0 22 e1 39 db 12 07 b9 dd 4d c8 39
       0.00041282942 0.00042941142 -0.00012881627 0.00038204985
000240 f3 f8 e1 39 be 07 9d 39 00 00 00 00 00 00 00 80
       0.00043100826 0.00029951142 0.0 -0.0
000250 73 2a c7 b9 96 aa f3 38 f1 b5 c8 b9 95 92 b5 b9
       -0.00037987865 0.00011618917 -0.0003828253 -0.00034632222
000260 6e 09 13 39 48 e1 c0 b9 bd 22 d5 b9 bf 83 e3 b9
       0.00014022525 -0.0003678894 -0.00040652408 -0.00043394972
000270 7b 5e 7d ba e8 b7 bc ba d9 98 b2 3a 19 23 bc 39
       -0.0009665263 -0.001439807 0.0013625874 0.00035884304
000280 b1 8c 4f b9 56 6d 03 3a 81 cc c6 39 a0 d9 18 b9
       -0.0001979347 0.0005013546 0.0003791787 -0.00014576921
000290 48 95 dd 39 6f 51 cc 39 4b 3e c5 39 00 00 00 00
       0.00042263628 0.00038970585 0.0003762118 0.0
0002a0 00 00 00 80 bd 07 9d b9 ce 3d e7 b9 23 6a 4c 38
       -0.0 -0.0002995114 -0.00044105801 4.8736238e-05
0002b0 be 07 9d b9 97 e1 e5 b9 41 aa e0 b9 e0 dd 51 39
       -0.00029951142 -0.0004384636 -0.00042851458 0.00020014448
0002c0 4b 3c ed b9 d2 8a 9f 39 c0 a5 f9 b9 1c eb 85 3a
       -0.00045249084 0.00030430272 -0.00047616474 0.0010217163
0002d0 20 3b c5 39 27 5c 2b b9 06 e0 e9 39 bf 07 9d 39
       0.0003761882 -0.0001634216 0.00044608134 0.00029951145
0002e0 17 af 10 b8 4d f6 e7 39 93 81 d0 37 73 20 bd 39
       -3.449534e-05 0.00044243262 2.485587e-05 0.00036073066
0002f0 00 00 00 00 00 00 00 80 4a 1b a2 b9 7e d7 7b b9
       0.0 -0.0 -0.0003091938 -0.00024017502
000300 44 70 cf b9 c5 c3 cf b9 f6 63 d2 b9 01 0b 2f ba
       -0.0003956576 -0.00039627976 -0.00040128798 -0.000667736
000310 a7 9d 7d 39 aa c3 bb b9 5f 00 a4 ba dd 23 7f 3a
       0.0002418669 -0.000358132 -0.0012512318 0.0009732822
000320 31 8d 71 ba 19 25 8a 3a df e4 b8 39 5c 9e 64 b9
       -0.00092144596 0.001053962 0.00035265737 -0.00021802768
000330 35 94 e4 39 ca ec 06 3a b5 a2 cf 39 9e c5 ca 39
       0.00043597972 0.00051469787 0.00039603343 0.0003867568
000340 bf 07 9d 39 00 00 00 00 00 00 00 80 be 07 9d b9
       0.00029951145 0.0 -0.0 -0.00029951142
000350 64 ff d3 b9 a1 d5 b8 b9 90 7c 16 35 c8 19 d0 b9
       -0.00040435337 -0.0003525438 5.6060617e-07 -0.0003969206
000360 ee f1 a2 b9 d9 c2 00 ba de 4f 20 39 7b 9c 1d ba
       -0.000310793 -0.0004911847 0.00015288542 -0.0006012392
000370 dd 66 2d b9 70 d1 c3 3a a3 57 b2 39 66 19 ed b8
       -0.00016536885 0.0014939737 0.000340161 -0.000113057715
000380 39 c6 c4 39 7c a7 97 b8 f8 04 cd 39 3b 26 57 b8
       0.0003753172 -7.2314375e-05 0.0003910435 -5.12956e-05
000390 fd a1 b6 39 36 36 bd 39 00 00 00 00 00 00 00 80
       0.00034834436 0.0003608928 0.0 -0.0
0003a0 be 07 9d b9 37 de db b9 14 75 cf b9 3c 1c 07 39
       -0.00029951142 -0.00041936498 -0.00039569347 0.00012885121
0003b0 74 66 d7 b9 14 c0 2f 39 6b 7e d8 b9 59 26 5f 39
       -0.0004108433 0.00016760855 -0.0004129292 0.00021281223
0003c0 89 28 f2 b9 6c aa e9 39 74 b7 83 b9 8d e5 c0 39
       -0.00046188038 0.00044568197 -0.0002512295 0.00036792122
0003d0 83 2d 41 b9 81 83 bc 39 0a c5 10 b9 1e 6e be 39
       -0.00018422869 0.00035956132 -0.00013806313 0.00036321668
0003e0 90 fe e9 b8 31 05 b7 39 fe a9 c4 39 00 00 00 00
       -0.00011157722 0.00034908348 0.00037510687 0.0
0003f0 00 00 00 80 c8 0d c4 b9 47 74 ca b9 b6 23 dd b9
       -0.0 -0.000373943 -0.00038615076 -0.00042179012
