trained_models/IOD_Training/crr_nn_best_model_inpaint_50.pth (torch, 57818 bytes, 3 tensors)

conv_layer.conv_layers.0.parametrizations.weight.original f4 [8, 1, 7, 7]
000000 83 89 f7 bd c6 ff 0d 3e 17 25 c1 3d be 73 c2 3d
       -0.12086775 0.13867101 0.094309025 0.09494732
000010 fc 34 a1 bb 44 23 aa 3d 75 cb 15 be 3b ce 65 3c
       -0.0049196463 0.08307508 -0.14628394 0.01402622
000020 02 61 19 bd ab 75 11 3e 54 4a b5 3d 23 6c 40 bc
       -0.03744603 0.14205043 0.088520676 -0.011744532
000030 ef a2 2c be 7a d6 80 3c d4 a6 70 bd 09 cd da bd
       -0.16859029 0.01572727 -0.05875285 -0.106836386
000040 fe 0f d0 bd cb 15 24 be 1f 30 31 3e 1b 14 f5 bd
       -0.101593 -0.16023938 0.17303513 -0.119667254
000050 02 3e f6 3d 87 a4 02 be da 42 0f be 88 39 60 3d
       0.12023546 -0.12758075 -0.13990346 0.054742366
000060 e6 8b 4c 3d 65 b5 c0 bd 96 4c f1 bc 72 a9 c6 3d
       0.049938105 -0.09409598 -0.029455464 0.09700288
000070 18 af 02 3e fd 25 9a 3b a8 3f c6 3d 1e 45 27 3e
       0.12762105 0.0047042356 0.0968011 0.1633496
000080 87 95 d8 3d e8 97 1c 3d 3b 12 2b 3e fa d8 c1 bb
       0.10575395 0.038230807 0.16706173 -0.005915758
000090 8d b4 2f 3e 94 98 d4 3d b5 1f 62 bc c6 bd 32 3d
       0.17158718 0.103806645 -0.013801505 0.043638013
0000a0 3e 8d 11 be 9f 4d d5 bd 08 6c 53 3a 4f cd 95 bd
       -0.14214036 -0.10415196 0.0008065109 -0.0731455
0000b0 c4 31 db bd 6e bc d6 3c 11 cc 3f bd 62 92 ba bd
       -0.107028514 0.026212897 -0.046825472 -0.091099516
0000c0 42 79 8c 3d 21 08 90 3c 62 10 1b 3d 02 bb ff bc
       0.068590656 0.017582001 0.03785742 -0.031217102
0000d0 47 ce a6 3d 48 93 b3 3d ea 3d 29 3c d1 bc f5 3c
       0.08144813 0.08768326 0.010329703 0.029997261
0000e0 2d 4f 57 bd 53 b2 5c 3d 72 ba c7 3d 6f 2f 52 bd
       -0.052565742 0.053881 0.097523585 -0.051314767
0000f0 82 43 a4 bd 8f 47 e1 bd ad 5a b6 bd 63 ce 01 3d
       -0.080206886 -0.10999977 -0.08904014 0.031690966
000100 cc 6e 16 3e 57 2c 50 bd ac d1 2b 3e cb 9a b8 3c
       0.14690703 -0.050823536 0.16779202 0.022534749
000110 f6 af 2b be 38 60 17 3e 5a c2 06 be 2a 24 ef 3d
       -0.16766343 0.14782798 -0.13160077 0.116768196
000120 eb 80 fa 3b a7 86 76 3d 37 3e c2 3d e5 38 42 3d
       0.0076447628 0.06018701 0.09484523 0.04741754
000130 33 fc c3 bd 36 b0 81 3d 63 23 10 3e 4e cb 06 be
       -0.095695876 0.06332438 0.14075999 -0.13163492
000140 5b c8 1c bc d3 2e 10 3e 6e e6 68 bd 57 03 74 bd
       -0.009569253 0.14080362 -0.05686038 -0.059573498
000150 a6 3a 8a bd 67 74 24 be 5b 5f 00 be 59 4e 5b 3d
       -0.067494676 -0.16060029 -0.12536375 0.053541515
000160 44 b3 e9 bc 39 9c 1a 3e 3b 43 16 be b9 27 01 3e
       -0.028527863 0.15098657 -0.14674084 0.12612809
000170 88 1a c1 bd 44 98 ed bd 12 c2 26 3e e6 9d 21 be
       -0.094288886 -0.11601308 0.1628497 -0.1578289
000180 8b 1b b5 3d 99 60 07 3e 41 44 cb 3d b0 f2 b1 bd
       0.08843144 0.13220443 0.09925128 -0.08688867
000190 be 47 a5 3d bd 5b 25 3c aa 49 02 be 37 86 4d bd
       0.08070324 0.010092673 -0.12723413 -0.050176825
0001a0 b9 50 e9 bd 90 fe 05 be ed 50 30 3e a3 7e 33 3c
       -0.1139235 -0.13085389 0.1721837 0.0109554855
0001b0 dd d6 d1 3d d7 c3 34 be 77 c6 1a 3e 46 01 0e be
       0.1024606 -0.17652832 0.15114771 -0.13867673
0001c0 db fb 9a bd 4d ab df bd ed 21 26 3e 1e 6c 1d 3c
       -0.07567569 -0.10921345 0.16223879 0.009608297
0001d0 d1 7d bc bd 0d 78 b0 3d dd 75 16 bd 6a 15 5e bb
       -0.09203685 0.08616648 -0.036733497 -0.0033887275
0001e0 97 fa 30 bc 5f 56 d4 bd 75 3b 0b 3c dd 22 f3 3d
       -0.010801933 -0.103680365 0.008498062 0.11871884
0001f0 5f 04 04 3e 71 d5 de bd d0 cc 22 be 0f 59 6a 3d
       0.12892292 -0.108805545 -0.15898442 0.05721384
000200 c4 70 a0 3d 61 13 41 3c c6 64 33 be 73 2c b8 bd
       0.07834008 0.011784405 -0.17518911 -0.08992853
000210 76 38 b9 bd 93 47 25 3e ba 53 1d be 4f dc 78 3c
       -0.09043972 0.16140585 -0.1536397 0.015189244
000220 02 b1 06 3d 2a d2 a4 bd e3 d8 65 3d 92 ae c1 3d
       0.03288365 -0.08047898 0.056115042 0.09457125
000230 40 ea 23 bc 1c 43 0a be 96 ab 89 bd 5d 52 80 bc
       -0.01000458 -0.13502163 -0.067221805 -0.015664274
000240 6f 27 26 be de 69 bf bd a4 84 9f 3d 45 8a 25 3e
       -0.1622598 -0.093463644 0.07788971 0.16166027
000250 8f 2a 8a bc d4 77 a3 bd 67 90 d7 3c b4 be aa bd
       -0.016865997 -0.0798184 0.026313974 -0.08337155
000260 3c 71 2d 3e 25 c2 0d be 25 9a 27 be b0 0e 47 bd
       0.16937727 -0.13843592 -0.16367395 -0.04859799
000270 c7 4d 11 3e 98 6b 82 bd 9b f0 b2 bd 7f 9e 9c ba
       0.14189826 -0.06368178 -0.08737298 -0.0011949091
000280 43 a8 04 3d 99 ad 17 3e 90 2d 21 3e a9 0d a4 bd
       0.03238703 0.14812316 0.15740037 -0.08010418
000290 dc 34 16 3e 06 67 8d bd bb 9a 49 bd 43 e2 a1 bd
       0.14668602 -0.06904416 -0.049219828 -0.07904484
0002a0 cf 52 57 3b 2d 39 a8 bd d3 51 c9 3c 5a a7 2e 3e
       0.0032855754 -0.082140304 0.02457515 0.17056027
0002b0 38 7f 3d 3e 4b d0 bf 3d d6 d2 fe bd 5d 31 f1 bd
       0.18505561 0.093659006 -0.124425575 -0.117769934
0002c0 91 7b aa bd cc a6 0f be 01 01 19 3e 2b ad 35 be
       -0.0832435 -0.14028472 0.14941789 -0.1774184
0002d0 af 25 39 3d fb 82 04 be 06 38 26 bd 5c 44 e2 bd
       0.045201954 -0.1294059 -0.040580772 -0.11048195
0002e0 98 b5 a6 3d 09 64 11 3e e3 aa 1d be 6b 10 98 bc
       0.08140105 0.14198317 -0.1539722 -0.018562516
0002f0 0b 57 d9 3d 1a a1 b2 bc 65 c8 0b be 26 75 bc 3c
       0.10612305 -0.021805335 -0.13650663 0.02300508
000300 18 73 29 bd 39 4f 64 bd cd bc 21 be 0b 6c ef 3d
       -0.041369528 -0.055739615 -0.15794678 0.116905294
000310 7b 91 23 3e dd 51 f9 bc 82 e0 cc bd 93 c1 82 3d
       0.15973465 -0.030434543 -0.10003759 0.063845776
000320 0b 3b f2 bc 54 6f a4 bd 36 96 bb bc f3 40 9c bd
       -0.02956917 -0.08029047 -0.022898775 -0.076295756
000330 02 8d 1a be bf bf 18 3e a9 85 1c 3e d8 d7 15 3e
       -0.15092853 0.14916895 0.15285362 0.14633119
000340 73 a9 18 be 48 fb 8f bd ba a8 1b be b6 64 3e 3d
       -0.1490839 -0.0703035 -0.15201083 0.046482764
000350 72 8f 9e 3c 1e c8 05 3d 08 8a 13 3e 93 6f a3 bb
       0.01935551 0.03266155 0.14408123 -0.004987666
000360 67 63 02 3e 2a 1e 23 bd 01 c4 94 bd 97 03 0b bd
       0.12733231 -0.03982369 -0.07263947 -0.03393897
000370 17 0d d4 bc 14 3a 1f be 49 55 05 bd db 5f 1b be
       -0.025885148 -0.15549499 -0.032552037 -0.15173285
000380 86 b4 25 be d9 dc 18 3e b8 1b c0 3d 18 23 3c 3d
       -0.16182145 0.14927997 0.09380287 0.045931906
000390 23 7b 8e bd 3b 7b 85 bd 46 4a 73 3d 82 2b 0a 3e
       -0.0695708 -0.06517645 0.059397005 0.1349316
0003a0 fe 8d 5f 3d 82 50 cd 3a 21 11 6a bd d0 34 82 3d
       0.054578774 0.0015664252 -0.05714524 0.063577294
0003b0 a2 4f 0d 3e 72 57 f8 bc d8 d8 ab 3d 41 31 01 be
       0.13799909 -0.030315135 0.08390969 -0.12616445
0003c0 cf 63 61 bd d3 14 e4 bd 37 99 fc 3d cf 0c fe 3d
       -0.055026826 -0.111367844 0.12333911 0.12404787
0003d0 00 ce 24 3e 29 64 f0 bd e2 c7 14 3d 4d cc 42 bd
       0.16094208 -0.11737854 0.036323436 -0.047558118
0003e0 ed 9c c1 ba 1a 33 cb bd 1b 07 ad bd d2 54 6a bc
       -0.0014771499 -0.09921856 -0.08448621 -0.014302449
0003f0 38 c7 f8 bd 55 89 a4 bd b5 ed 14 3d d1 d4 76 3d
       -0.12147373 -0.080340065 0.036359508 0.06026155

conv_layer.conv_layers.1.parametrizations.weight.original f4 [32, 8, 7, 7]
000000 c5 55 8b bd ce ee ba bc 68 42 41 bd 04 da 43 3d
       -0.068034686 -0.02281895 -0.04718247 0.047815338
000010 fe 0b 89 bd e1 c9 48 bc de 97 96 bd f3 a9 94 3d
       -0.066917405 -0.012255163 -0.07353185 0.07258978
000020 80 ed 5d bc 03 eb 62 3c 95 ce 76 3a ba 60 3d 3d
       -0.013545394 0.0138499765 0.00094149384 0.046234824
000030 29 a4 43 bd c2 a1 1b 3d cf 50 e7 bb 28 ad ea bb
       -0.047763977 0.03799606 -0.0070591937 -0.007161755
000040 d6 4a d9 3c ac 94 8d 3d 2e 48 76 bc 64 18 a3 3c
       0.026524942 0.069131225 -0.015031857 0.019909091
000050 ac ae 4c 3d 91 b6 83 3c 2f 72 6a 3d 0e ee 5f 3c
       0.049971268 0.016078265 0.0572378 0.0136675965
000060 f8 4b b3 bc 62 08 a9 3c eb 90 3d 3d 85 94 9a 3c
       -0.02188681 0.02063388 0.046280783 0.018869648
000070 20 c9 81 3b 8f ef 98 3c e3 79 e1 3c bf a7 98 3b
       0.0039607435 0.018668918 0.02752394 0.004658669
000080 07 a7 c9 3c b5 a4 9e bc 3e e7 78 ba d3 8a 16 3d
       0.024615778 -0.019365648 -0.0009494907 0.036753487
000090 20 cf 2d bd 9e 99 56 3d d0 e0 83 bc 81 7d 0e 3c
       -0.042433858 0.052392595 -0.01609841 0.008696915
0000a0 44 ff 6c ba e9 e1 3e bc 01 d4 08 3d 1c ca ce bb
       -0.0009040723 -0.011650541 0.033405308 -0.0063107144
0000b0 52 3b 53 3c 72 6c dc bc 3f 65 cd bc c8 b3 c0 3b
       0.012892561 -0.02690718 -0.025072692 0.0058808066
0000c0 84 b6 88 3c e1 4b 14 bd 39 65 96 3d 38 b2 b3 3b
       0.016688593 -0.036205176 0.073435254 0.005483892
0000d0 81 14 a1 bd c3 c8 93 3d c5 02 f9 3c 15 fd c1 3c
       -0.07865239 0.07216027 0.030396828 0.02368025
0000e0 ce c1 2c bd 87 d2 8c bc ef a2 f7 bc 9c 01 05 bd
       -0.042177014 -0.017190231 -0.03022906 -0.032472238
0000f0 1f a0 57 3d 56 f6 9d bd 4f 4d 18 bd 95 90 ba bc
       0.052642938 -0.077130005 -0.037183102 -0.02277402
000100 f2 80 31 bc c9 88 57 bc 9d bf 0c 3d 1e 52 5f bd
       -0.010833966 -0.013155171 0.034362424 -0.054521672
000110 8a 4d 6e bc 35 d9 e0 bc cd 58 97 3c 78 e8 04 bd
       -0.014544854 -0.027447322 0.01847496 -0.032448262
000120 66 01 83 bd 4a a1 5e 3d 0a 90 f3 3c 9b e9 33 bd
       -0.06396751 0.054353036 0.02973177 -0.043923955
000130 af 5d 2f ba 7d d7 04 3d 5b aa 66 bc 45 5d 74 bd
       -0.000668968 0.03243207 -0.014078702 -0.05965926
000140 50 13 57 ba 64 05 1f 3d 02 2d 17 3d 24 d3 84 bd
       -0.0008204477 0.0388235 0.036908157 -0.064855844
000150 0a 64 a1 3d 03 be 9a 3c 5d d5 2c 3d c7 a0 6b 3d
       0.07880409 0.018889433 0.042195667 0.057526376
000160 78 1c 76 bb 5f 2f 88 3d e5 98 46 bc d2 18 f3 bb
       -0.003755359 0.0664966 -0.012121414 -0.0074187303
000170 00 47 32 3d 62 dc 7e bd 09 a1 1a bd d5 5f 1f bc
       0.043524742 -0.062221892 -0.03775123 -0.009727438
000180 40 41 34 bd 8b a9 3d bb 47 56 90 3c bf 63 89 bd
       -0.04400754 -0.0028940167 0.017619265 -0.06708478
000190 6b 8a d2 bb b4 e9 23 bd 18 e1 67 3d bf 8e 0f 3d
       -0.006425192 -0.0400178 0.05661115 0.035048243
0001a0 4f 72 53 bd bc 7d 4b bd 2d e0 82 3d f9 d3 ef 3c
       -0.051622685 -0.049680457 0.063904144 0.029275881
0001b0 a3 dd 98 bd 1c 8b d4 bc fb aa 55 3d 1e a7 ab bc
       -0.07464149 -0.025945239 0.052165013 -0.020953711
0001c0 52 89 c8 3b 57 1d d6 3c 84 64 83 3c 05 46 84 3c
       0.0061198855 0.026137037 0.01603914 0.01614667
0001d0 f6 cc 3b bc c9 29 1e bd 49 f3 1f bd d9 59 49 bd
       -0.011462441 -0.03861407 -0.039050374 -0.04915795
0001e0 ab 30 24 bd cd 4a 06 bd 31 23 3a bc 95 25 8f bc
       -0.040085476 -0.03278618 -0.011360929 -0.017473975
0001f0 b3 e9 ae 3b 0e e0 fa bc c1 ab e0 bb e8 c1 3c bd
       0.0053379177 -0.030624416 -0.006856412 -0.04608336
000200 93 80 5e bc d4 a2 15 3c 8c 56 69 3c c0 f6 30 3c
       -0.013580459 0.0091330595 0.014241826 0.010801017
000210 f1 a9 bb bc 9c 7f 7f bd 2d ed c9 bc bc 0d 4f bd
       -0.022908183 -0.062377557 -0.024649227 -0.050550207
000220 6a e0 29 3d 3f d4 01 bd e2 14 21 3d 41 ee cf 3c
       0.041473784 -0.031696554 0.039326556 0.025382163
000230 c5 04 a0 3c bf a3 eb 3c 9c 8c fb 3b ca 2f 96 bb
       0.019533524 0.028764604 0.007676674 -0.0045833336
000240 88 e9 f5 bb f0 ff 61 3c 1e 58 ab 3c 27 66 0e 3d
       -0.0075046457 0.01379393 0.020916041 0.03476539
000250 d1 1f 35 3c 02 33 19 bd 31 70 2a 3d c2 40 73 3d
       0.011054949 -0.03740216 0.0416109 0.05938793
000260 23 67 fd bb 7a ce ad 3c d5 6c 50 3d 2d b6 93 bc
       -0.007733242 0.02121662 0.05088504 -0.018031204
000270 ff fe bc 3c f8 19 16 bd fa cd bd 3c 26 7f 92 3d
       0.02307081 -0.03664586 0.023169506 0.07153158
000280 45 65 0b 3c 0f ed de bc e0 eb f7 bc 5c 48 0a 3d
       0.008508031 -0.027212648 -0.030263841 0.033760414
000290 8d 46 1f bd c0 4a 20 bd 81 43 3a bb db 2c 9b bc
       -0.03888564 -0.039133787 -0.0028421583 -0.018942287
0002a0 ef 82 3c 3d 5a fd b0 bc ec 51 6f 3d 3a d4 f4 39
       0.046023306 -0.021605182 0.058427736 0.00046697428
0002b0 db df 10 bb 39 01 df bb 9a 32 ec bc 45 f5 c4 bc
       -0.0022106085 -0.0068055657 -0.028832722 -0.024042735
0002c0 9e c2 0a 3d 1c 89 0e 3c a1 a2 24 3d dc fe 53 3d
       0.033877008 0.008699682 0.040194158 0.051756725
0002d0 44 53 3d bd 7c 0d 1f bd cf be 49 3d bb 06 2c 3d
       -0.046221986 -0.03883122 0.049254235 0.041998606
0002e0 46 88 2c bb 28 e5 b2 3b 20 cc 15 3d 64 bd 30 3c
       -0.0026326342 0.0054594465 0.036571622 0.010787342
0002f0 61 74 24 3d c3 30 4a bc 5e 82 1a 3d a4 93 a1 bc
       0.04015005 -0.012340727 0.037721984 -0.01972372
000300 55 76 1c bc 01 14 9c 3c f5 4e f5 3c 48 74 7b 3c
       -0.009549697 0.019052507 0.029944876 0.015347548
000310 81 b7 92 bd a2 47 34 bd 33 58 8d bd fc 43 2a bd
       -0.07163907 -0.044013627 -0.06901588 -0.04156874
000320 69 26 b5 bc de 11 98 bd ae 51 b1 bc 07 07 b7 3c
       -0.022113042 -0.07425283 -0.021645393 0.022342218
000330 39 df 97 3c 85 72 de 3c af f9 35 3d 41 70 15 bd
       0.018539058 0.027154217 0.04442757 -0.036484007
000340 c2 83 b6 ba ee 7c 34 bd 3e d0 d5 3b 40 29 8a 3c
       -0.0013924765 -0.044064455 0.0065250685 0.016865373
000350 a6 9a 80 3d 0d 66 0c bc 06 c6 7f bb 0c 10 25 3c
       0.06279497 -0.008569253 -0.0039027943 0.010074627
000360 14 d0 ba bc 0c 62 de bc 28 e5 76 bd de 1d 6f 3d
       -0.022804298 -0.027146362 -0.060277134 0.058378093
000370 25 a1 1b bd 95 a8 6d 3d 68 0a 55 3d 50 20 51 3d
       -0.037995476 0.0580221 0.052011877 0.051056206
000380 8a 06 f2 3b 52 5e cd bc 38 77 2a bc 62 53 1f 3d
       0.0073860334 -0.02506939 -0.0104044005 0.03889788
000390 ce 49 f1 bc a7 f6 26 3d 3c 4c 87 ba 29 b3 4f 3d
       -0.029454138 0.04076257 -0.0010322402 0.05070797
0003a0 da d4 1a bb 2a 49 23 3d b7 ad 92 3d fa b5 05 3d
       -0.0023625405 0.039864697 0.0716204 0.03264425
0003b0 18 cf 06 3c b1 dc 26 bd ac 81 50 3c a2 2f e0 3c
       0.008228086 -0.04073781 0.012726229 0.027366463
0003c0 d9 bf 95 bc f8 e3 d1 3c 12 84 ab bb 27 89 c2 3b
       -0.018279957 0.0256214 -0.00523425 0.00593676
0003d0 cd 8f 72 bd 01 3b 4f 3d 66 7e 96 3d 38 e1 d3 3c
       -0.05921917 0.05059338 0.07348327 0.025864229
0003e0 73 b3 ff 3c cb c8 f0 bb ce d3 86 bd f4 1c 11 3d
       0.031213498 -0.007348155 -0.06583367 0.035428002
0003f0 1b 10 ac bc 1c 35 16 bd 76 7d 92 bd cc 6f 2f 3d
       -0.021003773 -0.036671743 -0.07152836 0.042831227

activation.coefficients_vect f4 [672]
000000 00 00 00 80 8a dc cd b9 76 27 64 39 1a 60 bd b9
       -0.0 -0.0003926496 0.00021758475 -0.0003612049
000010 9e 7f 6e 39 6d 78 bf b9 ef 41 bd b9 10 29 81 39
       0.0002274499 -0.00036520083 -0.00036098014 0.0002463539
000020 ae 87 bd b9 6e 8d 87 39 dd 87 d8 b9 46 61 c8 39
       -0.00036149978 0.0002585458 -0.00041299957 0.00038219447
000030 d1 00 88 b9 a0 dd f6 39 bd 88 60 3a a0 2f b6 39
       -0.0002594055 0.000470859 0.00085652975 0.00034749229
000040 93 bc 6d b9 59 44 21 3a 0f bd ba 39 be 07 9d 39
       -0.0002267233 0.0006151847 0.00035617544 0.00029951142
000050 00 00 00 00 00 00 00 80 0b 0c cc b9 7c 04 4c 39
       0.0 -0.0 -0.00038918885 0.00019456627
000060 74 44 c3 b9 bf 82 c5 b9 e9 02 51 ba 18 21 8c 39
       -0.000372443 -0.00037672181 -0.0007973151 0.00026727538
000070 96 4e e7 b9 99 c4 e2 b9 2a db 7a 3a 25 27 24 ba
       -0.00044118305 -0.00043252556 0.0009569401 -0.00062619365
000080 58 ba cb 3a 75 3b d3 39 1c f4 d1 39 fa 74 d0 39
       0.0015543206 0.00040289355 0.00040045462 0.00039760006
000090 c3 e9 cf 39 a4 ef bd 39 ee 8e 68 b9 15 bf db 39
       0.00039656283 0.00036227435 -0.0002217849 0.00041913302
0000a0 be 07 9d 39 00 00 00 00 00 00 00 80 6f 13 c6 b9
       0.00029951142 0.0 -0.0 -0.00037779982
0000b0 cc d2 65 ba 67 de 8b 39 bb ab b3 b9 3d 7c d4 b9
       -0.0008767068 0.0002667785 -0.0003426949 -0.00040528356
0000c0 5f 9e d6 b9 3e bc d3 ba c2 d3 89 ba 9c 8d 21 39
       -0.00040935256 -0.0016154123 -0.0010515379 0.0001540691
0000d0 91 b0 01 3a bf 07 9d 39 84 fb b4 b9 75 7c 0d 3a
       0.000494727 0.00029951145 -0.0003451967 0.00053972687
0000e0 ad a8 91 3a 27 78 bd 39 ea 99 8a b9 b5 07 f7 39
       0.0011112891 0.0003613841 -0.00026436086 0.00047117253
0000f0 38 28 39 3a 97 ef c6 39 00 00 00 00 00 00 00 80
       0.0007063183 0.0003794401 0.0 -0.0
000100 de 9f c9 b9 11 e7 39 ba 82 d3 a9 b8 94 c3 6c ba
       -0.00038456818 -0.00070916215 -8.0979444e-05 -0.0009031829
000110 a0 63 10 ba f1 5d b9 39 b1 8e bb b9 57 69 d8 ba
       -0.00055080093 0.00035355942 -0.00035773733 -0.0016510886
000120 dc c4 f2 39 70 6d 31 ba b1 62 2d 3a 17 3e f9 b9
       0.0004630451 -0.00067683216 0.00066141324 -0.00047539241
000130 db f8 c5 3a ed 98 c1 39 2d 42 b7 b9 dc 00 17 3a
       0.0015104072 0.00036925767 -0.00034953785 0.0005760321
000140 6f 19 8f b9 30 f1 0e 3a bf 07 9d 39 00 00 00 00
       -0.00027294035 0.000545281 0.00029951145 0.0
000150 00 00 00 80 be 07 9d b9 11 65 c7 b9 96 1d 77 ba
       -0.0 -0.00029951142 -0.00038031538 -0.0009426711
000160 46 bc c2 b8 6c 84 84 ba 6f a3 c7 39 ec 70 b9 b9
       -9.2857095e-05 -0.0010110266 0.00038078005 -0.00035370083
000170 63 27 cd b9 90 b7 d1 ba 86 66 cc 3a 6c fe ba ba
       -0.00039129992 -0.001600014 0.0015594519 -0.0014266497
000180 0f c4 dd 3a 0b a3 b8 39 bf 07 9d 39 88 ae b0 b9
       0.0016919392 0.0003521669 0.00029951145 -0.00033699372
000190 f3 7a 80 3a b5 c7 c7 39 50 f7 81 b9 25 08 de 39
       0.0009802267 0.0003810503 -0.0002478906 0.00042349208
0001a0 00 00 00 00 00 00 00 80 2e 42 ca b9 76 42 cf b9
       0.0 -0.0 -0.0003857775 -0.00039531634
0001b0 2d 9b d0 b9 60 db d1 b9 52 0d d2 b9 ce b5 98 ba
       -0.00039788467 -0.00040027034 -0.00040064246 -0.0011650862
0001c0 cd cf d0 39 bd 07 9d b9 6a 85 18 ba 9b 84 23 3a
       0.00039827675 -0.0002995114 -0.000581822 0.00062377163
0001d0 23 f3 18 ba 4d 92 2e 3a 1a 8f 4f 3a 3c 3d fd 39
       -0.000583457 0.0006659374 0.0007917747 0.00048301544
0001e0 5e ed a3 3a 01 dd c2 39 bf 3f a1 b9 af ba 69 3a
       0.0012506654 0.00037167224 -0.00030755808 0.00089160627
0001f0 e8 b0 ca 39 00 00 00 00 00 00 00 80 d9 9c c5 b9
       0.00038660248 0.0 -0.0 -0.0003769163
000200 d0 65 39 ba 5c 2c 83 39 1d ad c2 b9 8b d5 d0 b9
       -0.0007072361 0.00025019317 -0.00037131543 -0.00039831953
000210 63 a6 94 ba 07 30 b8 39 e7 3e b4 b9 e6 b8 bc ba
       -0.0011341091 0.00035130998 -0.0003437914 -0.0014398366
000220 6b 31 96 3a 3d 79 aa ba 03 9a 0f 3a b7 da b1 3a
       0.001145882 -0.0013006103 0.00054779666 0.001356921
000230 b4 d1 b9 39 76 ac a0 b9 a0 c6 75 3a db 3a cd 39
       0.0003544219 -0.00030646072 0.0009375606 0.00039144498
000240 6f af c5 39 be 07 9d 39 00 00 00 00 00 00 00 80
       0.00037705476 0.00029951142 0.0 -0.0
000250 bd 07 9d b9 17 51 c9 b9 a2 bd cc b9 eb c6 cc b9
       -0.0002995114 -0.00038398124 -0.000390512 -0.00039058118
000260 52 3a 97 ba d7 fa c2 39 4f c1 14 ba 63 5e da 39
       -0.0011537767 0.00037189454 -0.0005674557 0.00041650524
000270 11 f9 15 ba 12 86 1a 3a 58 f6 10 ba 22 84 8e 3a
       -0.0005721013 0.0005894612 -0.0005529872 0.0010873119
000280 cb c7 e0 39 95 25 ab 3a 0a 75 bc 39 a4 6e a1 b9
       0.00042873467 0.0013057465 0.00035945355 -0.00030790747
000290 26 95 73 3a 6e 67 c3 39 bf 07 9d 39 00 00 00 00
       0.0009291939 0.0003727036 0.00029951145 0.0
0002a0 00 00 00 80 af 9d c3 b9 e7 c4 cc b9 cd 1e 62 ba
       -0.0 -0.00037310782 -0.00039056616 -0.00086258055
0002b0 fd 9b a0 39 be 07 9d b9 c1 d3 bc b9 c6 5f b0 ba
       0.00030633798 -0.00029951142 -0.00036015923 -0.0013456277
0002c0 f3 26 e2 39 29 af 1a ba 7c c7 bf 3a 18 ac 91 ba
       0.00043135099 -0.00059007347 0.0014631595 -0.001111391
0002d0 d0 d9 05 3a 8b 3a 0a 3a be e3 0a 3a f1 d2 8d 3a
       0.0005106004 0.0005273006 0.00052982185 0.0010820312
0002e0 64 3d cb 39 03 ad c7 39 4e 0f f4 38 a0 12 a9 39
       0.00038764917 0.00038085142 0.000116376774 0.0003224807
0002f0 00 00 00 00 00 00 00 80 be 07 9d b9 a9 b4 c4 b9
       0.0 -0.0 -0.00029951142 -0.00037518636
000300 8b 73 84 ba b1 ca a8 39 ac fd 0e ba 34 60 cd 39
       -0.0010105235 0.00032194474 -0.000545467 0.00039172324
000310 83 0d d4 b9 fa 4c d8 ba ac f5 1e 3a e7 bd 25 ba
       -0.00040445858 -0.0016502433 0.00060638296 -0.0006322548
000320 e5 77 1d 3a 22 ce dd b9 04 56 ad 3a 2e 5f cc 39
       0.00060069404 -0.00042305986 0.0013224487 0.00038980827
000330 e5 c5 c5 39 bf 07 9d 39 28 73 8f b9 a3 d0 49 3a
       0.0003772221 0.00029951145 -0.00027360884 0.0007698631
000340 9f aa c8 39 00 00 00 00 00 00 00 80 eb 7a c9 b9
       0.00038274095 0.0 -0.0 -0.00038429289
000350 b2 fd 1e ba fc 47 64 39 10 11 c1 b9 61 9e 4b ba
       -0.0006065025 0.0002177059 -0.0003682454 -0.0007767436
000360 a8 47 ec b9 b4 40 8d 39 b0 59 df b9 2f e6 97 39
       -0.00045066816 0.00026941823 -0.00042600697 0.00028972464
000370 bf 07 9d b9 18 af d8 b9 c3 c8 6a 3a c3 84 b5 3a
       -0.00029951145 -0.00041329185 0.00089563074 0.001384877
000380 ff a0 b2 39 95 82 86 b9 6c 4e 55 3a 18 88 d3 39
       0.00034070757 -0.00025655763 0.0008136991 0.00040346454
000390 27 ef bb 39 bf 07 9d 39 00 00 00 00 00 00 00 80
       0.00035845602 0.00029951145 0.0 -0.0
0003a0 2d 5b c8 b9 1c e8 2a ba 22 69 74 39 a9 b6 be b9
       -0.00038214904 -0.00065195723 0.00023308818 -0.00036375716
0003b0 59 e0 d2 b9 c3 f0 8e ba e9 11 dd 39 c7 ca be ba
       -0.00040221473 -0.0010905493 0.0004216575 -0.0014556282
0003c0 54 e0 af 39 4a 5d 04 ba bc e1 34 3a 38 46 c0 3a
       0.0003354574 -0.00050493015 0.0006900092 0.0014669364
0003d0 2c 7f b4 39 39 d5 9c b9 a4 1d 87 3a 03 25 d2 39
       0.00034427026 -0.00029913502 0.0010308516 0.00040081897
0003e0 e6 20 bd 39 73 61 72 b9 c0 0d d6 39 00 00 00 00
       0.000360734 -0.00023115221 0.00040827505 0.0
0003f0 00 00 00 80 be 07 9d b9 5a 51 ca b9 f9 35 42 ba
       -0.0 -0.00029951142 -0.00038589054 -0.0007408555
