trained_models/IOD_Training/crr_nn_best_model_noise_15.pth (torch, 57798 bytes, 3 tensors)

conv_layer.conv_layers.0.parametrizations.weight.original f4 [8, 1, 7, 7]
000000 c8 7f c4 3d 55 c7 1c be 6b 36 8c bc f1 a6 80 bd
       0.09594685 -0.15310414 -0.017115792 -0.062818415
000010 5c ca 60 bb 1e 1a f6 3c 7c 76 d3 bd 0a 80 d7 3d
       -0.0034300303 0.03004175 -0.103253335 0.105224684
000020 1b 4b d7 3d 7d 1e 08 be 2b 2a 14 3d f1 89 df 3d
       0.10512372 -0.1329288 0.036173027 0.10914982
000030 2e fc ae bd 53 54 02 3e 36 1e 48 3d 74 1e e3 bd
       -0.08544193 0.1272748 0.048856936 -0.11089793
000040 f2 ac f3 bc 80 d4 b3 3d 20 23 03 be cc 71 01 be
       -0.029745553 0.087807655 -0.12806368 -0.12641066
000050 b3 96 52 ba a6 20 5d 3d d4 49 2e be 56 f9 0e bd
       -0.000803332 0.053986214 -0.1702035 -0.034905754
000060 6f 34 75 bd cf dc 02 3d 29 1d a4 bd 56 5a 77 bd
       -0.059864458 0.03194886 -0.08013374 -0.060388885
000070 89 dc fc 3d 16 ce b9 bd 4e 22 86 3d d4 aa 06 bd
       0.12346751 -0.09072511 0.06549512 -0.03287776
000080 70 51 fd 3d c7 00 9b bd c7 89 98 bd ed 4c 14 be
       0.123690486 -0.07568508 -0.07448154 -0.1448247
000090 5d 59 ea bd b5 8b 71 bd 00 62 89 bc 70 d0 bb bd
       -0.11442826 -0.058971126 -0.016770363 -0.09170616
0000a0 4a 37 22 3d e4 f9 50 3d a6 6e d7 3a 89 c2 80 3d
       0.03960351 0.051019564 0.0016436174 0.06287105
0000b0 d5 7e 1b be 0c 15 90 3d 03 22 44 bd a9 8c 5c 3c
       -0.15185101 0.070352644 -0.047884 0.01346127
0000c0 42 22 dc bd 14 a0 b5 bd a0 40 d1 bc f0 3e c6 bd
       -0.10748722 -0.08868423 -0.02554351 -0.09679973
0000d0 a5 a3 da 3d 11 be 23 be 53 26 45 3c f0 ab c7 3d
       0.10675744 -0.15990473 0.012033063 0.09749591
0000e0 34 98 c7 bc d5 9b 5d bd 4d 7c 2b 3c f8 be 85 3d
       -0.024364568 -0.05410369 0.010466647 0.06530565
0000f0 ff 59 bd bd 8f b3 ef bd aa ef 85 ba 1b 9f e6 bd
       -0.09245681 -0.1170417 -0.001021852 -0.11260816
000100 27 32 8d 3d a8 6c 5f bd e7 1d b4 bd 08 13 1c be
       0.068943314 -0.054546982 -0.08794766 -0.15241635
000110 a9 a7 16 3e dd 5a f0 3d 16 16 ea bd 57 3b c7 3c
       0.14712395 0.11736081 -0.11429994 0.024320288
000120 ce 83 f9 bd 64 51 ee bd 32 86 76 bd d6 83 30 be
       -0.12183343 -0.11636618 -0.060186572 -0.17237791
000130 e7 a3 7a 3d aa 9f 92 bd ec 3d 64 bc 4a f7 08 be
       0.061191466 -0.0715936 -0.013930779 -0.13375583
000140 71 65 bc bb 03 1e 99 3c 04 cd bc 3d 69 a7 1c bb
       -0.0057493974 0.018691069 0.09218791 -0.0023903495
000150 f3 6a 07 3e 79 49 a3 bc 09 21 1b be 8e c5 9e 3c
       0.13224392 -0.019932495 -0.1514932 0.01938131
000160 c7 91 7c bd 9c 27 10 3e 80 60 b5 bd 9a 54 d0 3d
       -0.06166246 0.1407761 -0.088562965 0.101723865
000170 7c 90 04 be 82 9e c8 3d 24 e3 18 3d 2c d1 ce 3d
       -0.12945741 0.09795858 0.037325993 0.1009849
000180 2e 4f 11 be ea d5 24 bd 6d 07 3e bd b8 95 20 bd
       -0.14190361 -0.040243067 -0.0463938 -0.039205283
000190 4b b0 0e 3e 77 ba 44 3d 30 51 ac 3d 71 b4 f7 bd
       0.13934438 0.04802939 0.08413923 -0.12094963
0001a0 81 ac e2 bd ad f5 24 3e 89 a5 08 be 8d 0c 8e bd
       -0.11068059 0.16109343 -0.13344397 -0.069359876
0001b0 b5 64 ac 3c 33 38 2b 3d f5 f6 35 3d da 8b 9b 3d
       0.021044115 0.041801643 0.04442497 0.07595034
0001c0 29 bd 50 3d da 90 09 3e 62 2f 3b bd bc 05 21 be
       0.050961647 0.13434163 -0.045699485 -0.15724844
0001d0 17 3b 99 3d 3d f7 7b bd 7d 12 2d be b3 5b b2 3d
       0.074819736 -0.06151508 -0.16901584 0.087088965
0001e0 4c 33 2c bc cb f5 1e 3e 83 fd 10 3e a7 a2 94 3d
       -0.010510277 0.1552345 0.14159207 0.07257586
0001f0 ab f4 11 be 7e 2b 02 3e d5 ad 36 bd 8f db ea 3d
       -0.1425349 0.12711903 -0.044599373 0.11467659
000200 5d d1 f7 3c 65 f8 03 3e 47 98 9d bd 27 3f fb 3d
       0.0302512 0.12887724 -0.0769506 0.12267905
000210 ad 88 29 3d 66 44 c5 bd a5 74 b2 bd 1d 4b 06 be
       0.04139011 -0.096321866 -0.087136544 -0.13114591
000220 e4 e7 20 be 72 dc 26 3d 15 5a 73 3d 25 c9 89 3d
       -0.15713459 0.040737577 0.05941208 0.067278184
000230 96 fb a4 bd 0b 4b 4d bd d5 d4 e1 3d 3a 5c 7e bd
       -0.08055799 -0.050120395 0.110269226 -0.062099673
000240 d2 a8 64 3d 87 77 0c 3d fc bb a9 3d 30 0c 82 3d
       0.055825062 0.034293678 0.08287808 0.06349981
000250 c8 11 8a bd c6 9a ec 3d ee bb 18 be 74 1d 10 be
       -0.06741673 0.11552958 -0.1491544 -0.14073735
000260 b6 bd 22 3e 73 65 01 3e fd d5 f1 3d 3e 95 6b 3c
       0.15892681 0.12636356 0.11808393 0.014378844
000270 25 5b b8 bc 21 e9 a2 3d 98 d8 2c bd 67 64 23 3e
       -0.022504399 0.07954622 -0.042198747 0.15956269
000280 59 f0 2f be 5e 4a 18 3c c9 bd b4 bd 90 33 88 bd
       -0.17181529 0.009295074 -0.08825261 -0.0665046
000290 80 b5 97 3c 13 dd ab bd c6 0f b9 3c c7 18 1c 3e
       0.018519163 -0.08391776 0.02259053 0.15243827
0002a0 6e 09 1f 3d 30 05 7d 3d 07 58 13 3b 80 63 10 be
       0.038827352 0.061772525 0.0022482888 -0.14100456
0002b0 97 ba c8 3d ec cf d6 3c 73 3e 16 be d6 e2 89 bd
       0.09801214 0.026222192 -0.1467226 -0.06732719
0002c0 61 30 06 3e d5 09 ab 3b 96 5e ca bd 75 71 15 3e
       0.13104393 0.005219678 -0.09881322 0.14594062
0002d0 1b 0f d6 3c bf 69 4e 3d 7a ab cc 3d ce a0 5e 3d
       0.02613025 0.050393816 0.09993644 0.054352574
0002e0 01 be 0a bc 96 ef 20 3e 5a e2 17 be 6e bf 28 3d
       -0.008468152 0.15716395 -0.1483244 0.041198187
0002f0 4d bc e2 3b 4e c6 cb bb 1e 45 a7 bb a8 32 df 3d
       0.00691942 -0.006218708 -0.005104675 0.10898334
000300 1f 85 cf 3d b2 08 5c bd 0c 9b 09 be ec 0f 1d 3e
       0.10132813 -0.05371923 -0.13438052 0.15338105
000310 8f e4 1c bd 97 aa d8 bd ae e1 0d 3e 8b 42 2f 3e
       -0.038303908 -0.105794124 0.13855621 0.17115228
000320 26 75 1e be ca 55 d4 3d 50 93 b9 3d 0e 24 cd 3d
       -0.15474376 0.103679255 0.09061301 0.100166425
000330 d8 d1 0e 3e ee db e1 bd 2f 61 fb bd ca 4f 85 bd
       0.13947237 -0.110282764 -0.12274396 -0.06509359
000340 7f f7 98 3d 5f 57 e4 3d 83 a9 8d 3c f9 29 8c bd
       0.07469081 0.11149477 0.017292744 -0.06843943
000350 9e 4d e6 bd d7 7c 83 bc fa a6 ef bd 60 f8 de bd
       -0.11245273 -0.01605074 -0.1170177 -0.108872175
000360 6f 63 09 3e cd fa d1 bd 74 03 d1 3d cf 48 c8 3d
       0.13416837 -0.102529146 0.10205737 0.09779512
000370 02 91 fe 3d 97 38 fc 3d 85 11 a6 3d dd 20 de bd
       0.12430002 0.12315481 0.0810881 -0.10846112
000380 e3 a7 cc 3d 5f c9 c3 3d a0 bc a3 3b bb b2 6e 3d
       0.09992959 0.09559893 0.004996851 0.05827592
000390 ed 4d 5c 3c 7e 0c 70 3c 88 19 54 bc bf 7b 73 bd
       0.013446313 0.014651416 -0.01294554 -0.059444185
0003a0 92 b2 a3 3d 8e 60 5c bd a6 d8 3e bd aa c6 06 3e
       0.07993044 -0.05380302 -0.04659333 0.13161722
0003b0 3e a1 f7 3d c3 a7 01 bd 09 f3 e1 3d f9 1d 40 3c
       0.120913014 -0.03165413 0.110326834 0.011725896
0003c0 15 04 d6 3d 1b b4 26 be ee 59 07 3e af 0b 26 bb
       0.10449997 -0.16279642 0.13217899 -0.0025336554
0003d0 a4 d4 bc bd 72 a3 10 bd d7 37 fb bd d0 dc 4c 3d
       -0.092202455 -0.035312124 -0.1226651 0.05001527
0003e0 b0 d4 3f 3d 95 de 34 3d 4d 05 f1 bd 7f 2b c9 3d
       0.046833694 0.044157583 -0.11768589 0.09822749
0003f0 42 dc dc bd 94 13 0c 3e ca 42 fa 3d 21 f5 bf 3d
       -0.10784198 0.13679343 0.1221977 0.093729265

conv_layer.conv_layers.1.parametrizations.weight.original f4 [32, 8, 7, 7]
000000 f4 64 14 bc 15 76 97 3a 44 bb f4 3c 54 b2 aa 3c
       -0.009057272 0.0011555577 0.029874451 0.020836987
000010 01 d7 c7 bc 8a ae 0b bc 8b c4 25 bd ee 7b d9 3c
       -0.024394514 -0.0085255 -0.04047064 0.026548352
000020 5c 34 b1 bc bd 57 9c bc 35 10 b0 bc a3 7b 81 bd
       -0.021631412 -0.019084806 -0.021492103 -0.0632241
000030 6b 07 1c 3d 86 07 8b 3a e7 df f4 bc b1 86 30 3d
       0.03809301 0.00106071 -0.029891921 0.0430972
000040 06 f0 17 bd e8 8a 9b 3d cd 10 1a 3d 22 b1 f0 bb
       -0.03709414 0.07594854 0.03761368 -0.0073453346
000050 da 76 17 bd dd c0 a8 3c 27 68 a9 3b 77 46 a3 bc
       -0.03697858 0.020599777 0.0051698866 -0.019931061
000060 1f 2a 0b 3d b7 57 3c 3d 44 00 dd bc d7 fa f4 bb
       0.033975717 0.04598209 -0.026977666 -0.0074761915
000070 1c fd 8d bc 11 5e 01 3c 36 24 e1 bb db 39 1f bd
       -0.017332606 0.007895962 -0.0068707718 -0.038873535
000080 02 09 58 3d 69 0f 89 bc 75 bf e5 3c 26 23 ea 3c
       0.052742966 -0.016730981 0.028045395 0.028581213
000090 b7 d5 27 bd d2 8a 32 3c 1c b9 94 3d b2 87 41 bd
       -0.0409753 0.010897355 0.07261869 -0.04724855
0000a0 9e bc 56 3c d0 48 7b bd 47 2c d6 3c 0d ee 90 bc
       0.013106493 -0.061348736 0.02614416 -0.017691636
0000b0 19 43 48 bd fd a8 c4 3c 48 e6 a0 bc ed b0 46 bb
       -0.048892114 0.024006361 -0.019641057 -0.0030317858
0000c0 9b a9 83 3b 00 e9 16 bd 52 18 7b 3d 6c 42 8f 3c
       0.0040180213 -0.0368433 0.06130249 0.017487727
0000d0 a7 60 03 bd 7c d1 93 3d 72 19 30 3c 51 7f 2f bd
       -0.032074597 0.0721769 0.010748254 -0.042846028
0000e0 36 60 27 bb 13 e0 63 bd 94 c5 45 bd b2 ce 05 3d
       -0.0025539524 -0.055633616 -0.04828413 0.032667823
0000f0 c5 86 fe 3c 82 d5 8a bd 7b 32 3c 3d f7 c0 aa 3c
       0.031070122 -0.06779005 0.04594658 0.020843966
000100 e2 7d 49 3d c2 bd 7e bd ca 2d 78 3c ab 82 06 3c
       0.049192317 -0.062192686 0.015147636 0.008209865
000110 42 a4 09 3d ed 13 71 bb cb 7d 09 bd de c8 17 3d
       0.033603914 -0.0036785558 -0.03356723 0.037056796
000120 a6 66 92 3d 11 6d 85 bd 00 81 98 3d 39 cf 5a bd
       0.07148485 -0.065149434 0.0744648 -0.05342028
000130 58 d2 53 bd f2 fb 33 bd c6 0f da 3c ea da de bc
       -0.05171427 -0.043941446 0.02661885 -0.027203996
000140 4f 57 bb 3b 74 78 e4 3d 7b b9 25 bd 67 70 58 3d
       0.005717195 0.11155787 -0.04046009 0.05284157
000150 1c 5c 58 3d 54 e1 6f bc ef a7 68 bd 55 a2 ae bc
       0.052822217 -0.014641125 -0.05680078 -0.02131764
000160 a9 cb 5a 3c b7 03 92 3b 15 f9 e3 bc c4 68 c7 3c
       0.01335422 0.0044560093 -0.027828733 0.024341948
000170 94 f6 c8 3b 95 23 db bc 10 7b 2d 3c 5e 39 7e bb
       0.00613291 -0.026750365 0.010588422 -0.0038791518
000180 3a ca 60 bc 46 b9 82 3c 7e b4 11 bd 33 ea 2b bc
       -0.01372009 0.015957486 -0.03557252 -0.010492849
000190 1d 7f 97 bc f1 72 2d 3d 80 e6 b9 bb 11 6d 33 3d
       -0.01849323 0.042345945 -0.0056732297 0.043805186
0001a0 4d 68 22 bd 1b 5a 20 3d e7 c2 0a bd 38 d5 ee 3c
       -0.03965025 0.03914843 -0.03387728 0.029154405
0001b0 ed 57 a2 3b 54 a1 66 3d a8 4e f8 bc e1 a5 3e 3c
       0.004954329 0.0563062 -0.030310944 0.011636228
0001c0 09 d7 dd bb e7 4c cd bc a3 39 61 3d db 99 46 bb
       -0.006770019 -0.025061084 0.054986607 -0.0030304107
0001d0 c7 82 7a bd 78 54 31 3d 26 1e 78 3c 1f 97 ec 3c
       -0.061159875 0.043293446 0.015143907 0.028880654
0001e0 ac e1 17 3c 6d c7 df 3c 62 75 61 3d f5 e7 7c bd
       0.009270113 0.027316773 0.055043586 -0.06174465
0001f0 42 fb 0b 3d 4d b0 74 bd 32 cc 6e bd e2 ae 1d bd
       0.034175165 -0.059738446 -0.058300205 -0.03849686
000200 ad fe b8 3b c5 19 82 3d 71 0e 09 bb a4 20 32 bb
       0.005645594 0.063525714 -0.0020913149 -0.00271801
000210 f8 98 8e 3c b7 ec 31 3d d3 d1 d6 3a c4 a3 2e 3c
       0.017406926 0.04343864 0.0016389437 0.010659162
000220 35 08 33 3b c8 eb 9b bc 5e 08 4e 3d b8 2c 61 bc
       0.0027318124 -0.019033328 0.05030095 -0.013743572
000230 9a f1 2c 3c 30 b4 43 bb c1 4d 35 3d 35 0c 9e bc
       0.010555649 -0.0029862039 0.044263605 -0.01929293
000240 4f 1a 51 3c 85 f0 ab bc ff 0c 89 3b be c7 4e bd
       0.01276262 -0.020988712 0.0041824575 -0.050483458
000250 72 e4 c2 3d af 00 17 bd 55 1e ec bc 09 2a bc bc
       0.09516229 -0.036865886 -0.028823057 -0.022969263
000260 d1 46 a7 3d c2 e3 d4 bb 4f 22 de 39 7d ed 13 bd
       0.08167804 -0.0064968774 0.00042368702 -0.03611516
000270 6d 36 ec bb 44 ca e4 3c e3 2b 06 3c cb c2 31 3c
       -0.0072086365 0.027928479 0.008189174 0.010849665
000280 2a d5 e3 3c 5b 57 a4 3d 38 e2 4f 3d ff e8 ce bc
       0.027811605 0.08024474 0.05075285 -0.025257586
000290 42 73 09 bd 35 9c 7a bd 1e 08 8a 3d 6d d1 a8 bc
       -0.033557184 -0.061184127 0.067398295 -0.020607674
0002a0 74 20 cd bc d7 f7 85 3d 11 34 6e 3d f6 c3 4a bd
       -0.025039889 0.06541412 0.058155123 -0.04950329
0002b0 bc 80 22 3d 58 85 0c 3d 9f fa 21 bd 97 8c 8d 3c
       0.039673552 0.034306854 -0.03954565 0.017278953
0002c0 cf 33 db bc 6c 22 b4 3d d5 85 ab bd 22 c8 20 bd
       -0.026758103 0.08795628 -0.08375136 -0.03925336
0002d0 1d 2b be 3c 04 47 ee bc 18 e3 47 3d 1a 91 d2 3c
       0.023213917 -0.029086597 0.048800558 0.025703955
0002e0 3d 2d 87 3c ba 07 65 3d b9 5a 39 bc c0 c2 5d bd
       0.016501063 0.05591557 -0.011313134 -0.054140806
0002f0 1d c4 a1 3c 20 8a 50 bd 5b 36 ab 3d c6 02 ad 3c
       0.019746834 -0.050912976 0.08359977 0.021119487
000300 3d bd e9 3c bc 11 ac bc 9f ce 02 3d f1 5b 5a bd
       0.028532619 -0.02100455 0.03193533 -0.05331034
000310 5d 60 5a bc af 71 19 3c 57 29 90 3b 81 81 5a bb
       -0.013328639 0.009365483 0.0043994593 -0.003334135
000320 11 fc ad bc 30 d5 4b 3d 30 5a 20 bd 57 83 68 bc
       -0.021238359 0.04976386 -0.03914851 -0.01419147
000330 70 48 7a bd d9 b2 81 3d 4e 8c 08 3d 41 4e 99 bd
       -0.061104238 0.063329406 0.03333693 -0.07485629
000340 43 a6 68 bc c0 cc d9 3c ef 0e 2b 3d 9f 42 c7 bd
       -0.014199796 0.02658689 0.04176229 -0.09729504
000350 2b 5e 68 3d 18 3f 07 3d 92 06 92 bc fb df 31 3d
       0.05673043 0.033019155 -0.017825399 0.043426495
000360 a4 ba cf 3c 00 09 06 3d 1b c3 03 bc bd 67 1c bd
       0.025357552 0.032723427 -0.008042122 -0.03818487
000370 2e 37 38 3d c2 d7 05 bd 38 cc 6a bd 17 d2 a2 3d
       0.0449745 -0.032676466 -0.057323664 0.07950228
000380 da 30 f1 bc c7 64 43 3d fc 57 07 bd 1e 83 88 bd
       -0.02944224 0.04770353 -0.033042893 -0.066656336
000390 a2 17 63 3d e3 c9 9c 3d 72 b8 54 bd 50 2e a2 3c
       0.05544246 0.07655694 -0.051933713 0.019797474
0003a0 5f 9d 29 bd f4 f4 94 bd 0b 63 34 bc a9 bb d2 3b
       -0.041409846 -0.072732836 -0.011009942 0.0064310622
0003b0 3a 3f 36 bc 8b 08 57 3c 95 20 5a bb 64 d0 c0 3d
       -0.011123473 0.013124595 -0.003328358 0.09414747
0003c0 0c 81 00 bd e6 49 30 bd b1 36 3c bd 29 a0 51 3d
       -0.03137307 -0.043039225 -0.045950595 0.05117813
0003d0 f5 08 d7 3b 61 73 84 3c 42 20 2b 3c 53 b5 d6 bc
       0.006562347 0.016168298 0.010444703 -0.026209509
0003e0 8e d1 6b 3d f1 f6 ce bc 7e 39 a6 3c 5a 91 4e 3d
       0.057572894 -0.025264235 0.020291086 0.050431587
0003f0 06 6a 08 3d 2b 69 24 bb 24 5e 4c 3d e2 9a a3 bb
       0.033304237 -0.00250871 0.049894467 -0.0049928287

activation.coefficients_vect f4 [672]
000000 00 00 00 80 83 7c 99 39 48 64 82 b8 17 0f fd b8
       -0.0 0.00029275203 -6.217562e-05 -0.00012066791
000010 79 2d e9 b9 e5 70 ff b9 48 71 04 ba 50 27 17 ba
       -0.00044475103 -0.00048721503 -0.00050522806 -0.0005766051
000020 47 05 62 ba 9d 80 64 ba b3 e5 1e bb f2 dd b3 3a
       -0.0008622002 -0.00087166746 -0.0024245798 0.0013722761
000030 be 1a 1c 3a 74 42 10 3a 62 0d 0e 3a 79 40 08 3a
       0.00059549126 0.00055030663 0.00054188643 0.00051975955
000040 d3 92 d4 39 81 d1 96 39 58 fc 6e 39 aa 88 b2 b9
       0.00040545184 0.00028766322 0.00022791454 -0.00034052628
000050 00 00 00 00 00 00 00 80 aa bb 17 38 b3 96 9a 36
       0.0 -0.0 3.617598e-05 4.6071013e-06
000060 e1 ba ca b7 29 13 f2 b8 44 a7 80 b9 0e 78 c4 b9
       -2.4167299e-05 -0.00011543028 -0.00024538685 -0.0003747348
000070 f5 68 06 ba d9 22 18 b8 c0 5b a3 ba 81 27 a1 3a
       -0.0005127334 -3.627208e-05 -0.0012463257 0.0012295098
000080 8e 82 d7 39 44 c3 bf 39 52 7b 02 b9 81 5e 9c 39
       0.00041105266 0.00036575843 -0.00012443707 0.0002982505
000090 c8 d1 99 39 9f c0 df 38 de 42 a5 b7 f5 4d 85 b8
       0.00029338733 0.00010669347 -1.970067e-05 -6.356455e-05
0000a0 0f 90 8d b8 00 00 00 00 00 00 00 80 a5 aa 22 39
       -6.750237e-05 0.0 -0.0 0.00015513094
0000b0 55 8c 00 b9 31 6d 93 b9 13 0e d8 b9 cc e3 e4 b9
       -0.00012259309 -0.0002811938 -0.00041209217 -0.0004365727
0000c0 7a b7 1c ba 34 c0 6b ba 27 1b 3f 3a a6 f0 b8 b9
       -0.0005978268 -0.0008993179 0.0007290118 -0.00035274512
0000d0 f3 da b0 ba 6e 92 bb 3a 17 d2 15 3a 9a 63 fe 39
       -0.0013492986 0.0014310607 0.0005715205 0.00048520864
0000e0 35 12 f7 39 dc 3f e4 39 83 b4 ba 39 bb fc 8b 39
       0.00047125077 0.00043535128 0.00035611176 0.00026700445
0000f0 e9 82 c4 38 8d c8 aa b9 00 00 00 00 00 00 00 80
       9.370392e-05 -0.0003257435 0.0 -0.0
000100 92 da 2f 39 a0 fa 59 b8 e3 3e 9c b9 aa 16 c0 b9
       0.00016770724 -5.1970244e-05 -0.00029801493 -0.0003663798
000110 a1 51 05 ba 37 bb 35 ba dc e9 7d ba c7 ba 9c b9
       -0.0005085711 -0.0006932499 -0.0009686032 -0.000298938
000120 96 ea f8 ba fb 2c f6 3a 21 f5 d8 39 2f 34 c1 39
       -0.001899081 0.0018781716 0.00041381366 0.00036850708
000130 b3 46 f3 b9 ef ef 31 3a 45 2f 2c 3a 62 7e 0b 3a
       -0.00046401247 0.0006787767 0.0006568323 0.00053212617
000140 a9 ae a7 39 13 5a d0 38 00 4d 91 b9 00 00 00 00
       0.00031982854 9.9349905e-05 -0.00027713925 0.0
000150 00 00 00 80 77 83 40 39 f1 4c 1e b9 00 35 72 b9
       -0.0 0.00018359521 -0.00015096717 -0.00023098662
000160 2f 2d 80 b9 24 51 85 b9 d9 f6 80 b9 2e b8 8e b7
       -0.00024447727 -0.0002542819 -0.00024597978 -1.7013484e-05
000170 cf f3 c5 b9 2b 69 9c ba c7 1b a1 3a 9b 5f 04 3a
       -0.0003775642 -0.0011933198 0.0012291603 0.0005049647
000180 ae 6e f3 39 d4 70 e8 39 4d 34 d9 39 d5 47 c6 39
       0.00046431035 0.00044334552 0.00041428432 0.00037819022
000190 d6 64 67 39 0e 63 68 39 b1 db 12 b5 71 69 46 b9
       0.00022067441 0.00022162145 -5.470893e-07 -0.00018922031
0001a0 00 00 00 00 00 00 00 80 b2 45 1a 39 1b 1b 83 38
       0.0 -0.0 0.00014712548 6.2516156e-05
0001b0 d8 66 f9 37 d1 bc 8a b6 41 e3 bc b8 ac e4 c6 b9
       2.9731003e-05 -4.1347016e-06 -9.006868e-05 -0.00037935877
0001c0 b4 78 ca b9 9f 5d e6 b9 16 7c fb b9 a6 12 b5 ba
       -0.00038618373 -0.00043938772 -0.00047966902 -0.0013814762
0001d0 38 b0 af 3a b5 d9 4b 36 06 a0 0f 3a a8 46 0d 3a
       0.0013403958 3.037608e-06 0.00054788624 0.0005389252
0001e0 7a 59 03 3a 92 eb d3 39 a1 0b b7 39 04 1c 45 39
       0.00050105865 0.0004042057 0.00034913144 0.0001879782
0001f0 d7 54 4b b9 00 00 00 00 00 00 00 80 1e de 4e 39
       -0.00019391194 0.0 -0.0 0.00019728436
000200 bb 0f 22 38 fe 40 fd 37 cc ce e4 37 c7 dc 5e b8
       3.863846e-05 3.0190215e-05 2.7276015e-05 -5.313454e-05
000210 27 a7 12 b9 69 99 c2 b9 d4 5d c1 b9 70 2d 88 ba
       -0.00013985914 -0.00037116863 -0.00036881736 -0.0010389518
000220 94 7b 11 bb 35 51 99 3a f2 9b 98 b8 91 5a dd 39
       -0.0022198902 0.0011697175 -7.276972e-05 0.00042219882
000230 5b 0c d0 39 ff f1 b5 39 5b 1a 92 39 e0 fc 4f 39
       0.00039682057 0.0003470331 0.00027866926 0.00019835262
000240 ea 0c 2f 39 94 b3 64 b8 00 00 00 00 00 00 00 80
       0.00016694111 -5.452668e-05 0.0 -0.0
000250 be 41 15 b9 8f 52 15 b9 d7 37 02 b9 5a ec f2 b8
       -0.00014234238 -0.00014240503 -0.00012418568 -0.00011583483
000260 68 d1 52 b9 2b 5e c2 b9 11 16 e5 b9 e3 82 ff b9
       -0.0002010517 -0.00037072724 -0.00043694724 -0.00048734908
000270 8f 82 9d ba 14 96 51 b8 f6 8f 96 3a bf 8c b9 39
       -0.0012017059 -4.9969254e-05 0.0011486995 0.00035390814
000280 6d c4 e4 b9 6e 1f 1a 3a fa 93 65 b9 03 5f b8 39
       -0.00043633897 0.0005879317 -0.00021894267 0.00035166004
000290 a2 f6 bc 39 fe bc 84 b8 eb de a7 39 00 00 00 00
       0.0003604191 -6.329453e-05 0.0003201881 0.0
0002a0 00 00 00 80 8f b1 9e 38 27 1b 34 b9 a0 37 38 b9
       -0.0 7.5671e-05 -0.00017176253 -0.0001756833
0002b0 2d 7a 4e b9 c5 f0 55 b9 7c f9 a6 b8 4d 81 cc b9
       -0.00019691205 -0.00020402957 -7.961967e-05 -0.0003900625
0002c0 17 13 de b9 b0 3d e0 b9 1a 68 a5 ba 0e de a6 3a
       -0.00042357363 -0.0004277057 -0.0012619526 0.0012730972
0002d0 a6 22 e5 39 19 ec c7 39 78 07 56 b9 d7 2f d9 39
       0.000437041 0.00038132144 -0.00020411413 0.0004142511
0002e0 9d 1b d0 39 18 06 bb 39 1d 82 96 39 8b 2a 1a b8
       0.00039693425 0.0003567196 0.0002870717 -3.6756082e-05
0002f0 00 00 00 00 00 00 00 80 02 8e 4a 39 7b a7 01 39
       0.0 -0.0 0.00019317123 0.0001236479
000300 24 92 41 b8 09 a7 9a b8 ec 18 2c b9 d2 a1 a1 b9
       -4.615089e-05 -7.374405e-05 -0.00016412482 -0.00030828879
000310 07 69 9d b9 0c 84 b9 b9 52 58 c9 ba 32 c2 df 3a
       -0.00030023625 -0.00035384332 -0.0015361405 0.0017071425
000320 12 de bf 39 b9 c0 2d 3a 44 56 eb 39 46 02 df 39
       0.00036595814 0.0006628144 0.00044886966 0.00042535568
000330 08 65 ab 39 a4 58 97 39 40 f9 27 39 94 3f 53 b8
       0.00032690936 0.00028867007 0.00016019214 -5.0365532e-05
000340 43 4b 0a b9 00 00 00 00 00 00 00 80 9c 80 8f b5
       -0.00013188743 0.0 -0.0 -1.069176e-06
000350 d3 ff 9d b9 fb fb a4 b9 6b ae 9e b9 1c e5 fd b9
       -0.00030135977 -0.00031468258 -0.0003026606 -0.0004842662
000360 2c 7a 8c 39 43 30 ca b9 95 86 8a ba 14 ee 85 ba
       0.00026793906 -0.000385644 -0.0010568673 -0.0010218048
000370 09 9c 64 3b 07 f2 8d 3a d2 e9 ed 39 77 3e cb 39
       0.0034883043 0.0010829576 0.00045378372 0.00038765717
000380 38 2b d3 b8 e2 41 b7 39 10 cd b8 39 86 28 a7 39
       -0.00010069314 0.00034953567 0.00035247998 0.00031882914
000390 37 a6 82 39 b4 c6 a6 b8 00 00 00 00 00 00 00 80
       0.00024919372 -7.952508e-05 0.0 -0.0
0003a0 2f 93 d2 37 a0 12 8b b9 dd a8 aa b9 bc 47 b9 b9
       2.5102489e-05 -0.00026526023 -0.0003255074 -0.00035339396
0003b0 dc 8c bf b9 d3 a1 bd b9 14 0e 35 39 d9 cd c1 b9
       -0.00036535307 -0.00036169458 0.0001726675 -0.00036965197
0003c0 d3 0f 8d ba 9e 7a 15 3b 7f 84 86 3a cf 85 e8 39
       -0.0010762162 0.0022808681 0.0010262876 0.00044350183
0003d0 54 3b c7 39 b6 8e 08 38 f4 79 63 39 52 2d 60 39
       0.0003800044 3.2557837e-05 0.00021693838 0.00021379188
0003e0 48 2f 66 39 23 0a 48 39 ed 75 7d b7 00 00 00 00
       0.00021952123 0.00019077263 -1.5107432e-05 0.0
0003f0 00 00 00 80 34 f1 6b b7 6c f6 9c b9 83 a1 a4 b9
       -0.0 -1.4063251e-05 -0.00029938237 -0.00031400853
