trained_models/IOD_Training/crr_nn_best_model_blur_(3, 3).pth (torch, 57892 bytes, 3 tensors)

conv_layer.conv_layers.0.parametrizations.weight.original f4 [8, 1, 7, 7]
00000000: bd6f e8bd 81ff bc3d 5659 ba3d 4739 a63d
00000010: 8a4b 76bd 4b34 b23d 707d cfbd 6126 8abd
00000020: b8a8 5d3c 8c9c c33d ba61 2b3c 9f27 ffbd
00000030: 8bed 673c b6db 2dbd 995b bdbd fd89 3bbd
00000040: 33b9 89bd ae6e 36bc 6c8d 063e 2210 23bb
00000050: 42a5 993d 27db 4e3d 1c4e 92bd 66ed 49bb
00000060: 0db3 8f3c b350 473d 0ee3 81bd 1395 cdbd
00000070: 4e70 d63c dc25 d03c 056e 573d 8ad0 15be
00000080: 9510 88bd 8a3c c33d 9b60 9abd 0163 e9bd
00000090: 1712 ae3d b4a6 f53d ed36 483d 2b8b bebd
000000a0: d8b6 78bc d5e4 033c 9d5e a3bd 5e20 fb3d
000000b0: 3e2b f33c a9a3 5e3d 945d 463d f951 9dbd
000000c0: c851 24bd d95f c73d 8796 a2bd 7b8e dbbd
000000d0: 08ac 813d 3c3e 1bbd f386 0c3e 4d29 54bd
000000e0: 866f 8bbd 5598 103c 7221 84bd a8b4 b1bd
000000f0: 8c4d 023e 1acf 733d 1444 803d a54c f8ba
00000100: 80aa 7b3d afa6 febc 6b0b bdbd 493e 91bd
00000110: 35be a6bd d9db 13bd 266e 553d 0f46 9d3b
00000120: 648b 8c3b f136 1b3e ab9a f43d c580 b23d
00000130: dc07 063e 2c67 ffbd 086b 00be 2249 3cbd
00000140: 26c1 7cbd dfa1 083d b450 e2bd 0824 ba3d
00000150: 8042 0cbe 0fd5 f2bd c6a0 863d f812 f9bd
00000160: 1b41 113d 8893 25bd 0a9f 593c fe33 7e3d
00000170: b42d 6a3d 2966 a83d b56a a7bc ec99 d4bd
00000180: ec9f d1bd 9a33 c2bd e241 bebd d806 e73d
00000190: ead7 c73d a032 4ebc fa56 9dbd 3810 163e
000001a0: 35bb dfbd 3c31 733c 0b16 c5bd 478d b3bd
000001b0: f616 33bb 5d45 0ebd 7dc3 ba3d ce15 4bbd
000001c0: 60fe ae3d 0b30 0b3d 8440 e03d 58b7 c4bb
000001d0: 9dbb 0bbd d9aa 563d dc30 7dbd 6c23 abbd
000001e0: 3147 10be 5fab 0e3e cbb5 823d 75c7 1b3e
000001f0: 9042 debd 7b5a c0bc ba77 933d 1b6a 543d
00000200: bb7b bfbc 331b 07be c7b6 65bd d737 bf3d
00000210: 01ad 173d 6748 a0bd b849 073e 8bfa 56bd
00000220: 620c 2b3d 2d7a 04be 7eb5 e4bd d058 ab3d
00000230: 9650 e5bd 5b6c 853d bbb2 dfbd b3f6 84bc
00000240: 3a98 073e 301a fa3d a982 e53d 42b2 64bd
00000250: fa87 cf3c e22a d7bd 175e f63d 36c2 483d
00000260: ac1b b8bd db35 b1bd e438 79bd 53ec ec3d
00000270: e4e3 09be 861a 3a3d 0bb5 c33d cd2b 973d
00000280: f2bf 70bd 372c 333d 6936 8fbd 8827 b5bd
00000290: f6f0 bcbd f22e 923c 60fc a7bd 6729 8b3d
000002a0: 814a 97bc e3c3 e93d 2d71 8abd f990 603d
000002b0: 7661 acbd 14e4 d53c 1261 aa3d b830 de3d
000002c0: 8020 c4bb d9c5 0cbd 0221 9cbd f2ab b33d
000002d0: 4a70 e3bd 4ace 95bd d664 f53d 2f29 4cbd
000002e0: bca7 4dbd cc88 043e 4164 823d de13 bb3d
000002f0: 110a 953c 14a9 04be 7436 0d3d ded9 f6bc
00000300: 22c2 873d 0355 353d 2bff a53d e98d ccbd
00000310: 2f0e 423d 7b77 d6bc d288 a4bd c1d3 05be
00000320: 3d46 d03d 30c5 5b3d 15cf adbd 5e77 f53d
00000330: 4bcd 123d 1f73 d3bd fd5c 0f3b 0f70 fc3d
00000340: f8fc a33d 3f64 073d 4f9f debd f862 013e
00000350: 21ed be3d b4f4 03be 48d0 943d 7d61 ba3d
00000360: d21f fa3d 5b4b bb3d 8dc3 033d 86ff f1bd
00000370: 9b99 c53d 7ba9 fbbd f4a5 633c 9c0f 753d
00000380: 5084 97bd 1052 483d 7eeb 2dbd f3a4 d73d
00000390: 46a5 b5bb 7121 413d 9617 113d 161e dabb
000003a0: 660a b0bd 919c ec3d 07da 7bbd 1fa5 52bd
000003b0: 92df 05be a45d aebd d7e7 493c 88c1 f33d
000003c0: b261 f8bd 1a4d 8dbd 9131 9c3d f0f2 723d
000003d0: 27d8 febc 43ea 203d 0eb9 0f3e 0dd1 0ebe
000003e0: f913 89bd bcce 0b3d 6080 a4ba 3f9a ddbd
000003f0: 3134 753d 701e a1bd f7da 813c 612a 043e
-0.113494374 0.09228421 0.09099071 0.081163935 -0.060130633 0.0870138 -0.10131347 -0.067456014
0.013528995 0.09551343 0.010460312 -0.12458729 0.014155756 -0.04244586 -0.092459865 -0.045785893
-0.06724777 -0.0111347865 0.13139886 -0.0024881442 0.075022236 0.05050197 -0.071438044 -0.0030811667
0.017541433 0.048660945 -0.06342135 -0.10038199 0.026176598 0.025408678 0.052595157 -0.14630333
-0.06643788 0.09533031 -0.07537957 -0.113958366 0.08499544 0.11994687 0.048880506 -0.09303888
-0.015180312 0.008050163 -0.079770304 0.12262033 0.029683705 0.054355297 0.048429087 -0.07681651
-0.040117055 0.09735078 -0.07938867 -0.10720535 0.063316405 -0.03790115 0.13723354 -0.0517972
-0.06808381 0.008825381 -0.06451692 -0.086770356 0.12724894 0.05952368 0.06262985 -0.001894374
0.0614419 -0.03108534 -0.092306934 -0.07091958 -0.08141748 -0.036098335 0.052107 0.0047996114
0.0042890776 0.15157677 0.11943563 0.08715967 0.13088936 -0.1247085 -0.12540829 -0.045968182
-0.06170764 0.033357497 -0.11050549 0.09088904 -0.13697243 -0.11857044 0.06573634 -0.12161821
0.03546248 -0.0404239 0.013282547 0.062061302 0.057172492 0.082226105 -0.020436624 -0.10380921
-0.10235581 -0.094824985 -0.0928991 0.11280602 0.09757979 -0.012585312 -0.07682605 0.14654624
-0.10924379 0.014843281 -0.09623345 -0.08767181 -0.0027326918 -0.03473412 0.09119318 -0.04958134
0.08544612 0.033981364 0.109498054 -0.0060033016 -0.03411447 0.052409027 -0.061814174 -0.083563656
-0.14089657 0.1393256 0.063823305 0.15212806 -0.108525395 -0.023480644 0.072005704 0.051859003
-0.023374429 -0.1319397 -0.056082513 0.093368225 0.037030224 -0.0782631 0.13211715 -0.05248503
0.041759856 -0.12937231 -0.111674294 0.08366549 -0.11197011 0.06514808 -0.10922762 -0.016230917
0.13241664 0.12212026 0.11206562 -0.055834062 0.025333393 -0.10506226 0.12029665 0.04901334
-0.08989653 -0.0865285 -0.06084527 0.11568513 -0.1346584 0.04543545 0.095560156 0.07381401
-0.058776803 0.04374334 -0.069928 -0.088454306 -0.09225647 0.01784465 -0.082024336 0.06795006
-0.018468143 0.114143156 -0.06759868 0.054825757 -0.08417027 0.026109733 0.08319296 0.10849136
-0.0059853196 -0.03436837 -0.07623483 0.0877303 -0.11105402 -0.07314737 0.119821236 -0.049843963
-0.050208792 0.12942809 0.06366778 0.09134649 0.018193277 -0.12955123 0.03447576 -0.030133184
0.06628825 0.044270527 0.0810531 -0.09988005 0.047376808 -0.02618002 -0.08033909 -0.13069059
0.10169647 0.05365485 -0.084867634 0.11985658 0.035840314 -0.10324692 0.0021875494 0.12326061
0.08007234 0.033054586 -0.108702295 0.1263541 0.093225725 -0.12886316 0.07266289 0.09100626
0.122131005 0.09145232 0.032168914 -0.11816315 0.096484385 -0.12288185 0.013894547 0.05982934
-0.073982835 0.048906386 -0.04246091 0.105295084 -0.005543384 0.047151033 0.035422884 -0.0066564186
-0.08595733 0.115533 -0.061487224 -0.051427003 -0.13073567 -0.08513954 0.012323341 0.119021475
-0.12128009 -0.068994716 0.076266415 0.059313715 -0.031108929 0.03928591 0.14035437 -0.13946934
-0.066932626 0.034132704 -0.0012550466 -0.10820436 0.059864227 -0.078671336 0.01585148 0.12906791

conv_layer.conv_layers.1.parametrizations.weight.original f4 [32, 8, 7, 7]
00000000: cf1e b53c 61ef 6cbb 07a1 9fba 7a0e 02bd
00000010: 5131 a23c 809e 333c c1a6 383d 9764 27bd
00000020: 1040 c6bb 3996 33bc 5fe2 3dbd cfb3 e23c
00000030: 3d3f d63b fb9c 0c3d e88f 7bbc e49e 29bd
00000040: 8d32 4fbc 2e7b 273d 43bf 2dbc d854 e6bc
00000050: 69ae 033c 0cba 61bc 2783 483d b160 983c
00000060: 6006 0cbc 49cc a6bc e16d 953c 7040 cebc
00000070: 7c5c 6fbc d478 eebc c26f 1f3d 862c 443c
00000080: 2d01 30bb 7dfa 2bbd 9d1d 533d 7666 5fbd
00000090: a5bc ab3c 231f f03c 1905 b8bb eaee 9fbc
000000a0: bf46 1cbd c790 953c 3acd 0d3d 7853 06bc
000000b0: 8606 073d 0e3f 14bd 5781 4f3d 914e f03c
000000c0: 7acd fcbc 965e 3a39 d318 bbbc 83be b03c
000000d0: f69d d93c af28 d63c 8c63 e839 934c 1bbc
000000e0: 6ea7 00bc a825 9bbc d54f ecbb 893d bfbc
000000f0: 826c fcbc 6894 373d d19e 203d 0f12 e63c
00000100: 8056 1ebd aaa3 593d 2326 703c bcf5 96ba
00000110: 9e1d 443c 5659 503d 1c22 7e3d 9951 7b3c
00000120: 30c6 833c bdcb 0abd 98c7 f4bc 8cae 2a3c
00000130: a620 95bc ca85 233b dc55 43bd 09ab 9f3b
00000140: 4763 e03c 23c3 9dbc 6639 3ebd 393e 20bd
00000150: a21d 513d 3471 253c f55f 29bc a59d f5bb
00000160: 26c7 383d 9fd0 20bc 72f7 16bd c85d 17bd
00000170: 99f5 00bd b778 e4bb 7129 333d e4dd 943c
00000180: ace8 37ba 9f2d 5a3c 4237 72bc 084b 9dbc
00000190: 0d88 fa3c b3d4 333d 1129 d13c 57d2 263d
000001a0: 71c1 d2bc 530c d5bc 436a 36bb 6cb3 07bc
000001b0: a87b b43c e4ce c03b 80aa 1d3d c9c9 e93c
000001c0: c51b 17bd daee 79bc b370 ae3c 2b57 a0bb
000001d0: a17b 86bc 50d4 143d f0d7 e73b 6889 aabc
000001e0: 4918 0c3b f695 623c a30e 4cbd 321f cabc
000001f0: ec65 4bbd 78af 8e3c faa0 06bd 45e2 83bc
00000200: 6cc7 0f3d 14f9 01bc 88a8 0439 05e0 b0bc
00000210: 53fc 74bd 4748 42ba 858f b9bc 989a 47bd
00000220: ccf7 fe3c 4ae9 13bd 4bac de3b 1a82 e0bb
00000230: 1219 6e3c 445d ecbc 3c48 22bd 1ea4 f03c
00000240: 3812 d03c 3b6c f63c 62cd bbbc 648b 42bd
00000250: f724 873b c66c 96bc 112b f8bc ccf6 11bd
00000260: c59b 403d 6da3 ed3c 4cfc 6e3c 7724 033d
00000270: 8248 1c3d 3fef b3bc 54ec 27bd f998 f0bb
00000280: 7e3e e1bc c996 33bd 5d9a d3bc 8ba1 70bb
00000290: ed9f a33c 2fe7 18bd cae4 3bbd 5cdb 09bd
000002a0: d489 ebbc c51d acbc 9497 21bc 550c 573b
000002b0: 88cc a9bc dbb9 83bc f206 4a3c 1668 92bc
000002c0: 8b13 afbc 33aa f7bc 0064 083c 3fea 3dbd
000002d0: 1d48 76bc df28 423b 2d37 a5bc e8ff e13c
000002e0: ec9f a4bc e59c 513d 9621 cfbc 9c54 37bc
000002f0: 140a 0abc cbee 293d 9f03 febc 6526 31bd
00000300: 36ea 79b9 20c5 00bd f9b4 76bc 7fa0 b73c
00000310: 8598 0cbd 173e abba 9b6e a33c 8db1 abbb
00000320: c68e 033d 429c 0d3d 8ca8 15bb bdbe ecbb
00000330: 99d2 70bb fb72 38bc 5489 15bd c2dc a0bb
00000340: c83a fc3c 5140 28bd d721 253c d39d c6bc
00000350: c772 cbbc 313c ac3c 72f0 e13c 3153 25bd
00000360: 7330 dabc bbfd 00bd d55f 19bd db8b 51bc
00000370: 5251 14bd 324b 973b e138 8bbc 32b4 083d
00000380: 83ed 6e3c 0db2 13bc d0bd 1ebd 1335 e2bc
00000390: 8f6f a9bc 1fe5 2a3d 382f d13b 91d8 9f3c
000003a0: abc8 8a3c 9bf1 91bc 4742 2c3d 1ab5 393d
000003b0: db90 90bc cb54 f8bc c02f ecbc de5b a6bc
000003c0: 8f1d 1ebd cede 5bbc 2c52 deba cc3b fabc
000003d0: 8997 ac3c e224 84bc ef1f 7d3c c31d 203d
000003e0: 4521 bb3c d187 f7bc ada5 68bd 06bc 3cbc
000003f0: 9761 32bd 07b2 533d 10c2 c53c 34e5 583d
0.022109417 -0.0036153423 -0.0012178727 -0.031752087 0.019798907 0.010963082 0.045080904 -0.040867414
-0.0060501173 -0.010961109 -0.046358462 0.02767363 0.0065383003 0.034329396 -0.015354134 -0.041411296
-0.01264633 0.040888958 -0.010604682 -0.028116629 0.008037188 -0.013777267 0.0489532 0.018600794
-0.008546442 -0.020361083 0.01824087 -0.02517721 -0.014609452 -0.02911035 0.03892494 0.011973506
-0.002685617 -0.04198693 0.051541913 -0.054541074 0.020963976 0.029311722 -0.005615842 -0.019523103
-0.038153406 0.018257512 0.034619547 -0.008198611 0.032965206 -0.036192946 0.050660457 0.029334338
-0.030859698 0.00017773578 -0.022838986 0.021575218 0.02656458 0.026142446 0.00044324656 -0.009478706
-0.007852418 -0.018938854 -0.007211665 -0.023344772 -0.03081346 0.044819266 0.03921396 0.028084783
-0.03865671 0.053134598 0.01465753 -0.0011517326 0.011969952 0.050866447 0.062044248 0.015339279
0.016085714 -0.033885706 -0.02988033 0.010417592 -0.018204045 0.002495157 -0.047689304 0.004872684
0.02739109 -0.019258088 -0.04644146 -0.03912184 0.05105365 0.0100977905 -0.010337819 -0.0074955993
0.045111798 -0.009815364 -0.036857076 -0.03695467 -0.03148422 -0.006972398 0.043740693 0.018172212
-0.0007015567 0.013316541 -0.014783682 -0.019200817 0.030582452 0.043904018 0.025532277 0.04072794
-0.025727006 -0.026006853 -0.0027834333 -0.008282524 0.02203162 0.0058840383 0.03849268 0.028538601
-0.036891717 -0.015254701 0.021293974 -0.0048932037 -0.016416373 0.03633529 0.0070753023 -0.020817474
0.002137678 0.013829699 -0.049818646 -0.024673078 -0.049657747 0.017417654 -0.032868363 -0.016099105
0.035102293 -0.00793292 0.00012651284 -0.021591196 -0.059810948 -0.0007411283 -0.022651443 -0.048731416
0.031124018 -0.036111154 0.0067954413 -0.006851447 0.014532344 -0.028853066 -0.03961967 0.029375132
0.025399312 0.030080905 -0.022925083 -0.047496215 0.0041242796 -0.018362414 -0.030293973 -0.035635754
0.047023553 0.029008592 0.014586519 0.032017197 0.038155086 -0.021964667 -0.040996864 -0.0073424545
-0.027495619 -0.04384497 -0.025830442 -0.003671738 0.01997372 -0.03732985 -0.045872487 -0.033656463
-0.028752245 -0.021010289 -0.009862799 0.0032813747 -0.02072741 -0.016079834 0.012330757 -0.017871898
-0.021371624 -0.030232524 0.008324623 -0.046365973 -0.015031842 0.0029626412 -0.020167911 0.027587846
-0.020095788 0.051175017 -0.02528457 -0.011189606 -0.008425254 0.041487496 -0.031007586 -0.043249507
-0.00023833741 -0.031437993 -0.015057796 0.022415398 -0.03432514 -0.0013064769 0.019950202 -0.0052396716
0.03211858 0.034572847 -0.0022836057 -0.007224886 -0.003674662 -0.011257882 -0.03650792 -0.004909129
0.030789748 -0.041076962 0.010078869 -0.024245178 -0.024835004 0.021024795 0.027580474 -0.04036254
-0.02663443 -0.031491976 -0.03744491 -0.012789692 -0.036210366 0.0046171183 -0.016994895 0.033374973
0.014582994 -0.009014619 -0.038755238 -0.027613198 -0.020683078 0.041722413 0.0063838027 0.019512447
0.01694139 -0.017815402 0.042055395 0.045338728 -0.017647197 -0.03031387 -0.028831363 -0.020307478
-0.038602408 -0.01341982 -0.0016961745 -0.030546091 0.021068351 -0.016130868 0.015449508 0.039090883
0.022843013 -0.03021613 -0.056798626 -0.011519438 -0.0435501 0.051683452 0.024140388 0.05295296

activation.coefficients_vect f4 [672]
00000000: 0000 0080 bfaf 6ab9 e552 41b9 da18 19b9
00000010: 5212 d8b8 b2a8 05b9 1f37 0ab9 d81a 6e38
00000020: 1f9c d6b7 b22b 67b7 8bbf 6239 6849 af37
00000030: d158 1537 c8fd de36 aa4d 9f38 194a c0b8
00000040: 2968 b6b7 0a37 7138 44a5 f1b8 fca5 9ab9
00000050: 0000 0000 0000 0080 56e9 fe39 1ab5 ac39
00000060: f91f 2c39 4ab9 4e39 1536 e437 5d3a 4939
00000070: 385b 06b9 8bd0 3c38 9a52 69b9 9d4c 4039
00000080: ae8f a9b9 da96 b4b8 7594 70b7 ff9f a439
00000090: 1790 e638 1bd9 a7b8 5618 2539 d4bd 5bb8
000000a0: 9ca5 9ab9 0000 0000 0000 0080 1a89 9b39
000000b0: 511d ad39 130b ec39 5795 b839 c2cc be38
000000c0: 1c54 4b39 3815 cb38 eece 1639 125e 9bb7
000000d0: 4f06 c4b7 e8bf 65b8 e659 99b9 e1a9 37b8
000000e0: ffb5 7db9 bf91 91b9 e7f5 50b9 d428 07b9
000000f0: 7e13 4239 f32d 2339 0000 0000 0000 0080
00000100: 14a6 9a39 f0c9 c139 5502 8739 3349 a3b8
00000110: 791a e838 4533 dd38 e58e d4b8 39e6 b1b6
00000120: 6e8f d8b8 9512 d638 1176 cd37 90c6 0ab9
00000130: c116 26b5 ddde 82b8 b624 9fb9 e0bf bbb8
00000140: 31ac 70b9 7c75 e4b9 1f69 21b9 0000 0000
00000150: 0000 0080 0aa6 9a39 4fa5 9a39 b8e9 76b8
00000160: 6989 cdb8 f545 14b9 4e1b 3f38 f351 e838
00000170: 020b e238 5887 6837 e60a ecb7 d7dd cd37
00000180: 5c7b 82b8 158a 01b7 2b4f be38 a6af 8ab8
00000190: 712b 6b39 5124 14b8 9a08 5138 0fa6 9ab9
000001a0: 0000 0000 0000 0080 23e8 0cb9 bed3 1ab9
000001b0: 2e78 ac38 8cfd a238 0bb4 feb8 8ddb 6038
000001c0: 9a03 6f38 de49 0739 7264 03b8 7c90 6839
000001d0: baaf 65b8 28c8 bbb8 1351 3eb7 63a8 a4b8
000001e0: 93fc 94b8 2d55 f237 a5b5 34b7 c0f9 52b8
000001f0: 4cf8 8239 0000 0000 0000 0080 15a6 9a39
00000200: c639 5039 82bc 9438 ca20 c5b8 eaf9 6336
00000210: 2c72 4bb8 47e6 26b9 ea57 0ab9 036b 93b9
00000220: 1a87 2cb9 1dab 9439 02c8 8438 7d2e 4338
00000230: bc3c eeb6 c64e fb37 dddd 2739 4eb5 0f39
00000240: 98c1 79b9 14a6 9ab9 0000 0000 0000 0080
00000250: 11a6 9a39 e5a5 9a39 a4a5 9a39 f0bf 53b9
00000260: 996c 9b38 98ad da36 9e29 2ab8 3274 9f36
00000270: afd5 73b8 70ae 9bb8 bebe c438 c958 3138
00000280: 8545 8a38 a64a 26b8 46e4 d738 4c6e 22b9
00000290: a08d 4eb9 06a6 9ab9 14a6 9ab9 0000 0000
000002a0: 0000 0080 04a6 9a39 f6a5 9a39 30fe 1138
000002b0: 83e3 8439 6664 9738 e7d2 1d38 df9a 5a39
000002c0: f98e 1639 f45c 0239 17aa 7cb8 963b 24b9
000002d0: 6935 30b9 9bf1 43b9 4aaa 80b9 313d b2b9
000002e0: 1e9a beb9 1562 d6b9 4a1c d8b9 466e dcb9
000002f0: 0000 0000 0000 0080 14a6 9a39 f8a5 9a39
00000300: 9823 4f39 6891 0139 21cb 94b8 14c1 77b7
00000310: 0591 0db9 2ba5 fbb7 5393 4e36 932f 02b8
00000320: 0be2 abb8 64d6 f4b7 08e4 15b7 31ab 7338
00000330: e916 0b39 3631 aa37 eea6 6c39 fd01 4038
00000340: 08a6 9ab9 0000 0000 0000 0080 c3bf d139
00000350: f74a bb39 2621 b239 e470 6b36 d17e 6c38
00000360: 0988 0638 2d30 1f39 b653 1939 91a7 fdb6
00000370: 249b 93b7 e296 d6b7 e9c3 93b7 80c1 a4b8
00000380: 6b39 84b7 eab6 aab8 4ede 94b9 1a30 feb9
00000390: 7225 b9b9 f7a5 9ab9 0000 0000 0000 0080
000003a0: b967 cd39 5155 9d39 332f c539 75df 0a39
000003b0: f32c 2339 d224 8f39 15ab 7b39 0475 9038
000003c0: fa72 3539 4ece 0739 7337 f3b8 0aff 6bb9
000003d0: 0bec e2b8 4aea bbb8 bd31 f6b8 5335 33b9
000003e0: 5f9c a5b9 8fd7 d8b9 f2a5 9ab9 0000 0000
000003f0: 0000 0080 a69d 9cb9 3a61 88b9 00a6 9ab9
-0.0 -0.0002238145 -0.00018436795 -0.00014600475 -0.00010303095 -0.00012746712 -0.0001318124 5.6768622e-05
-2.5583488e-05 -1.3778847e-05 0.00021624395 2.0895808e-05 8.901771e-06 6.6456596e-06 7.596177e-05 -9.169075e-05
-2.1744594e-05 5.7510137e-05 -0.000115225586 -0.00029496837 0.0 -0.0 0.00048620504 0.00032941328
0.00016415109 0.00019714716 2.7204902e-05 0.00019190596 -0.00012813217 4.5016914e-05 -0.00022251383 0.00018339088
-0.00032341242 -8.611167e-05 -1.433968e-05 0.00031399724 0.000109940935 -8.0036196e-05 0.00015744692 -5.239046e-05
-0.00029496558 0.0 -0.0 0.00029666052 0.00033018974 0.0004502168 0.00035206482 9.098045e-05
0.00019390922 9.6837466e-05 0.00014382202 -1.8521245e-05 -2.3367958e-05 -5.477658e-05 -0.00029249414 -4.3788812e-05
-0.00024195759 -0.00027765144 -0.00019928032 -0.00012889813 0.00018508543 0.00015562009 0.0 -0.0
0.00029496907 0.00036962284 0.00025750944 -7.78608e-05 0.00011067553 0.00010547651 -0.00010135564 -5.3018125e-06
-0.000103263985 0.00010207776 2.4492883e-05 -0.00013234676 -6.187293e-07 -6.2403946e-05 -0.00030354195 -8.952594e-05
-0.0002295233 -0.00043575082 -0.00015393317 0.0 -0.0 0.00029496878 0.00029496333 -5.8868638e-05
-9.8007564e-05 -0.00014140441 4.5563378e-05 0.00011077886 0.0001077857 1.385979e-05 -2.8138467e-05 2.4541207e-05
-6.2218605e-05 -7.721149e-06 9.074652e-05 -6.61307e-05 0.0002242753 -3.5319772e-05 4.9837494e-05 -0.00029496892
0.0 -0.0 -0.00013437918 -0.00014765465 8.223984e-05 7.771989e-05 -0.000121451994 5.3610234e-05
5.6985395e-05 0.00012902121 -3.132638e-05 0.00022179069 -5.4761513e-05 -8.954137e-05 -1.1343759e-05 -7.851494e-05
-7.1042356e-05 2.8888311e-05 -1.07711285e-05 -5.03005e-05 0.00024980528 0.0 -0.0 0.0002949691
0.00019857948 7.092302e-05 -9.3997995e-05 3.3971105e-06 -4.8505302e-05 -0.00015916779 -0.00013193456 -0.00028117755
-0.00016453527 0.0002835625 6.331505e-05 4.653492e-05 -7.100023e-06 2.9958213e-05 0.00016009012 0.00013705084
-0.0002381861 -0.00029496907 0.0 -0.0 0.00029496898 0.0002949677 0.0002949658 -0.0002019403
7.411204e-05 6.5171153e-06 -4.0569917e-05 4.752096e-06 -5.8134723e-05 -7.4234675e-05 9.381537e-05 4.2282776e-05
6.593302e-05 -3.9647006e-05 0.00010294518 -0.00015490613 -0.0001969845 -0.00029496866 -0.00029496907 0.0
-0.0 0.0002949686 0.0002949682 3.4807425e-05 0.0002534651 7.218942e-05 3.7628135e-05 0.00020847794
0.00014358376 0.00012432394 -6.023989e-05 -0.00015662456 -0.00016804565 -0.00018686654 -0.00024540938 -0.00033996397
-0.0003635445 -0.00040890338 -0.00041219807 -0.0004204383 0.0 -0.0 0.00029496907 0.00029496825
0.00019754318 0.00012356567 -7.095026e-05 -1.4767302e-05 -0.00013500832 -2.9998444e-05 3.0782146e-06 -3.1038722e-05
-8.196019e-05 -2.91869e-05 -8.934185e-06 5.809515e-05 0.00013264608 2.0288495e-05 0.000225689 4.577822e-05
-0.00029496872 0.0 -0.0 0.0004000646 0.00035723273 0.00033975503 3.508344e-06 5.638489e-05
3.2074782e-05 0.00015181369 0.00014622402 -7.559495e-06 -1.7596009e-05 -2.5581048e-05 -1.7614993e-05 -7.8561716e-05
-1.5762364e-05 -8.140302e-05 -0.0002839439 -0.00048482494 -0.0003531385 -0.00029496822 0.0 -0.0
0.00039177926 0.0003000894 0.00037609934 0.0001324395 0.00015561636 0.0002730252 0.00024000958 6.888251e-05
0.00017304337 0.00012951458 -0.00011597471 -0.00022506356 -0.00010820486 -8.9604946e-05 -0.000117394586 -0.00017090635
-0.00031587758 -0.00041359334 -0.00029496808 0.0 -0.0 -0.00029872096 -0.0002601238 -0.0002949685
