trained_models/IOD_Training/crr_nn_best_model_noise_15.pth (torch, 57798 bytes, 3 tensors)

conv_layer.conv_layers.0.parametrizations.weight.original f4 [8, 1, 7, 7]
00000000: 10ed fc3d 1034 f33c 2dfc cfbd 7ca1 debd
00000010: 8c9e 1abe 32e9 2c3d 5ec5 053c 4880 11be
00000020: 3987 323e 907e 19be 3609 483d f216 a53d
00000030: dd43 48bb 37c4 e6bd ebb4 173e eb2c 693d
00000040: 745f 483d d469 81bd 1015 fe3c 15d9 14be
00000050: 24b3 843d 7e8f 993c c0f0 ad3d af55 863c
00000060: 6cc1 0ebe 2a18 af3d 3559 e8bc ac67 ac3d
00000070: 656b f4bd 444c 223d 0c46 143e 1533 b0bd
00000080: 1eea b43c 7c0e 8bbd e2df 13be 81df 9c3c
00000090: 6f2f e7bd 5ea5 8dbd 0b9a 0ebe 2dfd b73d
000000a0: 4cb0 143e 7234 093b 1719 293d 4785 a6bb
000000b0: 578b 2c3c 75b7 453d 60eb febd 05a1 e7bd
000000c0: b52d e93d 004b 093e 8b9d 02be 4c56 08be
000000d0: c302 be3d 4f0f f8bd 21bf fe3d 8155 fabc
000000e0: e6e3 7bbd 3b93 353d 9bd6 e43d cd62 69bc
000000f0: fc22 a03d f22b 06be 7996 013e 06b3 db3d
00000100: 99fb 863d c3b6 cfbb 6140 a6bd 2534 91bd
00000110: f3bf f63d 4d3c e0bd 9789 e23d f050 0ebe
00000120: 7c83 54bd 401d 033b 6282 c5bc 271a dc3d
00000130: 2ca3 4f3d 193a 2d3d 9535 c43d 3b58 ce3d
00000140: 5c89 24be 2834 953d 4416 bcbd 949a c43d
00000150: 8642 073c 566b fb3d b318 593d c853 073e
00000160: 2b52 c93d 1291 22bd d1da 5cbc 36cb c13d
00000170: 1bbe 13be 607c fabd d382 bf3c 9f09 623d
00000180: ddaa 8f3d aaa8 f0ba 0cba 05be ba5f 0e3e
00000190: 241f c0bd 6c03 243c 2133 17be 25e6 123d
000001a0: 4730 ca3d f973 673c f0bc cc3d 06fe 17be
000001b0: f2b9 363c 148f 143e fc41 26bc 9230 0c3c
000001c0: d1f9 a7bd ffee c7bd af87 9b3d 1c1c d93a
000001d0: 7ec6 1a3d e8c5 7ebd 779d d9bd d221 843d
000001e0: 599e d9bd 4da6 083d f37b 9ebd 00b4 063d
000001f0: 4196 1bbe 6405 873d 7dda bdbd d505 1e3e
00000200: 6b4d 08be 0aef 82bd 3a2c e4bc f332 243e
00000210: eda9 acbd 9892 b6ba 2bfd f73d af6d 093e
00000220: be75 baba a9e2 10be 4638 f3bd 8fb9 b7bd
00000230: dea9 0c3d b71a afbd a19b e0bd 18df fc3a
00000240: fc73 de3c 159a 593c 4544 253d fa57 e4bd
00000250: 9303 683c c341 a7bd 40dd a13d b0c1 0dbe
00000260: ca45 fdbd 93dd 9a3d f3f3 debc 7005 adbc
00000270: 0dfa 1dbe 4e86 53bb cc99 243e 0304 c23d
00000280: 3deb e43d 6c5e 0a3e 3b59 8a3d c45d 323d
00000290: db4f 7dbd 3766 f4bd 4f76 2e3d 9a94 503d
000002a0: b844 16bd be49 073e 6e5b ee3d 8b5d e53b
000002b0: f991 243e b8b8 dc3d 4964 b0bd 229c 10bd
000002c0: 0302 a93b e93c 1b3d 39b6 203e 5f29 1ebe
000002d0: af2e a03d 7476 9dbd 9b33 d53d 0374 333d
000002e0: b56f ed3d 5e16 cfbd ff9f e0bd 4b8d 06bd
000002f0: ca5a 613d fdd9 05be 9701 073c b461 eebc
00000300: e5dd bbbd 0e72 96bd 16f0 a13d b2c7 d2bd
00000310: 0ab8 26bd 4eb3 01be aac8 99bd 1c3a d43d
00000320: 2447 a13d bedc 20be 0426 a3bc 0984 da3d
00000330: 246e 3f3d 232b 893d 87e4 09be 406a dcbd
00000340: b558 853d 5588 323c a2b6 86bd d4e7 bc3d
00000350: 834b 0d3e 8f55 57bd 98a1 94bd f675 053e
00000360: cb2a 0f3d 19f9 da3d 44e6 7ebd 7fd3 69bd
00000370: e856 00bd 049d d3bd e4f8 82bc 7a07 733d
00000380: 71f2 a2bd 645b fc3d 49e8 69bd 57ed 1f3e
00000390: dac5 b4bd c52e 9e3d df77 8ebb 9e7e b8bd
000003a0: 1960 debd 761d 6bbd a124 92bd 7351 7ebd
000003b0: 5256 d6bd 1dcd 2cbd b687 653c e269 99bc
000003c0: 02a3 13be f213 093e 65ac b3bd 10d3 0f3d
000003d0: fa09 12bd 058c d73d fbc5 07be 318c 11bd
000003e0: 854d d8bd 28b2 813b 9f62 8c3d c2c8 06bd
000003f0: e8c9 b13c d51e 0e3e 6849 febd d717 d63c
0.123499036 0.029687911 -0.101555206 -0.108706445 -0.15099543 0.04221458 0.008164732 -0.14209092
0.17434396 -0.14989686 0.04883691 0.08061017 -0.0030558028 -0.11267894 0.14815108 0.056927603
0.048919156 -0.06319013 0.031015903 -0.14535935 0.06479481 0.01874518 0.08493185 0.016398279
-0.13940972 0.08549531 -0.02836285 0.08418211 -0.119345464 0.039623514 0.14479846 -0.08603493
0.022084292 -0.06789872 -0.14440873 0.019149544 -0.11288344 -0.06916307 -0.1392595 0.08983836
0.14520377 0.00209358 0.041283693 -0.005081806 0.010531268 0.04827066 -0.12447238 -0.11310009
0.11385671 0.13407516 -0.1275541 -0.1331417 0.092778705 -0.12112295 0.12438799 -0.03055835
-0.061496638 0.044329863 0.11173745 -0.014244747 0.07819173 -0.13102701 0.12655057 0.107275054
0.06590957 -0.0063389256 -0.08117748 -0.07090024 0.1204833 -0.109490015 0.110613994 -0.13898063
-0.051883206 0.0020006448 -0.024110023 0.10747176 0.050692722 0.042291734 0.095805325 0.100754224
-0.16068023 0.07285339 -0.09183934 0.09599796 0.0082556065 0.12276332 0.05300207 0.13215554
0.098301254 -0.03968913 -0.013479904 0.094625875 -0.14427988 -0.12230754 0.023377812 0.055184957
0.070150115 -0.0018360813 -0.13059253 0.13903704 -0.093809396 0.010010581 -0.14765598 0.035864014
0.098724894 0.014126771 0.099969745 -0.14842996 0.011152731 0.14507705 -0.010147568 0.008556502
-0.082019456 -0.09762382 0.07594239 0.0016564163 0.037786953 -0.062200457 -0.10625737 0.06451763
-0.106259055 0.03336172 -0.07738485 0.032886505 -0.15194036 0.06592825 -0.09270189 0.15431912
-0.13310783 -0.06393249 -0.02785312 0.1603506 -0.08430848 -0.0013929186 0.12108835 0.13420747
-0.0014225764 -0.14148964 -0.11875968 -0.08970939 0.034341685 -0.08550017 -0.10967184 0.0019292561
0.027154915 0.013281365 0.04034831 -0.11149593 0.014161008 -0.0816684 0.07903528 -0.13843417
-0.12366827 0.07561793 -0.027215933 -0.021120757 -0.15427418 -0.0032276097 0.16074294 0.094734214
0.11177681 0.13512582 0.067553006 0.043546453 -0.061843734 -0.119335584 0.042593297 0.050922967
-0.03668663 0.13211724 0.116385326 0.0069996766 0.16071309 0.1077742 -0.08612878 -0.03530515
0.0051577105 0.037899885 0.15694512 -0.1544547 0.07821404 -0.07688609 0.104102336 0.04381181
0.11593572 -0.10111688 -0.10968017 -0.03284959 0.055018224 -0.13071437 0.008240125 -0.029099323
-0.091731824 -0.07345973 0.07907121 -0.10291995 -0.040702857 -0.12666056 -0.07508977 0.10362646
0.07874897 -0.15709206 -0.019915588 0.10669715 0.046735898 0.06697681 -0.13466083 -0.10762453
0.0651106 0.010896762 -0.06577803 0.09223905 0.13798337 -0.05257183 -0.07257384 0.1303328
0.03495292 0.10692043 -0.062231317 -0.057086464 -0.03133288 -0.10332683 -0.01598782 0.059333302
-0.07956398 0.12322119 -0.05710629 0.15617882 -0.088268 0.07723764 -0.004347786 -0.09008525
-0.10858173 -0.057401143 -0.07135893 -0.062089395 -0.10465683 -0.0421878 0.014009407 -0.018727247
-0.14417651 0.13386515 -0.08773116 0.035113394 -0.035654046 0.105247535 -0.13259117 -0.035534088
-0.10561661 0.0039580055 0.06854748 -0.0329063 0.021702722 0.13878949 -0.12416345 0.026134415

conv_layer.conv_layers.1.parametrizations.weight.original f4 [32, 8, 7, 7]
00000000: 59ae 84bc ad2a 34bd 068a 9cbc 41a5 9b3c
00000010: bf4b e9bc 6905 cc3a 67c3 13bd b83c 6f3a
00000020: 8002 1fbd 284a d73c bbfd 05bd cf79 553b
00000030: b0d9 0d3d e44a 3b3d 1097 2a3d 8f30 063d
00000040: 8256 023c f970 a53c a64c d63c 312b afbc
00000050: 155d 3dbc 22bd 333c fe0d c1bc f6f1 133d
00000060: c370 adbc 0690 8a3d d68e 7f3d 977d 20bb
00000070: 988f 29bc 7ead aa3b b18b 14bd 1191 18bd
00000080: 099c 99bc ad5f 24bd ee24 583d 4c23 d03c
00000090: 4234 debc 91e8 853c 6f53 c23c 18b0 853d
000000a0: e729 6c3d 69f7 93bc 48c9 0d3d f810 813c
000000b0: bff6 35bc 31b8 f23c 9147 c9bc e73d b43c
000000c0: e38f 04bd c20a 6dbc 8ccc 84bb d345 c23c
000000d0: b85a 32bd 59e0 e33c b066 2bbd 9f32 2bba
000000e0: 069c c43c 8399 01bb 134e 1bbc b835 5e3d
000000f0: 241d f0bc 09f0 0c3d ee85 033d 2042 12bd
00000100: 02f6 2b3b 2387 b1bb 070a 04bd 0571 67bb
00000110: 9b23 583b 5b88 50bd 0ce2 0b3d 211d 5bbd
00000120: 7679 303d 48e9 13bd 00a7 a7bc f5f1 e43c
00000130: c84c 963c 6219 86bd 6994 333d 9c70 2b3c
00000140: f5e9 683d 51da f4bb 2c96 713d afa6 04bd
00000150: 51e3 083d 395e 5b3d f610 e7bc 02cc 23bd
00000160: 6669 d43b d136 383d c662 f83c 5a03 2bbb
00000170: c112 1cbd a9a6 293d 6559 503d 9f34 10bc
00000180: 7467 543c dc1e 0bbd a4a6 8bbd 9822 9a3c
00000190: fab5 8bbc bdd3 133d 3f9b 62bd f923 12bd
000001a0: 1f44 51bc 1300 aabb f4f5 033c 34f4 edbc
000001b0: 200f 983c ddd4 0abb c2eb bc3b 8eaa 193d
000001c0: 12a1 b23c 6c3c 463c 7981 613d 5c63 fb3c
000001d0: ab63 613d 82e2 1e3c aaae 43bd 1a6c 943d
000001e0: 400a a5bd bff8 843d a84b a2bd e5fc 1cbd
000001f0: ba30 b1bc 16ce 4b3c e8c9 1ebd 9421 843c
00000200: a219 c1bc 2555 293c a38c 94bc b7db 0b3d
00000210: e3d8 193d 3a19 25bd 437c 043d 45ad 5bbd
00000220: 2a19 96bd bf30 ffbc 0c33 9bbd 68c8 9b3c
00000230: d328 8c3d be38 1e3d 3508 213d a579 103d
00000240: 4a82 b0bb 4164 483d b009 cc3c 98d4 f6bc
00000250: 2552 703d 21dd 6f3c 2774 d03c d7a5 153d
00000260: 1a9e 0ebd 7ff2 d0bc 05f8 c5bc 9a7d d0ba
00000270: 985f 33bd 56ad ccbb e26d 7fbc 2829 9ebc
00000280: b7ce 8c3c 3b3b 8c3c 1c83 223b 8ed6 b5ba
00000290: b27c f13c 8e81 d13c f925 8c3c 0042 b93c
000002a0: 12a5 16bd 1589 07bd 618b 76bb 868d be3b
000002b0: 778b 203d 4bae 92bc 44f9 263c 04db d33c
000002c0: bab4 ee3c 2928 7b3b e296 703c 4f09 ebbc
000002d0: f524 9c3d c7ef 73bc 5bee 293c 71ca 89bd
000002e0: a55b dbbc c1d7 ddbc de29 97bc acc5 b2bc
000002f0: 99a4 3a3d 67d8 953c 0d16 f039 79f3 263c
00000300: 4cbc c43c de1d 7ebb 9a21 d43b 85c5 73bd
00000310: 90dc 5dbd d924 da3c 1d63 043d 7afd 053d
00000320: 20ca 89bd 6dd3 1cbc 378b 19bd d1aa bc3c
00000330: 2d26 0a3d b247 d23c ac6c a83b 6e2e 433b
00000340: af37 07bd 5807 5c3c 012f e0bb 5e76 8e3d
00000350: 4a5b 52bd 565d 73bd 3805 39bc e039 8c3d
00000360: 76c0 fdbc aef1 6a3d 31f9 d73b 3edf 853b
00000370: b1ec 143d 761b 07bd 7ec6 27bd e933 bd3c
00000380: 3b76 fc3b 28bf 1fbd 7251 00bd ec8a 35bc
00000390: 9fd4 853d 1e28 e03a f44a 96bd 3c01 dd3b
000003a0: ce4d 873d df42 113c e09a e33c fdae e0bc
000003b0: 01bf 563d b7b7 b43c 0a76 ab3c fcbf 38bd
000003c0: fedf eebb 3b9c 203d f1e6 32ba b26c cabc
000003d0: 9026 cd3c cdc9 55bc cb75 4f3c 120c 4e3d
000003e0: 0a65 023b f70f 593d 07e3 183c 4c37 233d
000003f0: 322a f83c 41e9 ccb9 f665 20bd e91f a73c
-0.016196417 -0.04398601 -0.019108783 0.018999698 -0.028478501 0.0015565577 -0.036075022 0.0009126174
-0.038820744 0.026280478 -0.03271268 0.0032573824 0.03463143 0.04572572 0.04164797 0.032761153
0.007955195 0.020195471 0.026159596 -0.0213829 -0.011557837 0.010970386 -0.023566242 0.036119424
-0.021171933 0.067657515 0.06239208 -0.002448892 -0.010349177 0.00520867 -0.036266033 -0.03724772
-0.018751161 -0.040130306 0.052769594 0.025407456 -0.027124528 0.016346248 0.023721425 0.06527728
0.05765715 -0.01806231 0.034615785 0.015755162 -0.011106192 0.029628845 -0.024570258 0.022002174
-0.032363784 -0.014467897 -0.004052704 0.023714935 -0.043543547 0.027816938 -0.041845977 -0.00065306755
0.024000179 -0.0019775338 -0.009479064 0.05425045 -0.02931077 0.034408603 0.032110147 -0.035707593
0.0026239161 -0.005417721 -0.032236125 -0.0035315168 0.0032980207 -0.05091129 0.034151122 -0.053494576
0.043084584 -0.036111146 -0.020465374 0.027947405 0.018347159 -0.0654781 0.043842707 0.01046386
0.056863744 -0.0074723144 0.058981106 -0.032385524 0.03341991 0.053556655 -0.02820633 -0.03998948
0.006482291 0.044974152 0.030320536 -0.0026094527 -0.038103823 0.041418705 0.050866503 -0.008801608
0.012964118 -0.033964977 -0.068188936 0.018815324 -0.017054547 0.0360906 -0.055323835 -0.035678837
-0.012772589 -0.005187997 0.008054245 -0.02904711 0.0185619 -0.0021184005 0.005765409 0.03751617
0.02180532 0.012099367 0.055055115 0.030687027 0.05502669 0.009697558 -0.047773995 0.07247181
-0.08058596 0.06492757 -0.079245865 -0.038327117 -0.02162968 0.012439271 -0.03876677 0.016129293
-0.023571793 0.010335241 -0.018133467 0.034145083 0.037560355 -0.04030726 0.032345068 -0.05363204
-0.073290184 -0.031151174 -0.07578096 0.01901646 0.06843724 0.038628332 0.039314467 0.03527226
-0.0053866254 0.048923735 0.024906963 -0.03013067 0.05867209 0.014640124 0.02544601 0.03653511
-0.034818746 -0.025506256 -0.024166116 -0.0015906573 -0.043792337 -0.006246249 -0.015590163 -0.019306734
0.017188413 0.017118087 0.0024797386 -0.0013873146 0.029478405 0.025574472 0.01710795 0.022614479
-0.036778517 -0.033089716 -0.0037619697 0.0058152108 0.039195504 -0.017905375 0.0101912655 0.02586127
0.029138912 0.0038323498 0.014684411 -0.028690962 0.076242365 -0.01488871 0.01037177 -0.06728066
-0.026777098 -0.027080419 -0.018452581 -0.021822773 0.04556713 0.018291665 0.00045792796 0.010189884
0.024015568 -0.0038775126 0.006473732 -0.05951454 -0.054165423 0.026628898 0.032321084 0.032712437
-0.067280054 -0.009571892 -0.03748628 0.02303067 0.033727814 0.025668953 0.005139908 0.0029782313
-0.03301209 0.013429485 -0.006841541 0.069561705 -0.05135659 -0.059415184 -0.011292748 0.06846976
-0.030975562 0.05735939 0.006590985 0.0040854504 0.03635854 -0.032985173 -0.04096078 0.023096042
0.007704524 -0.03900066 -0.031327672 -0.011080485 0.06534695 0.00171018 -0.07338515 0.006744532
0.06606637 0.008866041 0.027783811 -0.02742719 0.05242825 0.022060258 0.020930309 -0.045104966
-0.0072898855 0.039211493 -0.0006824574 -0.024710033 0.025042802 -0.013048601 0.012662361 0.05030448
0.001989665 0.05299374 0.009331471 0.039847657 0.030293558 -0.000390837 -0.039159738 0.020400958

activation.coefficients_vect f4 [672]
00000000: 0000 0080 035d 53b9 e4f7 9db8 ad61 4fb9
00000010: 5457 44b6 350f afb9 f230 1b39 4382 c4b9
00000020: de4a 30ba 5622 4aba 47a0 16ba 6187 543a
00000030: ed49 2f3a f26e dd39 b415 c839 c415 c537
00000040: d884 4e39 859a 3139 bfb9 3239 bff5 0039
00000050: 0000 0000 0000 0080 dded 3fb9 fb63 08b9
00000060: a807 9db9 ac07 9db9 e366 ccb9 9cf9 dcb9
00000070: 1556 ddb9 0502 e8b9 5df2 95ba f9d4 923a
00000080: fdc6 e239 ca66 c639 5f8b 97b9 56d0 ff39
00000090: ad07 9d39 a907 9d39 9f07 9d39 7529 1cb9
000000a0: abcd d639 0000 0000 0000 0080 76d0 acb9
000000b0: dc37 e337 9d07 9db9 ab07 9db9 ad07 9db9
000000c0: 2462 ccb9 6497 4439 4c4e c3b9 6e02 8dba
000000d0: c932 96ba d245 8f3a 4361 eb39 df32 c739
000000e0: 044e 7139 5e70 c038 b3cf c438 e434 cd38
000000f0: faf4 4d39 3fd8 9d38 0000 0000 0000 0080
00000100: aa21 04ba 66e0 8439 59b0 f9b9 3fb2 5c39
00000110: b007 9db9 b61a 2fba a9e0 033a b782 bcb9
00000120: fe5f 74ba 29d0 703a c234 e7b8 faa2 2c3a
00000130: 61b3 c639 d9fe 92b9 8024 fa39 ac07 9d39
00000140: a907 9d39 6201 8237 b7ac 8f39 0000 0000
00000150: 0000 0080 758f 4039 fc4d 24b9 f0f4 30b9
00000160: 972c a2b9 0813 b8b9 1def feb9 feef 30ba
00000170: f2f5 f939 f230 c0b9 5c8d 95ba b314 8f3a
00000180: 3dc0 763a 7a61 dd39 aae3 e039 9322 c639
00000190: 20e3 b039 3ac2 a539 92f9 5c39 508e f9b8
000001a0: 0000 0000 0000 0080 b0e4 0539 5f82 4438
000001b0: cd2a 79b9 cc6d 9db9 b258 bcb9 bbab d3b9
000001c0: d34f edb9 a90e 04ba df5a 8dba f35d 6939
000001d0: 185a 803a 52bc 4d3a 2a59 dd39 521c dd39
000001e0: dfa6 c939 b107 9d39 ad07 9d39 f3ba 8839
000001f0: 725b e937 0000 0000 0000 0080 d854 86b9
00000200: 6acb 38b8 3335 8eb9 8e37 3338 b107 9db9
00000210: d075 ccb9 d130 ddb9 c068 43ba 7b33 4639
00000220: 12f6 79ba 42db 803a cb04 c239 fcf4 6ab9
00000230: bb04 dc39 b307 9d39 ae07 9d39 ab07 9d39
00000240: 8ccb 6539 6023 d838 0000 0000 0000 0080
00000250: d503 5fb9 aae6 5db8 aa07 9db9 ad07 9db9
00000260: af07 9db9 b107 9db9 dbb7 c1b9 dbeb ddb9
00000270: 9745 8cba b535 8a3a fe3f a7b9 9137 613a
00000280: f52b 0fb9 03d2 f339 5976 c639 f648 9f39
00000290: 88a0 8138 2123 72b9 6f0c fc39 0000 0000
000002a0: 0000 0080 a3ff 03ba 644b 5939 a707 9db9
000002b0: 5631 27ba 09d6 d839 df0b 44ba bd4a 113a
000002c0: e137 c4b9 7c30 8eba fe6a e2b9 065e 8d3a
000002d0: 7e22 e439 cd5d c639 f2d7 e1b9 fa40 283a
000002e0: ad07 9d39 a907 9d39 e906 39b9 907a f739
000002f0: 0000 0000 0000 0080 621c fd37 53ad 72b9
00000300: acac 95b9 e678 96b9 73ad b8b9 2c18 c2b9
00000310: cd39 ccb9 67cb 31ba 327b ca39 7a60 7bba
00000320: 6cbf 6b3a c7f4 4c3a a493 c639 4abb 4fb7
00000330: 46e2 7139 b746 7f39 fcf6 8639 acb8 8439
00000340: 4ca0 a238 0000 0000 0000 0080 7bb8 0238
00000350: ee2e 57b9 66cf 6ab9 d3af c8b9 8a3a cdb9
00000360: e6ce ceb9 1947 e6b9 f2dd f3b9 4291 e7b9
00000370: a039 8fba c7d5 923a 873d e739 5702 c539
00000380: b607 9d39 7886 8639 0be4 c838 5c31 bd38
00000390: bd7a 0a39 4db3 acb8 0000 0000 0000 0080
000003a0: 14c9 75b9 f665 99b8 159c 9db9 07bf 9738
000003b0: ab88 eeb9 3872 8539 9c7e c5b9 9de1 3bba
000003c0: 4e94 2739 7d62 60ba 0ea3 683a 8c5b 88b9
000003d0: bb28 153a d254 c739 8c3e 5fb9 e38a da39
000003e0: ac07 9d39 e7e2 35b8 98bd a939 0000 0000
000003f0: 0000 0080 3cf8 2438 7bb2 5f38 59b5 cbb8
-0.0 -0.00020157178 -7.5325166e-05 -0.00019777445 -2.9257108e-06 -0.0003338993 0.00014800185 -0.00037481086
-0.0006725023 -0.0007710805 -0.0005745929 0.0008107331 0.0006686736 0.00042235065 0.00038163143 2.3494365e-05
0.00019695179 0.00016937598 0.00017044599 0.00012298579 0.0 -0.0 -0.0001830379 -0.00013007216
-0.00029951078 -0.0002995109 -0.0003898657 -0.00042147643 -0.0004221654 -0.00044251993 -0.0011440028 0.0011202387
0.00043254337 0.00037842087 -0.00028904804 0.00048792613 0.00029951092 0.0002995108 0.00029951052 -0.00014892763
0.00040970495 0.0 -0.0 -0.00032961712 2.708652e-05 -0.00029951046 -0.00029951087 -0.00029951092
-0.00038983033 0.00018748414 -0.00037251634 -0.001075817 -0.0011459227 0.0010930842 0.00044895158 0.0003799414
0.00023012614 9.1762035e-05 9.384695e-05 9.7850134e-05 0.00019641584 7.526622e-05 0.0 -0.0
-0.0005040417 0.00025344192 -0.0004762437 0.00021047237 -0.000299511 -0.00066797005 0.00050307304 -0.00035955544
-0.0009322165 0.0009186292 -0.00011024765 0.00065855647 0.0003789915 -0.00028037166 0.0004771091 0.0002995109
0.0002995108 1.5497852e-05 0.00027403768 0.0 -0.0 0.00018363989 -0.0001566931 -0.00016875914
-0.0003093227 -0.00035109394 -0.0004862481 -0.0006749629 0.00047676224 -0.0003665756 -0.0011409926 0.0010916203
0.0009412801 0.0004222503 0.00042894232 0.00037791263 0.00033738557 0.00031615963 0.00021073807 -0.00011899753
0.0 -0.0 0.00012769061 4.685146e-05 -0.00023762435 -0.0003002718 -0.00035924237 -0.00040373005
-0.00045263636 -0.0005037585 -0.0010784528 0.0002225561 0.0009792475 0.00078481913 0.00042218837 0.00042173505
0.00038462036 0.00029951104 0.00029951092 0.0002607923 2.7818347e-05 0.0 -0.0 -0.00025621685
-4.4058463e-05 -0.00027123987 4.2728665e-05 -0.00029951104 -0.0003899769 -0.00042188776 -0.00074542686 0.0001890193
-0.00095352635 0.0009830969 0.00037006135 -0.00022407243 0.00041965194 0.0002995111 0.00029951095 0.00029951087
0.00021914969 0.00010306272 0.0 -0.0 -0.00021268365 -5.290533e-05 -0.00029951084 -0.00029951092
-0.00029951098 -0.00029951104 -0.00036948812 -0.0004232813 -0.0010701892 0.001054457 -0.000319004 0.0008591349
-0.00013653918 0.00046505043 0.0003785368 0.00030381203 6.1811006e-05 -0.00023092005 0.0004807445 0.0
-0.0 -0.0005035346 0.00020722818 -0.00029951075 -0.0006377896 0.000413582 -0.00074785756 0.0005542448
-0.00037425666 -0.001084819 -0.00043185794 0.0010785467 0.00043513248 0.0003783539 -0.00043076236 0.00064183737
0.00029951092 0.0002995108 -0.00017645549 0.00047202827 0.0 -0.0 3.0173167e-05 -0.00023143487
-0.00028548145 -0.00028700306 -0.00035224445 -0.00037020573 -0.00038952977 -0.00067823235 0.0003862023 -0.0009589266
0.00089930627 0.0007818457 0.00037875504 -1.2381768e-05 0.00023067844 0.00024345038 0.0002574249 0.00025314593
7.7546196e-05 0.0 -0.0 3.1166226e-05 -0.0002052148 -0.00022393241 -0.00038277972 -0.00039144262
-0.00039445533 -0.0004392199 -0.00046513934 -0.0004416798 -0.0010927208 0.0011202627 0.00044105595 0.0003757651
0.0002995112 0.0002565866 9.5792195e-05 9.021416e-05 0.00013206429 -8.2349965e-05 0.0 -0.0
-0.00023439928 -7.3146e-05 -0.00030061664 7.235823e-05 -0.00045496723 0.00025452836 -0.000376691 -0.0007167103
0.00015981609 -0.0008559598 0.00088743947 -0.0002600815 0.0005689968 0.00038019434 -0.00021290238 0.0004168368
0.0002995109 -4.3365082e-05 0.0003237545 0.0 -0.0 3.9331833e-05 5.3333566e-05 -9.713573e-05
