trained_models/IOD_Training/crr_nn_best_model_inpaint_5.pth (torch, 57808 bytes, 3 tensors)

conv_layer.conv_layers.0.parametrizations.weight.original f4 [8, 1, 7, 7]
000000 82 66 05 3d 53 f5 ac 3d da 32 32 bd 0c a4 25 3e
       0.032568462 0.084452294 -0.043505527 0.1617586
000010 8e 54 c0 bd 5d 4e d1 bd 3a f1 f8 3d 5c 60 00 3e
       -0.093911275 -0.10220025 0.12155385 0.12536758
000020 55 c6 9b bd 0f 96 3d 3d d7 96 fe bd 6c ba 09 3e
       -0.07606188 0.046285685 -0.12431114 0.1345002
000030 3d 28 ec 3d 97 ca 02 be d5 ae f4 3c 4f e8 ec 3d
       0.11531112 -0.12772594 0.029868523 0.11567747
000040 97 34 dd 3d 37 ef 92 bd 38 0d d4 bd 74 79 80 bd
       0.10801046 -0.07174533 -0.10354084 -0.06273165
000050 2f 83 15 3e 9c 42 ea bd f2 37 08 be 13 fb b5 bd
       0.14600824 -0.11438486 -0.13302591 -0.08885779
000060 d8 e0 28 3c ff 98 d0 ba dd da da bd cc 7c 8e bc
       0.010307513 -0.0015914737 -0.10686276 -0.017393492
000070 e0 9f 4c 3d 16 da 17 3d 2a 6d 32 bd f1 4d 7a bd
       0.049957156 0.037073217 -0.04356114 -0.061109487
000080 70 f2 f5 bb cb 0c c2 3d c7 69 c7 3d 87 97 6a 3d
       -0.0075057074 0.09475096 0.09736972 0.057273414
000090 49 f5 da bc cd 87 02 be 7c 6e 51 bc fa 88 d1 3d
       -0.02672829 -0.12747116 -0.012782689 0.10231204
0000a0 ae f6 b4 3d 3a 14 fb 3d e2 d6 f8 3c 61 4e 22 3e
       0.08836113 0.12259717 0.030375902 0.15850212
0000b0 5a 09 7c bb 78 3b 72 3d b5 4f 9a 3c 74 5b 02 3d
       -0.0038457722 0.059138745 0.018836835 0.031825498
0000c0 cb 22 09 be 59 7f 88 bd 7b 86 cb 3d 9c a9 c3 3d
       -0.13392179 -0.06664915 0.099377595 0.09553835
0000d0 2f 88 03 bd 16 97 5e 3d c5 f9 b1 bd c8 3a a5 3c
       -0.032112297 0.054343306 -0.08690218 0.02016963
0000e0 c6 22 8b 3d f9 40 38 ba 54 fb b6 bd e0 b0 b5 bc
       0.06793742 -0.00070287246 -0.08934656 -0.022179067
0000f0 70 db 3f 3d 59 72 90 3d e4 cd 12 3b 3c 96 b2 3d
       0.04684013 0.0705306 0.0022400552 0.08720061
000100 65 62 21 be 82 a6 b2 3d 7c 33 fa bb 82 97 03 bd
       -0.15760191 0.08723165 -0.007635532 -0.03212691
000110 2a 65 ad 3d 4a f1 3b bd e3 4c 35 bd ec 02 98 bd
       0.08466561 -0.045884408 -0.044262778 -0.07422432
000120 b5 fc e1 3d ce cd b1 bb 86 69 e9 bd 1e 10 cb 3c
       0.11034528 -0.005426145 -0.1139708 0.024787959
000130 a3 99 07 be bb 32 26 be c8 30 96 3d 6a 1d 9a 3d
       -0.13242202 -0.1623029 0.07333523 0.075251415
000140 4c fe 0c be 19 96 04 3e b9 ec 09 be c2 ff c6 3d
       -0.13768882 0.12947883 -0.13469209 0.09716751
000150 8c 69 de 3d d2 29 16 be 9d 59 9e bd 64 3a 89 bd
       0.10859975 -0.1466439 -0.07731936 -0.0670059
000160 20 fe 9a bd b7 7c c7 3d 5b 77 e7 3c c0 c7 cf 3d
       -0.07568002 0.09740584 0.028255155 0.10145521
000170 7b 30 ec 3d 60 0f 8d 3d 65 9e 8d bd 8e df 1f bd
       0.115326844 0.06887698 -0.06914977 -0.039031558
000180 a3 72 8c bc 2f 3e cf bd 7c da 9f bd f4 c2 ca bd
       -0.017144507 -0.101192825 -0.078053445 -0.099004656
000190 73 5e 82 bc 50 c7 e8 3d 3d b5 cd bd 14 1b 3e bc
       -0.015914178 0.11366141 -0.10044334 -0.011603136
0001a0 62 ff 98 3c ae 1e b0 bd 06 b2 e6 bd f3 79 c3 bd
       0.018676464 -0.08599602 -0.11264424 -0.09544744
0001b0 b0 85 f3 bd 29 f9 3a bd 26 23 a0 bd 9e 3d 3d 3d
       -0.11890733 -0.045647774 -0.07819204 0.04620134
0001c0 18 71 27 bd a9 16 c9 3d a3 b0 07 3e df 9f 4a bb
       -0.04087934 0.09818775 0.13250975 -0.0030918045
0001d0 0a c7 4c 3d a6 fa 2a 3d dc 31 be 3d 17 66 3d 3d
       0.049994506 0.041742943 0.09286854 0.04623994
0001e0 29 e1 0d be 66 98 12 3b e1 49 3a 3e 19 18 f3 bd
       -0.13855423 0.0022368669 0.18192245 -0.11869831
0001f0 c5 af 04 be fa 5b 45 bd 42 b4 0f be fd ef 00 3e
       -0.12957676 -0.04818342 -0.14033607 0.12591548
000200 95 75 fe bd dd e1 8f bd c8 56 15 be 05 55 60 3d
       -0.12424771 -0.07025502 -0.14583886 0.05476858
000210 3a bf 6d 3d 41 fd fa 3d 11 6a fb 3c 4b be 09 3e
       0.058043696 0.122553356 0.030690225 0.13451497
000220 21 6f 99 bd b6 45 d4 3d 50 85 cb 3d 0b 8c 80 bd
       -0.07491899 0.10364859 0.09937537 -0.06276711
000230 50 99 b9 bd 8d a8 8b 3d b0 42 e3 bd f1 cc 22 bb
       -0.09062445 0.06819258 -0.11096704 -0.0024841393
000240 0b 2b 4e bc fd 21 bf bd c6 4c a8 3d 45 52 d7 3b
       -0.012583504 -0.093326546 0.08217768 0.0065710866
000250 e2 75 5b bd f0 40 37 3d b1 68 d8 3d ad 6b bc bd
       -0.05357922 0.044739664 0.10566843 -0.09200225
000260 cf 30 73 bd f6 47 05 bb e9 9c 72 bd dd e7 2e 3d
       -0.05937272 -0.0020337082 -0.059231672 0.04270159
000270 14 55 00 3e e4 ec 35 3d bb f6 9b bc e9 e8 66 bd
       0.12532455 0.04441537 -0.019038549 -0.056374464
000280 da 98 91 bc f9 4d 73 3c cb f4 cb 3c 90 1b aa bd
       -0.01777308 0.014850133 0.024897 -0.083060384
000290 f3 66 1d 3e b1 51 1f be 2a 0b fb 3d 43 39 0f be
       0.15371303 -0.15558507 0.12257989 -0.13986687
0002a0 f4 b3 3d 3d 1b 96 09 be 9e b4 13 be 7e 56 03 3e
       0.046314195 -0.13436167 -0.14424369 0.12825963
0002b0 13 c6 52 bd fa 47 d1 bd 24 7f 90 3d 04 c4 b2 3c
       -0.05145843 -0.102188066 0.070555 0.021821983
0002c0 29 9b b4 bb 7d ad 36 3d cf 62 fa 3d a5 61 2f bd
       -0.0055116606 0.044599045 0.122258775 -0.04281773
0002d0 77 f0 cd 3d 71 b4 f9 bd ee 7f bf 3d 22 5d 40 bd
       0.10055631 -0.121926196 0.093505725 -0.04696382
0002e0 cf 66 0e 3c 15 9f 5c bc 5b 60 98 3a b7 81 a5 3c
       0.008691504 -0.0134656625 0.0011625396 0.020203454
0002f0 1e 52 70 bc 98 13 f7 3c 71 ac 12 3e 7a 8b ad bd
       -0.014668016 0.03016071 0.14323594 -0.08473869
000300 10 e7 34 3d 11 02 da bd be 56 c7 bd 8e ef 65 3b
       0.04416567 -0.106449254 -0.09733342 0.0035085413
000310 a2 65 e5 bd 40 db 06 bd 5e c7 c1 bd 5c cc b6 bc
       -0.112010255 -0.032923937 -0.094618544 -0.022314243
000320 87 a1 f4 3d 9c 25 51 bd e8 2a 1b be ac 58 ca 3c
       0.119448714 -0.051061258 -0.15153086 0.024700485
000330 e3 f2 62 bd 12 64 b2 3d d1 f9 d2 bd 63 d4 a5 bd
       -0.055407416 0.08710493 -0.10301555 -0.0809715
000340 aa bc 7a bd 13 54 ba 3d e5 35 02 be 6e aa 94 bd
       -0.06121508 0.09098067 -0.12715872 -0.072590694
000350 58 ae 02 be 89 d3 bc bd a3 db 37 bd 59 80 00 be
       -0.1276182 -0.09220035 -0.044887196 -0.12548961
000360 68 7d ee bd df 57 b0 bd 1f 31 4f 3c a8 64 10 3d
       -0.11645013 -0.0861051 0.012645989 0.035252243
000370 c8 85 0c 3e da 4a 01 3d d3 91 d2 bd 68 4a 9b 3c
       0.13722908 0.031565525 -0.1028172 0.018956378
000380 60 bb 90 ba 24 b4 8d 3c 3d 41 9d 3d b8 d0 30 bd
       -0.001104217 0.017297812 0.07678459 -0.0431678
000390 e2 5b fc bd cd a9 e5 bd 60 e1 b4 bd 89 b3 15 be
       -0.12322213 -0.112140276 -0.08832049 -0.14619268
0003a0 5d 72 da 3b 40 40 4b bc 70 f1 dc 3c 02 4b 05 3e
       0.006666465 -0.012405455 0.026970595 0.13016894
0003b0 5a ca 05 bc 98 76 01 3e 90 5a e8 bc 45 87 07 bb
       -0.00816592 0.12642896 -0.028363496 -0.0020679992
0003c0 07 db ba bd 94 70 e8 bc ad 19 a3 bd bb 67 b3 bd
       -0.091238074 -0.028373994 -0.07963882 -0.087600194
0003d0 00 fa 2e bd ac f0 de bd 11 a3 c5 bc 1f fe 17 bc
       -0.042718887 -0.10885748 -0.024125608 -0.009276896
0003e0 51 23 21 3c 35 e1 e3 3d 6d 0d 91 ba ea 77 e3 bd
       0.00983508 0.11126939 -0.0011066623 -0.11106856
0003f0 0b 79 4d bd b0 f2 b9 bc 14 b3 a0 3d 94 cc 1f bc
       -0.050164264 -0.02269873 0.078466564 -0.009753365

conv_layer.conv_layers.1.parametrizations.weight.original f4 [32, 8, 7, 7]
000000 31 2d 4c 3d f2 58 f0 bb ad db b4 bc 61 b8 06 bc
       0.049847785 -0.007334822 -0.022077406 -0.00822267
000010 cc 82 ae bb 36 c3 2c 3d 21 16 43 bd 41 0d ca 3b
       -0.005325651 0.042178355 -0.047628526 0.006166131
000020 b2 45 a1 3c d3 b3 2d 3d fc 9c 5c 3c 55 4d 07 bd
       0.019686554 0.042407822 0.013465162 -0.033032734
000030 e8 1c b5 3b 0d bf bb bc 14 49 8d 3c 46 b8 62 bd
       0.0055271275 -0.022918249 0.01724676 -0.055351518
000040 da 84 c4 bc 4f 72 1c bd ca 6b 70 3d aa 02 64 bd
       -0.02398913 -0.03819495 0.058696546 -0.055666603
000050 54 4d ce 3c 35 e9 e7 b9 69 50 d5 bc cb 9e 91 bc
       0.025183357 -0.00044233506 -0.02603932 -0.017775914
000060 53 6e a6 bc 75 e3 df bb 4f 5c 0b 3d 4e 2c cf bc
       -0.020316279 -0.006832535 0.03402358 -0.02528968
000070 37 5b 0d ba 27 67 1c 3d 5c 22 3b bc dd 57 95 3b
       -0.0005392315 0.03818431 -0.011421766 0.0045575933
000080 f2 f7 0d 3c d9 c9 eb bb 31 2d 34 bd cf 33 b4 bc
       0.008665072 -0.007195693 -0.04398841 -0.02199736
000090 5c ba 39 bd 44 7c 87 bd a9 f5 33 3d ae 62 12 bd
       -0.04534374 -0.06615499 0.04393545 -0.03573864
0000a0 36 9c 0f 3d e8 e3 2f 3c 62 79 0c bd dd 93 8b bb
       0.035061084 0.010735489 -0.034295447 -0.00425957
0000b0 f2 59 1b 3d e8 5d 00 bd c6 92 fb 3b 39 e1 15 bd
       0.037927575 -0.031339556 0.007677409 -0.036591742
0000c0 c3 1f 16 bd 64 6b ff 3c c3 64 40 bd 67 05 3c 3d
       -0.036651384 0.031179138 -0.046971094 0.04590359
0000d0 0f f9 0d 3d 55 57 f4 bc b7 5a 05 bd 20 ba c4 bc
       0.03466135 -0.0298268 -0.032557216 -0.024014533
0000e0 3b 96 84 3c b0 73 42 bd f3 cc c9 3c e7 2a d3 3c
       0.016184917 -0.04747361 0.02463386 0.025777293
0000f0 7f 73 09 3d b7 7f 8d 3c 77 c5 50 3d f6 16 61 bc
       0.03355741 0.017272813 0.050969567 -0.0137383845
000100 64 fa 24 3d e6 a0 21 bd b9 c9 45 3d a8 02 80 3d
       0.040277854 -0.039460085 0.04828808 0.06250507
000110 11 17 ae bc 98 87 30 3d f7 ec 51 3d 5c 0f 4a bd
       -0.021251233 0.043098062 0.051251378 -0.049331054
000120 31 9f 44 3d 12 5e 69 3b 0b 94 57 bd a4 e6 49 3c
       0.04800338 0.0035609049 -0.05263142 0.012323055
000130 cd 1d 0e 3b 97 d7 60 bd d5 f7 1b bd 3d 2d ca bb
       0.0021685243 -0.054893102 -0.038078148 -0.0061699436
000140 02 b8 e6 bc 9c 9f eb bb 3b be 87 bd 43 23 00 bd
       -0.028163914 -0.007190658 -0.066280805 -0.03128363
000150 71 b1 04 bd 23 60 06 3d 8b f1 c8 3b 21 25 79 3d
       -0.032395784 0.032806527 0.00613231 0.060826425
000160 55 db 5f 3b 7c 62 70 3c 5d f8 12 3d a3 58 05 3d
       0.0034157832 0.014671918 0.03588139 0.032555234
000170 19 c0 13 3d 7e a5 94 3c 0c 4b 7b 3c bc c5 0b bd
       0.03607187 0.01814532 0.015337717 -0.03412412
000180 c2 21 3b 3a 95 4b 96 3c 90 a9 fe 3c 0d 5d 03 3c
       0.0007138514 0.018346587 0.031086713 0.0080177905
000190 84 ba 96 bc 4e 85 8a bc 7e 72 a3 bc df d5 96 3c
       -0.018399484 -0.016909268 -0.019952055 0.018412529
0001a0 1f 0e 36 3b 4b a3 5e 3d f6 0f d6 bc dd ad 08 bd
       0.0027779413 0.054354947 -0.026130658 -0.033368934
0001b0 27 34 96 3c 8b 9b 6d bd 29 e9 73 3d 99 d8 8d bb
       0.018335415 -0.058009665 0.05954853 -0.004328799
0001c0 77 7f 3e 3c 3e 43 9d bc 43 f8 91 bb e7 b5 76 bb
       0.01162707 -0.019197103 -0.004454644 -0.0037645043
0001d0 0c 7e 16 3c 60 db 6c 3b f6 ee 77 bc a5 a4 c9 ba
       0.009185325 0.00361415 -0.015132656 -0.0015384151
0001e0 1a bb 07 bd 7b 67 1c bd c4 a9 77 3c 72 bf 85 ba
       -0.03313742 -0.038184624 0.015116159 -0.001020415
0001f0 e8 86 1e 3c 98 08 46 3d 59 cd 2a bb a7 d4 fe bc
       0.009675719 0.04834804 -0.0026062338 -0.03110726
000200 f5 cd 1a bc 19 88 7f bc 50 66 c7 bc e1 3f 0b bd
       -0.009448518 -0.015596413 -0.024340779 -0.033996467
000210 1a b5 0a 3d e0 9f aa 3c 9c a5 b9 bc 75 08 06 3b
       0.03386412 0.020828187 -0.022661977 0.0020451818
000220 28 fc cb bc 93 82 01 3b 24 28 95 3c 95 36 dd bc
       -0.02490051 0.0019761666 0.018207617 -0.027003566
000230 f8 5d c8 bc 19 25 24 bd 89 87 52 bd ac cd 0a 3d
       -0.02445887 -0.04007444 -0.051398788 0.03388755
000240 54 4d 1a 3d 74 8e 26 bb e6 e0 ed bc 71 db 34 bd
       0.037671402 -0.0025414499 -0.029037904 -0.044154588
000250 0d de b6 3c 58 27 c3 3c 05 50 51 bd 7b d1 c5 3c
       0.022322679 0.023822471 -0.051101703 0.02414774
000260 73 b1 b1 ba fd 9d b2 3c 75 45 0c bd e6 26 81 3d
       -0.0013556912 0.02180385 -0.034245927 0.063062474
000270 ea 21 36 bd f1 e9 b0 bc b5 e5 4c bd 21 d8 4e 3d
       -0.044465937 -0.021595927 -0.050023753 0.050499085
000280 27 39 37 3c b2 36 57 bc 78 b8 c5 bb 97 f6 ea bc
       0.01118306 -0.013135599 -0.0060339533 -0.028682036
000290 30 e7 be 3c 1f 4e 1e 3c 50 38 50 bd 61 c7 8a 3b
       0.023303598 0.00966218 -0.050834954 0.0042351936
0002a0 64 86 fe 3a dd 24 9a 3d c6 d8 56 bd 06 8e e6 bc
       0.0019418714 0.07526562 -0.052452825 -0.028143894
0002b0 f6 6b d4 bc 63 14 64 3d e5 de 88 bd b8 f8 14 3d
       -0.025930386 0.055683505 -0.06683139 0.03637001
0002c0 38 15 11 bd 7d c6 5d 3c 2a 68 88 3d a4 e2 6e bc
       -0.035420626 0.013536093 0.06660493 -0.0145804025
0002d0 17 ce b6 3c 15 10 5d ba b0 de f4 3c 85 4c b0 3c
       0.022315068 -0.00084328774 0.029891342 0.021520862
0002e0 b8 1c 1b 3d 4c 3f 36 bd ce 85 e6 3c 47 a9 5b 3c
       0.037869185 -0.04449396 0.028139975 0.013407058
0002f0 fb 2d 3f 3b 60 38 89 3d 86 8e 15 bd 4c 39 c5 bc
       0.0029171694 0.06700206 -0.036512874 -0.024075173
000300 81 92 2b bd a6 b0 d1 bc 16 ee 2c bd ed 19 59 3c
       -0.041887764 -0.025596928 -0.042219244 0.01325081
000310 17 34 b7 3c 13 3b 21 3d 4f 2a a5 bb ae 39 53 bd
       0.022363706 0.03936298 -0.005040444 -0.05156868
000320 2d a5 1c 3c 79 e8 b9 ba 50 cf 64 ba 77 aa c9 3c
       0.009560865 -0.0014183662 -0.0008728402 0.024617417
000330 e5 b7 4a bd 13 e2 73 bd 74 42 e3 3a d5 ae 12 3d
       -0.04949178 -0.059541773 0.001733853 0.035811264
000340 02 a3 b6 3c 2b 9c f4 3c ab 93 2a 3c d7 ee 15 bd
       0.022294525 0.029859623 0.010411183 -0.03660473
000350 f3 b8 22 3c f3 10 4a 3d 96 ef 13 bc 84 c9 86 bc
       0.009931791 0.04933257 -0.00902929 -0.016453512
000360 7a 24 f8 3c 97 2e 18 bc e3 de a6 bb f4 af e9 bc
       0.03029083 -0.009288452 -0.005092488 -0.028526284
000370 51 d6 44 3d 96 70 61 3d a7 ae 21 bd 66 73 bd bc
       0.04805595 0.05503901 -0.039473202 -0.023126315
000380 70 d3 f4 3c 7a 5d 22 3d 77 b9 43 3d 7a 17 00 3d
       0.029885978 0.039639927 0.047784295 0.03127239
000390 25 59 bf bc a8 1f c6 3b 14 6f a0 bc fe 27 30 bd
       -0.023357937 0.006046254 -0.019584216 -0.04300689
0003a0 b9 52 18 bc 91 c0 ce bb 6e 9a 00 3d 6f bf 8e bc
       -0.009297066 -0.006309577 0.031397276 -0.017425267
0003b0 d3 ca 18 bd ef 30 77 bc 81 38 84 bc 23 5e 1e bd
       -0.037302803 -0.01508735 -0.016140224 -0.038663995
0003c0 7e bf 62 3c 1a 7b f5 3c 41 b5 7c 3d 38 10 40 3d
       0.013839601 0.029965926 0.061696295 0.046890467
0003d0 23 51 6a bc 07 57 89 bd 52 e8 cc bc 6e 6f 6f 3d
       -0.014301571 -0.06706052 -0.025013123 0.058455877
0003e0 7c 10 da 3b 4a 4d 51 bd 6a 1e a0 bc e1 9e b3 bc
       0.006654797 -0.0510991 -0.019545753 -0.021926345
0003f0 74 b8 a1 3c 3d 08 2a 3d 38 69 23 bd d6 e1 62 3d
       0.019741274 0.041511763 -0.039895266 0.055391155

activation.coefficients_vect f4 [672]
000000 00 00 00 80 16 32 c5 b9 0e c2 c7 b9 fe 8e c8 b9
       -0.0 -0.00037612085 -0.0003810082 -0.0003825351
000010 ae a4 ca b9 ff 9a cc b9 e4 7a ce b9 61 8c de b9
       -0.00038651138 -0.00039025393 -0.00039382942 -0.0004244773
000020 e4 48 2c 39 75 03 d8 b9 8d e7 1f 3a d2 a3 d2 39
       0.00016430352 -0.00041201306 0.00060998724 0.00040176377
000030 fc 1a d2 39 2c 8d d0 39 e6 ff c8 39 86 5d 1a b9
       0.00040074426 0.00039778033 0.00038337632 -0.00014721425
000040 97 b2 d1 39 5b d8 de 39 04 dd b2 b8 67 10 c8 39
       0.00039996646 0.00042504337 -8.528869e-05 0.00038159193
000050 00 00 00 00 00 00 00 80 be 07 9d b9 8f 56 cb b9
       0.0 -0.0 -0.00029951142 -0.00038783668
000060 33 44 e5 b9 7b 2c 2d 39 4d 82 c2 b9 87 79 09 ba
       -0.00043729096 0.00016515136 -0.00037099645 -0.0005244244
000070 a5 f1 5f 39 40 bd b7 b9 fe 0b 9f ba c1 f5 f6 39
       0.00021356957 -0.00035045482 -0.0012134311 0.00047103877
000080 be 07 9d 39 d0 c0 5c b9 1c b8 02 3a be b4 cd 39
       0.00029951142 -0.00021052663 0.0004986541 0.0003923531
000090 94 6b ca 39 d3 33 c8 39 b5 88 c5 39 09 e3 c3 39
       0.00038608594 0.00038185585 0.00037676623 0.00037362453
0000a0 58 7a bc 39 00 00 00 00 00 00 00 80 12 f3 bb b9
       0.00035949307 0.0 -0.0 -0.0003584852
0000b0 27 52 c6 b9 3e e0 c1 b9 84 b7 00 39 aa e7 c8 b9
       -0.0003782671 -0.00036978902 0.00012275396 -0.00038319576
0000c0 b3 42 cb b9 8d c6 cc b9 01 8f cf b9 a4 da 30 ba
       -0.00038768872 -0.00039057844 -0.00039588663 -0.0006746447
0000d0 a5 20 d8 39 fc aa 48 b9 c9 53 b7 39 b6 57 c2 39
       0.00041223053 -0.00019137183 0.00034966905 0.00037067913
0000e0 fa d9 c6 39 e2 7f 04 b9 c9 ea c0 39 b2 8b c5 39
       0.00037927908 -0.00012636141 0.00036796022 0.0003767885
0000f0 ae fc c3 39 0d 08 bd 39 00 00 00 00 00 00 00 80
       0.0003738156 0.00036054887 0.0 -0.0
000100 a7 7e bd b9 5a 4d bf b9 6e 16 e2 38 e6 f7 c5 b9
       -0.00036143253 -0.0003648799 0.000107806976 -0.00037759467
000110 55 04 c3 b9 43 d9 b3 b9 a3 4d 94 b9 c2 5e e5 b8
       -0.00037196526 -0.00034303413 -0.00028286604 -0.00010937221
000120 27 7a 10 39 22 f8 c9 b9 1f 3c de 39 de 09 d6 39
       0.00013778415 -0.0003852258 0.00042387933 0.00040824612
000130 a6 3c d1 39 c4 2e c7 39 6b b2 ca 39 66 0f d5 b8
       0.00039908773 0.0003799108 0.00038661374 -0.000101595
000140 0d d3 ce 39 1c 68 a0 b8 8f 94 ba 39 00 00 00 00
       0.00039448627 -7.6487864e-05 0.0003558737 0.0
000150 00 00 00 80 bd 07 9d b9 1d c4 ce b9 0d ab 09 39
       -0.0 -0.0002995114 -0.00039437498 0.0001312906
000160 5e cc c3 b9 55 f9 14 39 46 28 b9 b9 15 95 9b b9
       -0.00037345564 0.00014207263 -0.00035315956 -0.0002967498
000170 10 00 6a b9 8f 99 bb b8 36 da ef b8 ef 9d f9 38
       -0.00022316002 -8.9454574e-05 -0.00011437053 0.00011902663
000180 22 06 a7 39 cf 17 ce b8 d1 06 ae 39 61 83 b3 39
       0.00031857291 -9.82728e-05 0.00033192945 0.00034239425
000190 34 64 bf 39 b5 a4 c0 39 3d 0b bf 39 bb d7 b9 39
       0.00036505016 0.0003674381 0.00036438732 0.0003544668
0001a0 00 00 00 00 00 00 00 80 1b 4a c2 b9 fc 0f 84 38
       0.0 -0.0 -0.00037057776 6.297228e-05
0001b0 b3 4e e5 b9 ba e1 d2 b9 98 9f 02 39 32 56 e5 b9
       -0.0004373692 -0.000402225 0.0001245722 -0.00043742504
0001c0 62 6d 86 b9 22 2d ce b9 ad 68 73 ba 82 19 77 3a
       -0.00025639968 -0.00039325008 -0.0009285312 0.0009426103
0001d0 f2 d0 ba 39 50 20 39 b9 cb 5d d5 39 ca 74 e0 b8
       0.0003563236 -0.00017655012 0.00040696407 -0.00010702906
0001e0 71 d7 dc 39 c6 31 6b b8 e9 a0 cd 39 b5 1d c1 39
       0.00042122186 -5.607472e-05 0.00039220534 0.00036833962
0001f0 38 94 bb 39 00 00 00 00 00 00 00 80 bf 07 9d b9
       0.0003577785 0.0 -0.0 -0.00029951145
000200 14 84 d1 b9 30 06 bc b9 94 f1 b7 b9 93 b1 b8 38
       -0.00039961992 -0.00035862764 -0.0003508447 8.8068795e-05
000210 bf 07 9d b9 fe 8b ab b9 45 8f 17 39 fb d2 ae b9
       -0.00029951145 -0.00032719964 0.00014453854 -0.0003334506
000220 a6 21 03 ba 01 24 09 3a ef 90 c3 39 d3 65 23 b9
       -0.00050022674 0.00052315 0.00037301282 -0.00015582824
000230 2c 4d d4 39 3a c8 d9 39 16 52 a3 b8 1c cd db 39
       0.00040493289 0.00041538646 -7.7877354e-05 0.00041923753
000240 7b a3 00 b8 80 23 bb 39 00 00 00 00 00 00 00 80
       -3.066983e-05 0.0003569387 0.0 -0.0
000250 be 07 9d b9 23 66 d9 b9 5f 3c c5 b9 9a 2d 00 39
       -0.00029951142 -0.00041465563 -0.00037619748 0.00012224019
000260 ae 50 cd b9 c1 30 c6 b9 e0 c5 b3 b9 86 31 30 39
       -0.00039160758 -0.00037801827 -0.0003428897 0.00016803117
000270 c0 1d b7 b9 7e 56 d1 39 ef d8 31 b9 1d 19 a9 39
       -0.00034926645 0.00039928028 -0.0001696085 0.00032252903
000280 b8 71 0b b9 9b 03 bb 39 62 dd df b8 d6 c6 c7 39
       -0.00013298437 0.00035670106 -0.000106747044 0.00038104382
000290 e8 28 aa b8 27 a8 b9 39 f9 9f bc 39 00 00 00 00
       -8.113851e-05 0.00035411233 0.00035977343 0.0
0002a0 00 00 00 80 65 42 c1 b9 89 bb c8 b9 4c e0 c9 b9
       -0.0 -0.00036861296 -0.00038286697 -0.00038504822
0002b0 7c 9e e4 b9 2b 67 01 39 82 9b dd b9 8f bc 37 39
       -0.0004360563 0.00012340832 -0.00042268267 0.00017522484
0002c0 ac a6 c2 b9 4e 50 e6 b9 a2 6b 2b ba 6d ed 64 3a
       -0.00037126744 -0.0004392885 -0.0006539171 0.0008732889
0002d0 33 fe ce 39 4d 6c cb 39 84 22 f3 b8 82 7d ca 39
       0.00039480775 0.00038799868 -0.00011593572 0.00038621953
0002e0 1c 9e d7 39 21 17 8d b8 5c a6 cc 39 c1 82 c1 39
       0.00041125796 -6.727712e-05 0.0003903386 0.00036909248
0002f0 00 00 00 00 00 00 00 80 4f 47 bf b9 d0 38 c5 b9
       0.0 -0.0 -0.00036483488 -0.00037617097
000300 d4 95 c6 b9 e4 78 c0 b9 da 45 bc b9 e8 cc ef 38
       -0.00037877134 -0.00036711164 -0.00035910198 0.00011434575
000310 80 7a c3 b9 29 c0 cc b9 2a df d7 b9 00 fa 8a ba
       -0.00037284568 -0.00039053083 -0.00041174266 -0.001060307
000320 74 cb ca 39 bd 07 9d 39 17 eb 3c b9 30 1e ce 39
       0.00038680027 0.0002995114 -0.00018016655 0.00039313873
000330 5e cb 24 b9 91 65 d0 39 cc 7e d3 39 fa 17 f4 b8
       -0.00015716019 0.00039748524 0.00040339527 -0.00011639293
000340 9a 14 c0 39 00 00 00 00 00 00 00 80 be 07 9d b9
       0.00036636443 0.0 -0.0 -0.00029951142
000350 67 51 be b9 a8 32 bf b9 2d bb 99 37 52 04 c5 b9
       -0.00036300273 -0.000364681 1.8326182e-05 -0.00037577987
000360 66 f0 c3 b9 3f a5 07 39 ea 3c bd b9 b0 e7 59 ba
       -0.0003737241 0.00012936162 -0.00036094274 -0.0008312417
000370 0a 1f 3c 39 f0 53 40 3a 50 df bf 39 74 cd 42 b9
       0.0001794064 0.00073367264 0.0003659674 -0.00018577819
000380 e0 44 fa 39 02 9c c9 39 be 07 9d 39 1e 23 f0 b8
       0.00047735032 0.00038453942 0.00029951142 -0.00011450633
000390 84 48 d8 39 be 07 9d 39 00 00 00 00 00 00 00 80
       0.0004125276 0.00029951142 0.0 -0.0
0003a0 be 07 9d b9 55 04 bb b9 a8 91 a9 b9 4d 75 a7 38
       -0.00029951142 -0.00035670647 -0.00032342714 7.9850295e-05
0003b0 be 07 9d b9 f6 78 9f b9 45 d6 8c b9 99 7c 94 b9
       -0.00029951142 -0.00030416966 -0.00026862524 -0.00028321592
0003c0 66 df 97 b9 64 ce a3 b9 9b 03 3b 39 03 65 93 39
       -0.0002896741 -0.00031243556 0.00017835053 0.00028113284
0003d0 1f 98 bc 39 23 e2 bf b8 d6 2b b8 39 4b d4 c6 39
       0.00035971493 -9.149711e-05 0.00035127875 0.00037923674
0003e0 f0 f2 58 b8 e9 b5 b0 39 18 86 b8 39 00 00 00 00
       -5.1724666e-05 0.0003370487 0.00035195122 0.0
0003f0 00 00 00 80 fc 7c ba b9 1a d5 bd b9 f0 f3 be b9
       -0.0 -0.00035569805 -0.00036207662 -0.00036421372
