trained_models/IOD_Training/crr_nn_best_model_noise_5.pth (torch, 57788 bytes, 3 tensors)

conv_layer.conv_layers.0.parametrizations.weight.original f4 [8, 1, 7, 7]
0	0xbdc9fe71	-0.09862984
1	0xbdadc37d	-0.08484552
2	0x3dce4951	0.10072578
3	0x3db8c558	0.09022015
4	0xbe024961	-0.12723304
5	0x3e03a1c3	0.12854676
6	0xbccb7f36	-0.024840932
7	0x3dc178a2	0.09446837
8	0xbdafdd94	-0.085871845
9	0xbda9a5c5	-0.08283571
10	0xbdfeb3a7	-0.1243661
11	0xbd30eb7d	-0.04319333
12	0xbe21cedb	-0.15801565
13	0x3ac9333f	0.0015350356
14	0x3d455cbe	0.04818415
15	0xbc123e2a	-0.008925954
16	0x3d91e6c8	0.07124096
17	0x3d9a0786	0.07520966
18	0xbdb80c54	-0.089867264
19	0x3c29e003	0.01036835
20	0xbd94392d	-0.07237468
21	0x3c42a91b	0.011881138
22	0x3d58cfe4	0.052932635
23	0xbcddf6c9	-0.027095215
24	0xbbfc1c71	-0.00769382
25	0xbd0a5f35	-0.033782203
26	0xbd4bef32	-0.04978866
27	0x3db714cf	0.08939516
28	0xbe20ab8b	-0.15690438
29	0xbcba9cc6	-0.022779834
30	0x3dbcb917	0.092149906
31	0xbdcd58ca	-0.10026701
32	0xbdafe4d9	-0.08588571
33	0x3d388b79	0.045054886
34	0xbdabb206	-0.08383565
35	0x3b89bb3e	0.004203229
36	0xbe07a79b	-0.1324753
37	0x3df0382c	0.11729464
38	0x3db555b2	0.08854236
39	0x3c07054f	0.008241012
40	0x3d8886be	0.06666325
41	0xbdaef6b7	-0.08543151
42	0x3d523624	0.051321164
43	0xbdec004f	-0.11523496
44	0xbd62d0c8	-0.05537489
45	0x3cf2178b	0.029552242
46	0xbd7ae05c	-0.061249122
47	0x3d9c589d	0.07634089
48	0xbdecc085	-0.11560158
49	0x3c6ce6c8	0.014459319
50	0x3d0792da	0.033099033
51	0xbd0ec1d3	-0.034852814
52	0xbc975a86	-0.018475782
53	0xbd248f8c	-0.04017596
54	0x3d676c9d	0.056500066
55	0xbdcce67c	-0.10004899
56	0x3d9da584	0.07697585
57	0xbdbbdefb	-0.091733895
58	0xbdb2396a	-0.08702357
59	0x3dc3df45	0.0956407
60	0x3d9f7a94	0.07787052
61	0x3d827511	0.06369985
62	0x3cb65147	0.022255553
63	0xbdebf1f9	-0.11520762
64	0xbddddd4c	-0.10833225
65	0x3ce29b46	0.02766193
66	0xbc243cd2	-0.010024266
67	0xbc1703d2	-0.009217219
68	0xbc93b97e	-0.018032786
69	0xbd656ebf	-0.05601382
70	0x3dcfeed0	0.10152972
71	0x3dbbbca0	0.09166837
72	0x3d067a83	0.03283168
73	0x3de32bcc	0.11092338
74	0xbc12a0dc	-0.008949485
75	0xbde8b342	-0.11362316
76	0xbd48d64a	-0.049032487
77	0xbd31d557	-0.043416347
78	0x3dbaeed7	0.09127586
79	0x3e05961b	0.13045542
80	0xbb203818	-0.0024447497
81	0xbd4fdc18	-0.050747007
82	0x3e09ced7	0.1345781
83	0xbda93f15	-0.08263985
84	0xbdafe9a7	-0.085894875
85	0xbda3390f	-0.079698674
86	0x3d6895b1	0.05678338
87	0xbde8ec79	-0.113732286
88	0x3db32b16	0.08748452
89	0xbdce94a4	-0.10086945
90	0x399149ad	0.00027711448
91	0xbc6eb529	-0.014569559
92	0xbd52f227	-0.051500466
93	0x3db5b34a	0.08872087
94	0x3dea3229	0.114353485
95	0xbc865bea	-0.01640125
96	0x3df64516	0.12024896
97	0xbbb1c1a9	-0.0054246974
98	0xbdb0dd93	-0.08636012
99	0x3dd0358a	0.10166462
100	0xbe0a1987	-0.134863
101	0x3e118ed0	0.14214635
102	0xbe1e16e1	-0.15438415
103	0xbd060896	-0.032723032
104	0x3d87e1d9	0.06634874
105	0x3c5e9336	0.0135849025
106	0xbe24139c	-0.16023105
107	0xbca04f4c	-0.019569062
108	0x3d97877a	0.07398887
109	0xbd7ca045	-0.061676282
110	0x3d9d1c98	0.076714694
111	0xbe066de5	-0.13127859
112	0xbcc4183e	-0.02393734
113	0x3cfd4a59	0.03091924
114	0xbd8db862	-0.06919934
115	0xbd398989	-0.04529718
116	0x3df9aa89	0.1219073
117	0xbe0a5172	-0.13507631
118	0xbd308ab0	-0.043101013
119	0xbdac34ce	-0.08408509
120	0xbdd55d31	-0.104181655
121	0x3c9d6e5a	0.019217659
122	0xbcf0d481	-0.029398205
123	0xbdfe6c2e	-0.124229774
124	0x3dcc24cb	0.09967955
125	0xbd0c86bc	-0.03430818
126	0xbdeaa917	-0.114580326
127	0x3c8f96cb	0.017527958
128	0xbaf8906c	-0.001896394
129	0x3e023921	0.12717105
130	0xbd861439	-0.06546826
131	0x3a789928	0.0009483271
132	0xbdbc11ea	-0.09183104
133	0xbbeee0d3	-0.0072899847
134	0x3d55217b	0.052033883
135	0xbdbffa38	-0.09373897
136	0x3d346e65	0.044050593
137	0x3d81717a	0.06320472
138	0xbc885c58	-0.016645595
139	0xbd4175e0	-0.047231555
140	0xbdb1bf95	-0.086791195
141	0x3c0d438c	0.008622061
142	0xbdb35d0c	-0.08757982
143	0xbcb47502	-0.02202845
144	0xbdadc4af	-0.0848478
145	0x3dcdebeb	0.100547634
146	0xbcf9f0e3	-0.030510372
147	0xbc55c152	-0.013046579
148	0x3d707dd1	0.058713738
149	0xbd958f3b	-0.0730271
150	0x3da27f83	0.07934477
151	0xbdc626c6	-0.09675364
152	0x3d423cd6	0.0474213
153	0x3d0b9721	0.034079675
154	0xba83f8dc	-0.0010068673
155	0xbcce9f3e	-0.025222417
156	0xbdcefebd	-0.10107181
157	0xbceea3f4	-0.029130913
158	0x3d85a64e	0.06525861
159	0x3d275180	0.04084921
160	0xbdf0708a	-0.11740215
161	0xbb3987be	-0.0028309668
162	0x3e075798	0.13217008
163	0x3e118bfa	0.14213553
164	0xbdf24c31	-0.118309386
165	0xbe0277ac	-0.12740964
166	0x3d6c2e7f	0.05766153
167	0x3e008079	0.12549008
168	0xbd8bf2f1	-0.06833447
169	0xbd827095	-0.063691296
170	0xbdf664bc	-0.12030932
171	0x3cf804b0	0.030275673
172	0x3dcca1f5	0.09991828
173	0xbe002440	-0.12513828
174	0xbdfd5190	-0.123690724
175	0xbb6cba67	-0.0036121847
176	0xbdb8ced3	-0.090238236
177	0xbc5cdeb9	-0.013480836
178	0x3dd521d6	0.10406844
179	0x3c02fa54	0.007994253
180	0x3d7c96b8	0.061667174
181	0x3d22b670	0.039724767
182	0x3ddb9da0	0.10723424
183	0xbd0c2f75	-0.034224946
184	0x3cd52b94	0.026021756
185	0xbe027fed	-0.12744112
186	0xbe07651c	-0.13222164
187	0xbd351df9	-0.044218037
188	0xbcbce54b	-0.023058554
189	0x3b02c932	0.0019956348
190	0x3dcb3ee9	0.099241085
191	0x3de56413	0.11200728
192	0x3d0510fb	0.032486897
193	0xbd117e17	-0.03552064
194	0x3dd2de26	0.10296278
195	0x3c75ac14	0.01499464
196	0xbd907bf6	-0.07054894
197	0xbd0fbb31	-0.03509063
198	0x3d4c8120	0.04992783
199	0xbe07fcb0	-0.13279986
200	0xbd98aeaf	-0.07455193
201	0x3c623992	0.013807671
202	0x3d42d760	0.04756868
203	0x3dff9b8f	0.12480842
204	0xbd85ebb1	-0.06539095
205	0xbd6c1a40	-0.05764222
206	0x3dbe0a83	0.09279349
207	0xbb800523	-0.0039068623
208	0xbd1d8ecf	-0.03846627
209	0xbd95e731	-0.07319487
210	0xbd4a08fe	-0.049324982
211	0xbdf20cf3	-0.11818876
212	0x3dd84a45	0.10561041
213	0x3d5030e5	0.05082788
214	0x3db03e1c	0.086055964
215	0x3dc4ea4e	0.096150026
216	0xbdda2b33	-0.10652771
217	0xbc18b065	-0.0093193995
218	0xbd34f725	-0.044181008
219	0xbdb5c5f0	-0.08875644
220	0x3dbcf28c	0.0922595
221	0xbde877fa	-0.11351009
222	0x3d172ce6	0.036908053
223	0xbd5dbf5b	-0.05413757
224	0xbcc866d8	-0.024463102
225	0x3e02caeb	0.1277272
226	0xbd9f2e8c	-0.0777255
227	0x3e1ff7fc	0.15621942
228	0xbd965742	-0.07340862
229	0x3e198e1e	0.1499562
230	0xbc97b7cf	-0.018520264
231	0xbce68f27	-0.028144432
232	0xbca27ef1	-0.019835921
233	0x3d722b6d	0.059123445
234	0xbe24d5f7	-0.16097246
235	0x3ca6fa82	0.020383123
236	0x3d1c297f	0.03812551
237	0xbe1bcf3c	-0.15215772
238	0xbdc19785	-0.09452728
239	0x3d880ff3	0.06643667
240	0xbd113973	-0.03545518
241	0x3d816123	0.063173555
242	0xbd51f945	-0.051263113
243	0xbdbe068a	-0.09278591
244	0x3e0a312d	0.13495322
245	0x3c17ca42	0.009264531
246	0x3dc74bc1	0.09731246
247	0xbc6eb751	-0.014570073
248	0x3d1f4736	0.03888627
249	0xbdbf2da5	-0.09334878
250	0xbd7cdc2b	-0.061733406
251	0x3db39e99	0.087704845
252	0xbdcd3818	-0.10020465
253	0xbe145c6c	-0.14488381
254	0x3e093f50	0.13403058
255	0xbdffc74e	-0.12489186

conv_layer.conv_layers.1.parametrizations.weight.original f4 [32, 8, 7, 7]
0	0xbcdbf254	-0.02684895
1	0xbd195796	-0.037437044
2	0xbc65cb63	-0.014025542
3	0xbc251b24	-0.010077272
4	0x3c1d3676	0.009595504
5	0x3d24b5e7	0.040212538
6	0x3c932ce8	0.017965749
7	0xbcf71d51	-0.030165346
8	0x3d2f2153	0.04275639
9	0x3d376704	0.044775978
10	0xbd5b9415	-0.05360802
11	0xbcc2ac1a	-0.023763705
12	0x3b941104	0.00451863
13	0xbd1f19fc	-0.03884314
14	0xbd1bce14	-0.03803833
15	0x3c1f1407	0.009709365
16	0x3c6a437a	0.014298314
17	0x3d2ea1d0	0.042634785
18	0xbbf80c4a	-0.0075698243
19	0x3cb540c0	0.022125602
20	0x3d4c7495	0.04991587
21	0x3d440beb	0.04786293
22	0x3b7ba495	0.003839766
23	0xbd61950c	-0.055073783
24	0xbda02c88	-0.07820994
25	0xbd088810	-0.033332884
26	0x3d19d38a	0.037555255
27	0x3b9c8857	0.004776995
28	0xbbd1ddfa	-0.0064046355
29	0xbd8cd605	-0.068767585
30	0x3ca97e48	0.020690098
31	0xbc18ea39	-0.009333187
32	0xbcd1d195	-0.025612632
33	0x3d3973ff	0.045276638
34	0xbd43ed05	-0.04783346
35	0x3b8d9dea	0.0043218033
36	0xbc364451	-0.011124686
37	0xbd4665d3	-0.04843695
38	0xbb5a1f54	-0.0033282833
39	0x3c36811f	0.011139183
40	0xba5d4229	-0.00084403396
41	0x3b76fffc	0.00376892
42	0xbc9887e6	-0.018619489
43	0x3c0aa06a	0.008461097
44	0x3c2f36f0	0.01069425
45	0x3d122df5	0.03568836
46	0x3ccaf9f8	0.024777398
47	0xbd349906	-0.044091247
48	0x3d344191	0.04400784
49	0x3b8a494f	0.004220165
50	0x3cdf8297	0.02728395
51	0xbca5c56d	-0.020235742
52	0x3c93b836	0.018032175
53	0xbd3a78a4	-0.045525208
54	0xbce77202	-0.028252605
55	0x3bde2d97	0.006780337
56	0xbd2e3577	-0.042531457
57	0xbcbaef1d	-0.022819096
58	0x3abe5bd1	0.0014523213
59	0x3c62b3f9	0.013836854
60	0xbc64f28b	-0.013973842
61	0x3b7534e2	0.0037415554
62	0x3c20e4d3	0.009820181
63	0x3d001659	0.031271312
64	0x3bd8427f	0.006599724
65	0xbcb32c33	-0.021871662
66	0xbd3481ea	-0.04406921
67	0xbb2f05ca	-0.0026706331
68	0xbd186c81	-0.037212852
69	0x3b859779	0.004076895
70	0x3cbd5774	0.02311299
71	0xbca74ef4	-0.02042339
72	0xbd050be9	-0.03248206
73	0x3c373091	0.011181013
74	0x3d0d1837	0.03444692
75	0x3c891a9f	0.016736327
76	0xbd10ee4a	-0.0353835
77	0xbd1c1fab	-0.03811614
78	0x3cc9e98b	0.024647495
79	0x3d43e15d	0.047822345
80	0x3ced18ef	0.028942553
81	0x3cc95867	0.024578286
82	0xbd6a0983	-0.057137977
83	0xbd00a621	-0.031408433
84	0x3ca808bc	0.020511977
85	0x3b690018	0.0035553034
86	0x3cd8b54a	0.026453633
87	0x3c6fd12d	0.014637274
88	0xbd3c135b	-0.045916896
89	0xbcf37bcc	-0.029722117
90	0x3ccc1b69	0.024915414
91	0x3d0efeee	0.03491109
92	0xbca61537	-0.020273788
93	0xbc863942	-0.016384725
94	0xbd410e54	-0.047132805
95	0x3c1c45c1	0.009538115
96	0x3d29eb12	0.041483946
97	0x3d06f3e9	0.032947455
98	0xbce91f90	-0.028457433
99	0xbb89fb1c	-0.004210843
100	0x3b453e97	0.003009712
101	0xbd6abf87	-0.05731156
102	0xbc338c69	-0.010958769
103	0x3b29f0ce	0.0025930884
104	0x3ba58e64	0.0050523747
105	0x3c530a9e	0.012880949
106	0xbcf17361	-0.029473962
107	0xbd0780ab	-0.03308169
108	0x3d2f9c94	0.042873934
109	0x3c9c616b	0.019089421
110	0x3d146505	0.036229152
111	0x3d1797e1	0.037010077
112	0xbaa5c6a7	-0.0012647704
113	0xbb214354	-0.002460678
114	0x3b71906f	0.003685977
115	0xbcd65378	-0.026162848
116	0x3c588e7f	0.0132175675
117	0x3ceba3b1	0.028764578
118	0x3b408ba5	0.002938011
119	0x3d6aa88f	0.057289656
120	0x3d36be9f	0.044615384
121	0x3cb2cff9	0.021827685
122	0x3c68d96e	0.0142119955
123	0xbd884139	-0.06653065
124	0xbca5ab4c	-0.020223282
125	0xbd619ec0	-0.055083036
126	0xbccaaf71	-0.02474186
127	0x3cef9f8f	0.029250888
128	0x3c95426f	0.018220155
129	0xbd4e6203	-0.05038644
130	0xbb99c062	-0.0046921233
131	0xbd2a68a3	-0.041603696
132	0x3d5fb2e0	0.054613948
133	0xbc86a268	-0.016434863
134	0x3b09d5b2	0.0021031913
135	0xbd4381a3	-0.047731053
136	0x3d3af811	0.04564673
137	0x3d178e3d	0.037000883
138	0xbd51e0ff	-0.051239964
139	0x3d32aec3	0.043623697
140	0xbc6d16c4	-0.01447076
141	0x3caaeb5e	0.020864185
142	0xbd06106d	-0.03273051
143	0x3afbce07	0.0019211181
144	0xbbde0fd9	-0.0067767915
145	0xbc51f890	-0.01281561
146	0xbd348e18	-0.044080824
147	0x3cfd3075	0.030906895
148	0xbc6cbcdf	-0.014449327
149	0x3d098c94	0.03358133
150	0xbd2ccd7c	-0.042188153
151	0x3aa724ab	0.0012752017
152	0x3b22f307	0.0024864094
153	0xbc261277	-0.010136238
154	0xbcd3e00a	-0.025863666
155	0x3c2af18c	0.010433566
156	0x3ccda342	0.025102261
157	0xba101998	-0.0005496978
158	0xbc9ac18b	-0.018891117
159	0xbc8e48d1	-0.017368706
160	0xbd0603e9	-0.032718573
161	0xbd21a82a	-0.039467014
162	0x3c4803f3	0.012207973
163	0xbc438c3a	-0.011935288
164	0xbbb80b88	-0.005616609
165	0xbc973d97	-0.018461986
166	0x3cd10e66	0.025519561
167	0x3caa91af	0.02082142
168	0x3cce1301	0.025155546
169	0x3d122936	0.035683833
170	0xbd2449e8	-0.040109545
171	0x3c1d3ef0	0.009597525
172	0xbcf86db2	-0.030325744
173	0x3c0d8d1c	0.0086396
174	0x3c8ae45e	0.016954597
175	0xbbcebd88	-0.006309215
176	0x3d0e6bd6	0.03477081
177	0xbcb6ffda	-0.022338796
178	0x3c458641	0.012055934
179	0xbd130c99	-0.035900686
180	0x3d59da59	0.05318675
181	0xbb8f8dcf	-0.0043809186
182	0x3ccdd238	0.025124654
183	0xbd434b4c	-0.04767923
184	0xbb9e2df4	-0.0048272554
185	0x3d466f06	0.048445724
186	0x3d126c49	0.0357478
187	0xbcc727b0	-0.024310917
188	0xbc6a7915	-0.014311095
189	0x3a9d95e3	0.0012022819
190	0xbbff12b5	-0.0077842125
191	0x3b8717c9	0.0041227085
192	0xbd60eab8	-0.054911345
193	0x3cb3d4c9	0.02195205
194	0xbc1684a5	-0.009186898
195	0xbbf80b73	-0.007569724
196	0x3b37a160	0.002801977
197	0xbd180b2c	-0.03712003
198	0xbb9c38a3	-0.004767494
199	0xbd48f336	-0.04906007
200	0x3d23f597	0.040029135
201	0x3d294d0b	0.04133324
202	0xbd1bf3ed	-0.038074423
203	0xbd40f1e5	-0.04710569
204	0x3d50fa0c	0.051019713
205	0x3d0dc759	0.03461394
206	0x3ca8851a	0.02057128
207	0x3d90803a	0.07055707
208	0x3d2f8b0c	0.042857215
209	0x3d0c6778	0.034278363
210	0x3cac3d12	0.021025214
211	0xbb2b8f3b	-0.0026177901
212	0x3d14c328	0.036318928
213	0xbb581e94	-0.003297721
214	0x3d00f5c9	0.0314844
215	0x3b49fde1	0.003082149
216	0xbc0138b3	-0.007887053
217	0x3d7d34ae	0.061817817
218	0xbc5de114	-0.013542432
219	0x3cb078fe	0.021542069
220	0xbc5d8aa7	-0.013521827
221	0xbc876372	-0.016526911
222	0x3ccd5b7a	0.025068033
223	0xbd3588d3	-0.04431994
224	0xbb1bc045	-0.0023765725
225	0xbc8675df	-0.016413627
226	0x3d273e46	0.040830873
227	0x3b94b82a	0.0045385556
228	0x3ce86952	0.028370533
229	0xbd495667	-0.049154665
230	0x3d4921e8	0.0491046
231	0x3cc8d70e	0.024516609
232	0xbcf3e47d	-0.029772038
233	0x3c416daf	0.011805936
234	0x3d83d67a	0.064373925
235	0xbda3d6f6	-0.07999985
236	0x3b5332b8	0.0032226276
237	0xbcbde362	-0.023179714
238	0x3c11f1af	0.0089077195
239	0x3cb5bb2a	0.022183973
240	0x3d12e462	0.035862334
241	0xbd855e58	-0.06512135
242	0x3bfcce8c	0.007715052
243	0xbbce3cd7	-0.006293874
244	0xbcb9e0bb	-0.022690168
245	0x3c3f9287	0.01169265
246	0xbd175877	-0.0369496
247	0xbb7343f4	-0.003711936
248	0xbd2141ea	-0.0393695
249	0x3c5842bf	0.013199507
250	0x3ccc1da6	0.024916481
251	0xbcfd5520	-0.03092438
252	0x3c5b8667	0.013398743
253	0x3d27f9de	0.041009776
254	0xbcb65764	-0.022258468
255	0x3d6dfe10	0.05810362

activation.coefficients_vect f4 [672]
0	0x80000000	-0.0
1	0x39e115ec	0.00042931677
2	0x3945a280	0.0001884792
3	0x38ad87ac	8.274554e-05
4	0x378bb017	1.665209e-05
5	0xb7d623b2	-2.552741e-05
6	0xb92d3f23	-0.00016522086
7	0xb94992d3	-0.0001922355
8	0xb94628cc	-0.0001889795
9	0xb986d19b	-0.0002571464
10	0xb98cb88f	-0.00026840388
11	0x3998d4b7	0.00029150184
12	0x398501ab	0.0002536898
13	0x399bf6b2	0.00029747706
14	0x394e61c7	0.00019682116
15	0x38889d8a	6.514329e-05
16	0x384b8924	4.8526694e-05
17	0x386986e0	5.567714e-05
18	0xb8b08f8e	-8.419073e-05
19	0xb9c0632f	-0.0003669499
20	0x00000000	0.0
21	0x80000000	-0.0
22	0x393986e2	0.00017693223
23	0x380cbdbd	3.355531e-05
24	0xb7b3a530	-2.1415384e-05
25	0xb8b9fb03	-8.868242e-05
26	0xb933f9ca	-0.00017163824
27	0xb99a1988	-0.0002939219
28	0xba07e0b0	-0.00051833224
29	0xba08545a	-0.00052005576
30	0xba4d1671	-0.00078234734
31	0x398d702f	0.000269772
32	0x3a583590	0.00082477275
33	0x39ff4cd5	0.00048694634
34	0x39eb8a2a	0.00044925633
35	0x39bd9e65	0.00036166902
36	0x397f2927	0.00024334026
37	0x39408260	0.00018359115
38	0x3897d593	7.2400224e-05
39	0xb8d1f46c	-0.00010011424
40	0xb9bceeef	-0.00036036174
41	0x00000000	0.0
42	0x80000000	-0.0
43	0x397f9638	0.00024374656
44	0x3862072c	5.388928e-05
45	0xb8918c86	-6.940313e-05
46	0xb92183a6	-0.000154032
47	0xb9874297	-0.0002579882
48	0xb98b3824	-0.00026553974
49	0xb9b191c4	-0.00033868675
50	0xb9cfb5d6	-0.00039617595
51	0xb9b714a5	-0.0003491986
52	0x397ec6f3	0.00024297442
53	0x39dea442	0.0004246552
54	0x39d1945d	0.00039974126
55	0x39c9651b	0.00038413037
56	0x39843de6	0.0002522312
57	0x38dd8f26	0.00010564765
58	0x38c4a5dc	9.376902e-05
59	0x3882ff7c	6.246471e-05
60	0x37232029	9.723045e-06
61	0xb9321c6c	-0.00016985991
62	0x00000000	0.0
63	0x80000000	-0.0
64	0x39706ce8	0.00022928754
65	0x38937984	7.03214e-05
66	0x37aebe5e	2.0831063e-05
67	0xb8e9b17a	-0.000111433634
68	0xb97eb78b	-0.00024291703
69	0xb99984c7	-0.0002928136
70	0xb9b7fa98	-0.00035091187
71	0xb9bc4a11	-0.00035913338
72	0xb9b3aa41	-0.0003426839
73	0x39bd9d74	0.000361662
74	0x39b9450c	0.00035337394
75	0x39a82335	0.00032069688
76	0x397f5e52	0.00024353832
77	0x395d2bf2	0.00021092573
78	0x395882aa	0.00020648041
79	0x3927bce6	0.00015996731
80	0xb83de41d	-4.527356e-05
81	0xb8c8f14a	-9.581687e-05
82	0xb90560de	-0.00012719954
83	0x00000000	0.0
84	0x80000000	-0.0
85	0x3999b488	0.0002931694
86	0x38ad2e12	8.257864e-05
87	0xb877b748	-5.9060083e-05
88	0xb906398e	-0.00012800677
89	0xb98c93aa	-0.000268129
90	0xb9bfc7e1	-0.0003657928
91	0xb9d55c81	-0.00040695447
92	0xb9f1b80c	-0.00046104228
93	0xba1813d1	-0.0005801293
94	0x39cbab40	0.00038846768
95	0x3a0462e5	0.0005050137
96	0x3a0a6154	0.0005278785
97	0x39d5341a	0.00040665345
98	0x39a973ec	0.0003232056
99	0x3984b11f	0.00025308967
100	0x39353e32	0.00017284675
101	0x37566b98	1.2780445e-05
102	0xb8b6d708	-8.718489e-05
103	0xb9cbf937	-0.00038904857
104	0x00000000	0.0
105	0x80000000	-0.0
106	0x39b37558	0.00034228968
107	0x39a2827b	0.00030996263
108	0x36ebca1f	7.0270758e-06
109	0x37675dcc	1.3790512e-05
110	0x37b470d5	2.1510214e-05
111	0xb80ff7eb	-3.432475e-05
112	0xb82ad0bc	-4.0725557e-05
113	0xb8a97d10	-8.081843e-05
114	0xb8a58a64	-7.8935904e-05
115	0x36f4af95	7.292207e-06
116	0x38ad9f36	8.278938e-05
117	0x38d183e4	9.990463e-05
118	0x38178928	3.6128942e-05
119	0x384655ce	4.728679e-05
120	0xb786986a	-1.6045018e-05
121	0xb87404af	-5.8178495e-05
122	0xb8dde530	-0.00010580791
123	0xb92f2b4d	-0.00016705431
124	0xb98160db	-0.0002467696
125	0x00000000	0.0
126	0x80000000	-0.0
127	0x399054cb	0.00027528996
128	0x36cbc030	6.072245e-06
129	0xb800f98e	-3.0749994e-05
130	0xb8a4b0fa	-7.853094e-05
131	0xb90716a1	-0.00012883033
132	0xb92fa636	-0.00016751219
133	0xb931b085	-0.00016945794
134	0xb91985fb	-0.00014641129
135	0xb935adb2	-0.00017326212
136	0x396407eb	0.00021746724
137	0x395301c4	0.00020123186
138	0x393d89b2	0.0001807574
139	0x39557b1f	0.00020359129
140	0x3938f25e	0.00017637896
141	0x38c88051	9.560644e-05
142	0xb7eaf214	-2.80077e-05
143	0xb879a208	-5.951713e-05
144	0xb90d1aad	-0.00013456745
145	0xb95fb449	-0.00021334099
146	0x00000000	0.0
147	0x80000000	-0.0
148	0x399a0181	0.0002937429
149	0x392135f9	0.00015374263
150	0x384048eb	4.5844277e-05
151	0xb7d150ec	-2.4952424e-05
152	0xb80925da	-3.2698597e-05
153	0xb91457b9	-0.00014147059
154	0xb913ae75	-0.00014084003
155	0xb90df0ed	-0.0001353656
156	0xb92e6106	-0.00016630077
157	0x390d69dc	0.00013486244
158	0x392c27d2	0.00016418032
159	0x392c9126	0.0001645727
160	0x391272a0	0.00013966346
161	0x389733ad	7.2098665e-05
162	0x3889beb0	6.5681874e-05
163	0x384e9de7	4.9261285e-05
164	0xb751ed2c	-1.2512592e-05
165	0xb918f02b	-0.00014585319
166	0xb9919de0	-0.0002777418
167	0x00000000	0.0
168	0x80000000	-0.0
169	0x399f1f80	0.00030350313
170	0x39965727	0.00028675163
171	0x38c0df6d	9.19689e-05
172	0x36b0b386	5.266108e-06
173	0xb86593af	-5.4735396e-05
174	0xb91d6f77	-0.0001501421
175	0xb954b15a	-0.00020283964
176	0xb9531cd7	-0.00020133272
177	0xb9671201	-0.00022036584
178	0x393c0a4a	0.0001793291
179	0x3909f517	0.00013156641
180	0x39047e15	0.0001263547
181	0x38ec5ed8	0.00011271023
182	0x38bb0526	8.917814e-05
183	0x384670b5	4.7311845e-05
184	0x3856e870	5.123805e-05
185	0xb70483f2	-7.898534e-06
186	0xb9192260	-0.00014604023
187	0xb93425a3	-0.00017180158
188	0x00000000	0.0
189	0x80000000	-0.0
190	0x39e5aef9	0.00043808648
191	0x39dacd15	0.00041732998
192	0x392b3c15	0.00016330213
193	0x38a9c4a8	8.095178e-05
194	0xb7f20139	-2.8849217e-05
195	0xb9188ac8	-0.0001454755
196	0xb92580c9	-0.00015783602
197	0xb9cc3dfc	-0.00038956094
198	0xb9eb082f	-0.0004482879
199	0x39c25b46	0.00037070567
200	0x39cdab85	0.0003922844
201	0x39b99752	0.00035398692
202	0x39a6d7be	0.00031822728
203	0x392e86e1	0.0001664418
204	0x392d5660	0.00016530743
205	0x39195993	0.00014624586
206	0xb6d92494	-6.471362e-06
207	0xb7cf3ece	-2.4705569e-05
208	0xb9c545b2	-0.00037626695
209	0x00000000	0.0
210	0x80000000	-0.0
211	0xb99d032b	-0.00029947734
212	0xb99d054e	-0.00029949326
213	0xb99d06e4	-0.00029950507
214	0xb99d0738	-0.00029950752
215	0xb99d0775	-0.0002995093
216	0xb99d0793	-0.00029951017
217	0xb99d07a9	-0.0002995108
218	0xb99d07b0	-0.000299511
219	0xb9d4e201	-0.00040604177
220	0xb9c5235e	-0.0003760112
221	0x39dd17e4	0.00042170205
222	0x39dc504e	0.00042021502
223	0x39d4a9d0	0.0004056231
224	0x39a4d8ad	0.00031441954
225	0x3985da28	0.00025530276
226	0x38f881ed	0.00011849762
227	0x382dd9ca	4.1449246e-05
228	0xb9138ba3	-0.00014071031
229	0xb9d088f8	-0.000397749
230	0x00000000	0.0
231	0x80000000	-0.0
232	0x39d44bc3	0.00040492238
233	0x39970ed8	0.00028812024
234	0x38d5dedf	0.000101981444
235	0xb724a4e4	-9.813553e-06
236	0xb83acd4d	-4.4537057e-05
237	0xb8daea93	-0.00010438743
238	0xb959e59d	-0.0002078027
239	0xb9632eed	-0.00021665888
240	0xb9888a64	-0.0002604305
241	0xb9d5b307	-0.00040759912
242	0x3995ad61	0.00028548672
243	0x3980729e	0.0002449946
244	0x39360064	0.00017357018
245	0x392ba870	0.00016370579
246	0x38c58651	9.4187104e-05
247	0xb86aab71	-5.5949615e-05
248	0xb8d33906	-0.000100718855
249	0xb9280df7	-0.00016026931
250	0xb9bfb677	-0.00036566306
251	0x00000000	0.0
252	0x80000000	-0.0
253	0x3913c0c3	0.00014090822
254	0x3836b111	4.3557087e-05
255	0xb818f865	-3.647096e-05
