trained_models/IOD_Training/crr_nn_best_model_25.pth (torch, 57674 bytes, 3 tensors)

conv_layer.conv_layers.0.parametrizations.weight.original f4 [8, 1, 7, 7]
-0.021033801 -0.010613363 -0.04500004 0.04101367 0.1538844 -0.16552782 0.03551873 -0.11830136
0.010070443 0.08749052 0.015942309 -0.030209288 0.05954121 0.13062252 0.04833026 0.13401613
-0.13527328 -0.084849685 0.16870664 -0.12323659 -0.13873032 -0.04511705 0.009952365 -0.054050732
0.013216759 0.12214088 -0.10111727 0.13173327 -0.07025029 -0.029965818 0.08218036 -0.1542561
0.07864449 0.08978942 0.048185673 -0.00027508067 0.17050675 -0.11683945 -0.11228532 -0.056311615
0.04532558 -0.013887955 -0.015756497 0.08028749 -0.09082933 -0.13049246 0.09658526 0.042235404
0.056085553 -0.040824313 0.06633456 0.0989735 -0.1326852 -0.1502555 0.16683586 -0.12179652
0.06220953 -0.0013464609 0.08319419 0.146322 -0.111135654 0.090305045 0.114548706 0.0827178
0.085212015 -0.16915467 -0.034342222 0.12535119 0.073569275 -0.13362618 -0.016834754 0.052546825
-0.08431268 0.059760824 0.06705314 -0.055738218 -0.04245334 0.08069096 -0.10650867 0.060740728
-0.06383047 0.1954477 -0.09681185 0.14456296 0.03616105 0.0457487 0.12524031 -0.010557336
-0.0077093546 -0.138348 0.16646707 0.027729237 0.13224484 -0.095804155 -0.00502348 -0.065703206
-0.084852986 0.09419613 -0.03324645 -0.066516325 -0.029012442 0.00077638484 -0.13679469 0.06538831
0.07630699 0.011360824 -0.033124276 0.19020668 0.03058292 0.03413419 0.12100813 0.05601986
0.0123443995 0.18533762 -0.18475214 0.04007271 0.1790639 -0.063963465 0.084582634 0.16414493
-0.11366612 -0.0973982 0.016381241 -0.129021 -0.020013327 -0.04576792 -0.036385752 -0.18556894
-0.011863522 -0.13694456 0.07416789 -0.09737942 -0.16228625 0.027173694 0.14259583 0.0935213
-0.04812343 -0.060881454 0.03549589 0.08776519 -0.05017117 0.059548426 -0.030137915 -0.04193121
0.14910346 -0.13315992 0.039217316 -0.14996648 0.10943869 0.052677177 -0.10909718 0.098807506
0.060922988 0.08688134 0.015795892 -0.02209959 -0.0033232812 -0.16171528 -0.1101789 -0.011661025
0.03338667 0.019722404 0.076209836 0.16265509 0.11838304 0.0992853 -0.0752949 -0.11200051
-0.023324948 0.13307019 -0.15826227 0.09782112 -0.14008848 -0.07325507 0.0025092617 -0.030387362
0.002800372 -0.20773855 0.18953572 -0.061885905 0.060557224 0.09897693 -0.09972874 -0.09836812
0.17168437 -0.060009085 0.085112 0.1052042 0.04263764 0.15381049 0.0010478481 0.047541916
-0.04628707 -0.15141399 0.08790584 0.007302389 -0.06354327 0.104075424 0.13554634 0.018103695
-0.09058191 0.026149182 -0.064517565 0.06349661 -0.03954185 0.011943751 0.082039945 -0.11034819
0.004151136 -0.09478234 0.10903187 0.058027685 -0.09708142 -0.041713424 0.11254194 0.095472805
-0.04543773 0.09825779 -0.1651007 0.118539765 -0.077776216 -0.17640579 0.10649903 0.08633733
0.08034765 -0.1097222 -0.11890425 0.13550757 0.027332509 -0.14293945 0.07146478 0.0105654625
0.03640658 -0.10793483 -0.07449033 0.18390602 0.08940217 -0.10113189 -0.028482772 0.13643011
-0.026723275 -0.074581034 -0.02761857 0.04082173 -0.056649193 -0.0346392 -0.037097353 -0.049938403
0.14700003 -0.16979222 0.043475617 -0.08844937 -0.14148384 -0.13410121 -0.16437876 0.14251612
00000000: 144f acbc ace3 2dbc f651 38bd f3fd 273d
00000010: df93 1d3e 2080 29be 167c 113d fc47 f2bd
00000020: 80fe 243c 3b2e b33d 7299 823c 7879 f7bc
00000030: 7ce1 733d e9c1 053e f3f5 453d 863b 093e
00000040: 1485 0abe acc5 adbd 6fc1 2c3e 7763 fcbd
00000050: 520f 0ebe a8cc 38bd 3f0f 233c 4d64 5dbd
00000060: 1b8b 583c ff24 fa3d 9216 cfbd 16e5 063e
00000070: 62df 8fbd e07a f5bc 2d4e a83d 50f5 1dbe
00000080: 5d10 a13d 84e3 b73d 575e 453d b438 90b9
00000090: 5299 2e3e 8649 efbd d9f5 e5bd 02a7 66bd
000000a0: 51a7 393d 4e8a 63bc c513 81bc c46d a43d
000000b0: ba04 babd d19f 05be 7ece c53d 08ff 2c3d
000000c0: f7b9 653d 6537 27bd 6ada 873d 9eb2 ca3d
000000d0: a1de 07be 94dc 19be 05d7 2a3e 7470 f9bd
000000e0: 6ccf 7e3d bb7b b0ba b761 aa3d 6fd5 153e
000000f0: 179b e3bd daf1 b83d 8398 ea3d f367 a93d
00000100: a383 ae3d e236 2dbe 6eaa 0cbd 105c 003e
00000110: 7dab 963d 4dd5 08be 0ae9 89bc 573b 573d
00000120: 20ac acbd c4c7 743d 2853 893d c24d 64bd
00000130: 8ee3 2dbd 4d41 a53d 3821 dabd 45cb 783d
00000140: 8db9 82bd 7123 483e 4b45 c6bd 5008 143e
00000150: 9c1d 143d fd62 3b3d ff3e 003e adf8 2cbc
00000160: c19e fcbb 19ab 0dbe 5876 2a3e 6d28 e33c
00000170: 316b 073e f834 c4bd 019c a4bb 678f 86bd
00000180: 67c7 adbd e7e9 c03d 6e2d 08bd b639 88bd
00000190: 80ab edbc 4e86 4b3a e813 0cbe 4eea 853d
000001a0: d746 9c3d c022 3a3c 52ad 07bd 8ac5 423e
000001b0: 0889 fa3c 4bd0 0b3d 1cd3 f73d 1575 653d
000001c0: 2a40 4a3c 25c9 3d3e aa2f 3dbe 4823 243d
000001d0: 875c 373e 47ff 82bd a939 ad3d 9c15 283e
000001e0: c8c9 e8bd b578 c7bd f431 863c 151e 04be
000001f0: fdf2 a3bc 2477 3bbd 3a09 15bd c905 3ebe
00000200: 385f 42bc 323b 0cbe 56e5 973d dd6e c7bd
00000210: 5e2e 26be 5e9b de3c a404 123e 1888 bf3d
00000220: 131d 45bd d55e 79bd 2364 113d 3cbe b33d
00000230: 4980 4dbd 0de9 733d cae3 f6bc 0fc0 2bbd
00000240: 94ae 183e 135b 08be 56a2 203d d090 19be
00000250: 6421 e03d 06c4 573d 586e dfbd 975b ca3d
00000260: 628a 793d d8ee b13d 6366 813c 330a b5bc
00000270: 68cb 59bb b198 25be 7aa5 e1bd e20d 3fbc
00000280: 76c0 083d e190 a13c e713 9c3d 0e8f 263e
00000290: cf72 f23d 1756 cb3d 3634 9abd 8660 e5bd
000002a0: f613 bfbc 8d43 083e 810f 22be 7056 c83d
000002b0: 5b73 0fbe c106 96bd 6d72 243b ebee f8bc
000002c0: 7286 373b 6ab9 54be a715 423e 137c 7dbd
000002d0: da0a 783d 6bb4 ca3d 953e ccbd 3a75 c9bd
000002e0: 07ce 2f3e 16cc 75bd 334f ae3d 4d75 d73d
000002f0: cea4 2e3d 7f80 1d3e f357 893a 50bb 423d
00000300: 8397 3dbd 450c 1bbe fa07 b43d e148 ef3b
00000310: f922 82bd 7f25 d53d a9cc 0a3e 334e 943c
00000320: 0283 b9bd cf36 d63c c921 84bd 830a 823d
00000330: a3f6 21bd b9af 433c 8f04 a83d 3bfe e1bd
00000340: 4106 883b 3e1d c2bd 1a4c df3d 70ae 6d3d
00000350: a0d2 c6bd b2db 2abd 637c e63d 3f87 c33d
00000360: ea1c 3abd 613b c93d 2810 29be fac4 f23d
00000370: 2349 9fbd b8a3 34be 2a1c da3d a0d1 b03d
00000380: 4f8d a43d 08b6 e0bd 1284 f3bd 7fc2 0a3e
00000390: 6de8 df3c b85e 12be 205c 923d c31a 2d3c
000003a0: 111f 153d f00c ddbd 638e 98bd dc51 3c3e
000003b0: 7c18 b73d 3d1e cfbd b454 e9bc 56b4 0b3e
000003c0: c5ea dabc f1bd 98bd 5740 e2bc b034 273d
000003d0: fc08 68bd d5e1 0dbd 65f3 17bd 368c 4cbd
000003e0: 2d87 163e 03de 2dbe 7d13 323d f124 b5bd
000003f0: 24e1 10be d451 09be e852 28be bfef 113e

conv_layer.conv_layers.1.parametrizations.weight.original f4 [32, 8, 7, 7]
0.0037831734 0.046291146 0.0841494 -0.055540986 0.038905773 0.04221323 0.021875273 -0.014330334
-0.01910893 0.07723939 -0.02239609 0.01687675 0.002040767 -0.011468303 0.047917876 -0.049440254
-0.009136875 0.009391156 0.030832706 0.015832938 -0.025903374 0.034942664 -0.06862283 0.008038655
-0.012307135 -0.059263937 -0.03277029 -0.016749823 0.0337893 -0.066002175 0.026791494 0.057813384
-0.039630778 0.049135797 0.004798248 -0.051248 -0.01948224 -0.048886597 -0.065447345 0.028897585
0.021651091 -0.044186037 0.05681188 0.008353513 0.028517373 0.044226553 -0.06652567 -0.04681917
0.009299525 0.09079046 0.012006238 -0.02899801 -0.001382781 -0.012747815 0.0126314415 -0.05397929
0.019892998 0.039065864 0.030180307 0.020726444 -0.07419657 -0.018865425 0.034530718 -0.021182174
-0.005182877 0.063730784 -0.08242102 -0.008176521 -0.03900352 -0.012115973 -0.0015750419 0.0029261291
0.026274057 -0.075878076 0.0778022 0.009063689 -0.033056244 0.00086052093 -0.03447417 0.00735693
-0.02474898 0.005333523 0.04392643 0.07027469 0.032484576 0.016204542 -0.09709359 0.02129077
0.0013486084 -0.085032344 -0.0130484095 -0.05588448 0.01787761 0.06491298 0.05678864 -0.012304043
0.022973906 0.035275143 0.026549816 -0.072478 0.052716866 -0.07358558 -0.022167366 0.011132536
0.03266121 0.0030356538 0.09105351 -0.07996997 -0.027631285 0.0107357325 0.021601727 -0.028747315
0.009698203 -0.01136653 0.03843312 0.035142213 -0.04856433 -0.04071376 0.03842672 -0.017049689
0.008117329 0.006675509 -0.05874565 -0.036830433 -0.045079656 0.058721486 0.007275896 -0.03987513
-0.029741284 0.050486952 -0.003813169 -0.03222199 0.104955435 0.04529889 0.010991697 0.045978438
0.01761583 0.042397544 -0.0116378255 -0.070041396 -0.021876436 0.016464094 -0.010295087 0.012153629
-0.024823906 -0.0052477466 0.04624375 0.060534436 0.04623048 -0.061907917 0.017053256 0.036026333
-0.07757484 0.03674091 0.003757804 0.06570653 0.05633322 -0.047903012 -0.014669118 -0.06845913
-0.051270574 -0.055472344 -0.021818848 0.02444941 0.07615832 -0.08408603 0.047602512 0.03540331
0.0718532 -0.007194846 -0.04471715 -0.052047838 -0.057288885 0.07756922 0.025126327 -0.034660257
0.041576587 0.0813613 -0.0101474635 -0.0048803524 -0.009079473 -0.08297431 0.017073078 -0.02011552
-0.101246044 0.030879816 0.0689203 0.04932193 0.0003464356 -0.08116956 0.070724785 -0.015875997
-0.0563822 0.0017175656 -0.051796585 -0.006411669 0.018635571 -0.02577476 -0.049979556 -0.015353229
0.0421259 0.053219825 -0.031531468 0.0055666408 0.012655283 -0.0026064808 -0.005474402 0.008590036
0.013014749 0.010830143 0.05268972 -0.057614684 -0.06464323 -0.006424882 -0.03924734 -0.028908182
-0.0050352262 -0.01954791 0.0013778971 0.026451731 -0.09410895 0.049678158 0.00850795 0.03892044
-0.08198061 -0.07904244 0.05323815 -0.013420434 0.0009690464 -0.016333906 0.068486184 0.003584478
0.05186987 -0.05706604 -0.01881972 0.04795103 -0.034062948 -0.029500756 -0.06797213 0.0094039235
0.012944034 -0.09564283 0.06165864 -0.030133028 -0.02152675 -0.05647823 -0.00080111646 -0.016242884
0.019479591 0.0073935073 -0.06949542 -0.05379655 0.017893448 0.0077234735 -0.10897745 -0.021732736
00000000: 1eef 773b c99b 3d3d 8556 ac3d f27e 63bd
00000010: a95b 1f3d c8e7 2c3d c633 b33c c7c9 6abc
00000020: 558a 9cbc af2f 9e3d 0178 b7bc 1c41 8a3c
00000030: 64be 053b 8de5 3bbc 8945 443d dd81 4abd
00000040: d5b2 15bc 5ddd 193c df94 fc3c 14b4 813c
00000050: 5033 d4bc 0a20 0f3d 208a 8cbd 90b4 033c
00000060: dea3 49bc bebe 72bd 243a 06bd ed36 89bc
00000070: a666 0a3d 262c 87bd d679 db3c bacd 6c3d
00000080: e253 22bd 9e42 493d 9f3a 9d3b 6ce9 51bd
00000090: 3899 9fbc 503d 48bd 4209 86bd a1ba ec3c
000000a0: a15d b13c 6bfc 34bd 93b3 683d 2cdd 083c
000000b0: 449d e93c e726 353d 9c3e 88bd 75c5 3fbd
000000c0: 095d 183c 59f0 b93d d0b5 443c 3c8d edbc
000000d0: 6e3e b5ba 36dc 50bc 1bf4 4e3c 6319 5dbd
000000e0: a4f6 a23c 8703 203d b13c f73c 81ca a93c
000000f0: 5ff4 97bd aa8b 9abc 1570 0d3d 3d86 adbc
00000100: 20d5 a9bb 4985 823d 5acc a8bd d1f6 05bc
00000110: 28c2 1fbd 1382 46bc a371 ceba 4dc4 3f3b
00000120: b13c d73c f765 9bbd c356 9f3d de7f 143c
00000130: fc65 07bd 9594 613a ca34 0dbd 6712 f13b
00000140: 5fbe cabc d5c4 ae3b 33ec 333d 2dec 8f3d
00000150: 8c0e 053d 63bf 843c 01d9 c6bd fb69 ae3c
00000160: cac3 b03a 7025 aebd ffc8 55bc 20e7 64bd
00000170: 1174 923c 19f1 843d 349b 683d e696 49bc
00000180: c633 bc3c ab7c 103d 007f d93c 586f 94bd
00000190: a4ed 573d 09b4 96bd 5698 b5bc 3e65 363c
000001a0: c3c7 053d d2f1 463b 437a ba3d 4cc7 a3bd
000001b0: 015b e2bc ede4 2f3c 1bf6 b03c 7d7f ebbc
000001c0: 36e5 1e3c af3a 3abc 0c6c 1d3d 48f1 0f3d
000001d0: 64eb 46bd 79c3 26bd 5665 1d3d caab 8bbc
000001e0: 8cfe 043c 3abe da3b 479f 70bd 82db 16bd
000001f0: 72a5 38bd f185 703d a46a ee3b 1b54 23bd
00000200: fea3 f3bc 68cb 4e3d 5ce6 79bb 35fb 03bd
00000210: e0f2 d63d 548b 393d 8516 343c e353 3c3d
00000220: 134f 903c 0ca9 2d3d 94ac 3ebc dd71 8fbd
00000230: 3636 b3bc b5df 863c b9ac 28bc 0420 473c
00000240: 815b cbbc 4af5 abbb 166a 3d3d f5f2 773d
00000250: 2c5c 3d3d 2893 7dbd 45b3 8b3c 5990 133d
00000260: 8fdf 9ebd a37d 163d 7d45 763b 2591 863d
00000270: aabd 663d f335 44bd be56 70bc 4d34 8cbd
00000280: 1801 52bd f836 63bd 71bd b2bc 214a c83c
00000290: e5f8 9b3d 4c35 acbd dafa 423d 1003 113d
000002a0: c527 933d bec2 ebbb 5529 37bd 1d30 55bd
000002b0: c0a7 6abd 9cdc 9e3d bad5 cd3c eaf7 0dbd
000002c0: 364c 2a3d c1a0 a63d 8c41 26bc 5deb 9fbb
000002d0: 12c2 14bc 6fee a9bd d7dc 8b3c 4ec9 a4bc
000002e0: 165a cfbd abf7 fc3c 1626 8d3d cb05 4a3d
000002f0: cda1 b539 3a3c a6bd 28d8 903d 610e 82bc
00000300: 06f1 66bd f01f e13a a828 54bd fa18 d2bb
00000310: a0a9 983c 9725 d3bc 5db7 4cbd 1c8c 7bbc
00000320: 358c 2c3d 08fd 593d 2427 01bd 5e68 b63b
00000330: 1b58 4f3c 7ed1 2abb 9d62 b3bb 39bd 0c3c
00000340: d03b 553c e970 313c 2dd1 573d 60fd 6bbd
00000350: ab63 84bd d187 d2bb d2c1 20bd dad0 ecbc
00000360: 8afe a4bb f022 a0bc 8e9a b43a 4db1 d83c
00000370: 31bc c0bd 537b 4b3d ee64 0b3c 0a6b 1f3d
00000380: 73e5 a7bd 01e1 a1bd 3f10 5a3d 61e1 5bbc
00000390: 9a07 7e3a afce 85bc 7c42 8c3d 90e9 6a3b
000003a0: 8075 543d 14be 69bd d02b 9abc 4d68 443d
000003b0: 9785 0bbd 92ab f1bc f934 8bbd ea12 1a3c
000003c0: 3713 543c 63e0 c3bd c58d 7c3d 8ad9 f6bc
000003d0: de58 b0bc b755 67bd 0402 52ba cc0f 85bc
000003e0: aa93 9f3c 3c45 f23b 9d53 8ebd c559 5cbd
000003f0: 4895 923c 3115 fd3b 922f dfbd da08 b2bc

activation.coefficients_vect f4 [672]
-0.0 2.0817008e-05 3.916943e-06 -2.358357e-05 -3.32921e-05 -8.611531e-05 -0.00011610278 -0.000141086
-0.00043927363 -0.00071320566 0.0011237721 0.0005905531 0.000439415 -5.128195e-05 7.0356116e-05 0.00039635238
-0.00017140707 0.0001442365 -5.581406e-05 -7.475943e-05 0.0 -0.0 7.1218645e-05 1.8081684e-05
2.7612243e-06 -3.1516283e-05 -5.2759566e-05 -0.00041793621 -0.00044824384 -0.0005786431 -3.757344e-05 -0.00082468794
0.0008976865 0.0002183558 0.00044294292 0.0002514505 7.273483e-05 5.4679058e-05 3.6157297e-05 2.1444404e-05
-7.3253475e-05 0.0 -0.0 5.877199e-05 2.9261577e-05 -0.00030683537 0.00020671266 -0.00035553574
3.0853535e-05 -0.00048581816 -5.045793e-05 -0.00036047606 -0.0014863255 0.0010360426 0.0002622075 6.3543295e-05
0.0004018283 0.00015662536 3.1282266e-07 -1.8707795e-05 -2.6729027e-05 -7.9560625e-05 0.0 -0.0
5.3053707e-05 4.5284138e-05 -0.0007391506 0.00046917933 -0.0006619165 0.0003039786 -0.00035489202 -0.000823004
0.0005912099 -0.001046664 0.0012824783 0.0003667911 0.00026554847 0.00025647684 0.00024953892 0.00022731556
7.0576556e-05 1.571257e-05 -2.5511583e-05 0.0 -0.0 0.00010426444 5.751751e-05 -3.4236393e-05
-0.0002326337 -0.00043169022 -9.892482e-05 -0.00032608316 -3.6348803e-05 -0.00075144105 0.00087278435 0.00051588763
4.1934865e-05 0.00027237379 0.00046707795 4.6740464e-05 0.0003375057 -0.000105421954 0.00025500203 -2.7634798e-05
0.0 -0.0 3.6210313e-06 -0.0001771807 -0.00019432914 -0.00019432919 -0.0011548239 0.00100797
-0.00023388665 -0.0002653394 -0.00028813773 -0.002253296 0.0022605748 0.00022512615 -0.0011519396 0.0012877241
0.0002395103 0.000114272516 -0.0021061802 0.0023863635 -8.969738e-05 0.0 -0.0 0.00016825109
5.7433885e-05 -9.252318e-05 -0.00010611191 -0.0006290769 -0.00026761723 0.0002450394 -0.00028013584 -0.00084524305
0.0012717458 0.00031711572 0.00023938538 -0.00010932918 0.0005535529 -0.00059327495 0.0008983086 2.903711e-05
-6.4644873e-06 -4.670468e-05 0.0 -0.0 -8.57148e-05 -0.00023966217 -0.000285441 -0.00029580892
-0.00030294628 -0.0003260969 -0.0008650578 0.00046250693 -0.00028699875 -0.0014809301 0.0015981271 0.00044332273
0.00023010997 -0.00017862502 0.00031850956 0.00015065983 0.00013795038 0.00011187583 -7.718145e-05 0.0
-0.0 3.8877235e-05 3.37484e-05 -3.943073e-05 -0.0001578049 -0.0009671554 -0.00023479211 0.00015819703
-0.00019412847 -0.0005679888 -0.0014432103 0.0014996254 0.0008230179 0.00023233026 -0.0004204109 0.0009007616
0.00014208684 0.00013907632 0.00013715298 -6.77071e-05 0.0 -0.0 0.0001004976 2.3960549e-05
-0.00013871338 -0.0002296446 -0.00023651462 -0.00026538756 -0.00058272056 0.00019206268 -0.0013593566 0.0013533025
-0.00071904476 0.0011017697 0.00035001917 0.00026371577 0.00014257892 5.2485106e-05 -4.5025758e-05 -5.058071e-05
-8.128383e-05 0.0 -0.0 0.00015835521 0.00014858319 6.0576993e-05 -0.00011288627 -0.00042902422
-0.00012993068 -0.00036171862 -0.0004527147 -0.0005853949 0.00058430806 0.00042763117 7.366703e-06 0.00026148016
0.0001507595 6.710891e-05 -4.4866647e-06 -0.0001014069 -0.00017172657 -0.0003937226 0.0 -0.0
9.03748e-05 -4.2965497e-05 -0.000165461 -0.00024694286 -0.00029527934 -0.00052299554 2.7132637e-05 -0.0011763525
0.00079118134 -0.0012591289 0.0012657795 -0.00038281764 0.00078280864 0.00047812678 0.0002894395 0.00019267232
0.00010405519 7.899103e-06 -6.456915e-05 0.0 -0.0 3.0258141e-05 4.7526783e-06 -2.8113449e-05
00000000: 0000 0080 2fa0 ae37 496e 8336 55d5 c5b7
00000010: 1fa3 0bb8 ce98 b4b8 357c f3b8 7cf0 13b9
00000020: 4f4e e6b9 6cf6 3aba 894b 933a 59cf 1a3a
00000030: 4861 e639 9317 57b8 278c 9338 84cd cf39
00000040: bcbb 33b9 313e 1739 e419 6ab8 2ac8 9cb8
00000050: 0000 0000 0000 0080 385b 9538 1fae 9737
00000060: 794d 3936 5a30 04b8 274a 5db8 731e dbb9
00000070: 4502 ebb9 15b0 17ba 2d98 1db8 df2f 58ba
00000080: b952 6b3a 70f6 6439 cb3a e839 1dd5 8339
00000090: 3789 9838 3157 6538 9aa7 1738 82e3 b337
000000a0: a99f 99b8 0000 0000 0000 0080 f281 7638
000000b0: c276 f537 bfde a0b9 02c1 5839 3367 bab9
000000c0: bb68 0138 69b5 feb9 caa2 53b8 47fe bcb9
000000d0: cfd0 c2ba d2cb 873a e578 8939 8c42 8538
000000e0: 7bac d239 cd3b 2439 05f2 a734 afee 9cb7
000000f0: 2638 e0b7 c9d9 a6b8 0000 0000 0000 0080
00000100: fc85 5e38 79ef 3d38 8fc3 41ba 2ffc f539
00000110: 7784 2dba 515f 9f39 cd10 bab9 ddbe 57ba
00000120: 6dfb 1a3a 3730 89ba d518 a83a de4d c039
00000130: 5039 8b39 bd77 8639 8cd4 8239 8e5b 6e39
00000140: 8002 9438 7dce 8337 b501 d6b7 0000 0000
00000150: 0000 0080 8ca8 da38 f53e 7138 0c99 0fb8
00000160: 22ef 73b9 7b54 e2b9 dc75 cfb8 24f6 aab9
00000170: 3b75 18b8 5bfc 44ba 91cb 643a a23c 073a
00000180: 38e3 2f38 64cd 8e39 24e2 f439 310b 4438
00000190: 40f3 b039 fb15 ddb8 cbb1 8539 47d1 e7b7
000001a0: 0000 0000 0000 0080 d800 7336 95c9 39b9
000001b0: d5c4 4bb9 d8c4 4bb9 765d 97ba dc1d 843a
000001c0: 783f 75b9 401d 8bb9 3111 97b9 09ac 13bb
000001d0: 2726 143b d70f 6c39 aefc 96ba dac8 a83a
000001e0: 0e25 7b39 97a5 ef38 d707 0abb 8964 1c3b
000001f0: ea1b bcb8 0000 0000 0000 0080 8f6c 3039
00000200: 2ae5 7038 0109 c2b8 6688 deb8 a3e8 24ba
00000210: fa4e 8cb9 a278 8039 32df 92b9 4d93 5dba
00000220: b5b0 a63a 8d42 a639 8603 7b39 a847 e5b8
00000230: 4e1c 113a 0286 1bba 787c 6b3a b894 f337
00000240: 86e9 d8b6 c5e4 43b8 0000 0000 0000 0080
00000250: c8c1 b3b8 d34d 7bb9 3ea7 95b9 cd16 9bb9
00000260: c3d4 9eb9 fcf7 aab9 0cc5 62ba a17c f239
00000270: 5278 96b9 c51b c2ba 3f78 d13a c56d e839
00000280: ad49 7139 4a4d 3bb9 a1fd a639 71fa 1d39
00000290: c6a6 1039 e19e ea38 7adc a1b8 0000 0000
000002a0: 0000 0080 1d10 2338 128d 0d38 6d62 25b8
000002b0: 6e78 25b9 b388 7dba 8732 76b9 b1e1 2539
000002c0: f78e 4bb9 15e5 14ba 1a2a bdba 148f c43a
000002d0: ccbf 573a ae9d 7339 996a dcb9 1621 6c3a
000002e0: 25fd 1439 04d5 1139 b9d0 0f39 f9fd 8db8
000002f0: 0000 0000 0000 0080 3dc2 d238 e3fe c837
00000300: 9773 11b9 c1cc 70b9 e900 78b9 b723 8bb9
00000310: b7c1 18ba 6f64 4939 702c b2ba 4c61 b13a
00000320: 477e 3cba 4269 903a c782 b739 5543 8a39
00000330: 3d81 1539 7423 5c38 0ada 3cb8 a026 54b8
00000340: ed76 aab8 0000 0000 0000 0080 270c 2639
00000350: ffcc 1b39 0d14 7e38 5bbd ecb8 a8ee e0b9
00000360: 003e 08b9 0da5 bdb9 575a edb9 3075 19ba
00000370: 402c 193a af33 e039 7f2f f736 4617 8939
00000380: 3215 1e39 d2bc 8c38 288c 96b6 6aaa d4b8
00000390: 8011 34b9 8e6c ceb9 0000 0000 0000 0080
000003a0: 9a87 bd38 da35 34b8 997f 2db9 1c78 81b9
000003b0: b9cf 9ab9 a319 09ba e59a e337 d72f 9aba
000003c0: 4867 4f3a 5b09 a5ba 83e8 a53a eab4 c8b9
000003d0: 6635 4d3a 17ad fa39 e9bf 9739 1508 4a39
000003e0: 3438 da38 6486 0437 4c69 87b8 0000 0000
000003f0: 0000 0080 ddd2 fd37 3279 9f36 2cd5 ebb7
