trained_models/IOD_Training/crr_nn_best_model_inpaint_10.pth (torch, 57818 bytes, 3 tensors)

conv_layer.conv_layers.0.parametrizations.weight.original f4 [8, 1, 7, 7]
000000 11 c2 28 bd 16 8b 98 3c b4 4a cd bd 6c d6 ee 3c
       -0.0412007 0.018621009 -0.10024014 0.029154979
000010 0a 4b 17 bc b6 47 f7 3d 3c 25 8d bd 9e 37 c2 bd
       -0.009234199 0.12074225 -0.068918675 -0.094832644
000020 d3 41 e7 bd aa 53 16 3e eb 19 c8 3d a1 c6 02 be
       -0.11291852 0.14680353 0.097705685 -0.12771083
000030 df 0c 9d 3c e4 4b 08 3e 93 2d 58 bd 21 57 e0 bc
       0.019171176 0.133102 -0.052777838 -0.027385296
000040 cd a6 02 3d 55 16 97 bb ca fe 26 3e 10 ff 87 bd
       0.031897355 -0.0046108165 0.16308132 -0.06640446
000050 cc 9a 7a 3d 99 f6 a4 3c 19 32 31 3e 01 df 4f 3c
       0.061182782 0.020137118 0.17304267 0.012687446
000060 26 6f 22 be 2c 03 00 be 3e 1a 88 bd 3d 77 bf bb
       -0.15862712 -0.1250121 -0.0664563 -0.0058430717
000070 cf 3f af 3c 7c ca 5f 3d aa 23 ef 3d 22 9b a6 3d
       0.021392731 0.054636464 0.11676724 0.08135058
000080 9c cb 80 3d d0 a9 2c 3d e5 58 0b 3e 0c 12 69 3d
       0.062888354 0.042154133 0.1360813 0.056901976
000090 87 67 e5 3d d6 35 b4 bd b6 a5 25 be b5 9e 22 3e
       0.11201387 -0.08799331 -0.16176495 0.15880854
0000a0 87 fb f8 bc c7 16 20 3d 88 ad 85 bc 7c 40 99 bd
       -0.030393375 0.039084222 -0.016318098 -0.074830025
0000b0 b7 46 0c bc bf 79 1a 3e b5 87 b6 bd 01 1c e0 3d
       -0.008561782 0.15085505 -0.08912603 0.10942841
0000c0 63 2f 77 bd 7b a4 e7 bd 42 9f 9b 3d 18 0c 9c bd
       -0.060347926 -0.11310669 0.075987354 -0.07619494
0000d0 c7 3c 8b 3c be 93 bc bd 80 0f b5 bc 0a 47 5d 3d
       0.016996754 -0.09207867 -0.022102118 0.054022826
0000e0 9a a9 55 3d 20 ba b2 3d 27 5d a9 3d bd 62 2a bd
       0.052163698 0.08726907 0.082697205 -0.04159807
0000f0 f5 37 61 3d 1e e1 0d 3e b9 3a 92 3d e9 b6 e8 3d
       0.054985005 0.13855407 0.07140107 0.11363012
000100 aa 75 ba 3d cb 96 0e 3d 69 d1 e6 bc 70 be 0d be
       0.09104474 0.034811776 -0.028176026 -0.13842177
000110 a2 d8 b1 3d c6 41 2b be 95 af e0 3d 38 43 e9 bd
       0.086838976 -0.1672431 0.109709896 -0.11389774
000120 6d e0 03 be 27 11 e6 3a 76 ce cf 3d 47 6a e2 3d
       -0.1287858 0.0017552719 0.10146801 0.11055427
000130 98 eb 0d 3e 44 aa a4 3d f7 5e e3 bd ea ca 23 3e
       0.13859403 0.08040288 -0.111020975 0.15995374
000140 7f 84 85 bd 3f af a5 bd 63 04 02 3e 6c 00 81 bd
       -0.06519412 -0.08090066 0.12696986 -0.062989086
000150 b5 f6 a7 bd ed 71 99 bd 5a 56 dd bd fb 77 c1 bd
       -0.082013525 -0.07492433 -0.10807486 -0.094467126
000160 0a 12 38 3d 57 e2 d3 bd 20 24 0b 3e 4d 0f 08 bc
       0.04493908 -0.10345905 0.13588 -0.008304429
000170 f3 a1 05 be 0c 01 13 3e 3e 12 14 3e 9e ec 73 3d
       -0.1305006 0.14355868 0.14460084 0.059551828
000180 5a ad 7e 3b bd 27 d5 3d 1c 72 41 bc a0 4f 2e 3d
       0.003886065 0.1040797 -0.011806991 0.042556405
000190 8a 76 c8 3d a6 8d 1e 3b 10 2c bb 3d bf b2 ad bd
       0.097882345 0.0024193316 0.09139264 -0.08481359
0001a0 d5 bb ad bd 93 8d ec bd 54 e3 80 3d fe 04 01 3e
       -0.08483092 -0.11550441 0.062933594 0.1259956
0001b0 49 3b 19 be 91 c0 0e be 04 71 b9 bc 86 80 d1 3d
       -0.14964022 -0.13940646 -0.022636898 0.10229592
0001c0 13 ba 3d bc 99 16 68 3a 9c b9 a2 3d 24 d8 93 bd
       -0.011580008 0.0008853465 0.079455584 -0.0721896
0001d0 8f 53 c1 bd 02 cc 08 3d 50 d6 90 3d 22 20 ec 3d
       -0.09439766 0.033397682 0.07072127 0.11529566
0001e0 20 fb d3 bd 0a b2 e7 bd 3a 44 03 be 45 74 c4 3d
       -0.10350633 -0.11313255 -0.12818995 0.09592489
0001f0 5c 87 ac bd 4c 1e a5 bc af a4 cd 3d 99 63 d4 bd
       -0.08424255 -0.020156048 0.100411765 -0.10370559
000200 50 09 e9 bd 7c 58 f0 bd ca e6 0e 3d 19 7f a6 bd
       -0.11378729 -0.11735627 0.034888066 -0.08129711
000210 bf 1d b5 bc 34 63 d7 bd c5 f3 eb bd 1d 42 b8 bc
       -0.02210891 -0.10516968 -0.11521105 -0.022492463
000220 34 56 30 bd 9a 8f aa bd 47 93 52 bd 75 0c 65 3d
       -0.04305096 -0.08328171 -0.051409986 0.055920083
000230 b8 00 db 3d 42 9a 63 bc b8 26 5b bc 12 44 33 bb
       0.106934965 -0.013891758 -0.0133759305 -0.0027353805
000240 59 d1 b0 3d 18 c6 13 3e ea 24 53 3a 8a 15 a1 3d
       0.0863368 0.14431036 0.0008054512 0.078654364
000250 b2 12 62 bd d0 59 98 bd 24 3b ed 3d ad b3 91 3d
       -0.05519361 -0.074390054 0.11583546 0.071143486
000260 d3 6f 1c be af a7 e5 3d 5c 37 ef bd 44 63 1b bd
       -0.15277033 0.11213624 -0.11680481 -0.037936464
000270 66 e6 ee bd de 87 c9 bd 88 90 e3 bd 55 12 d8 3d
       -0.11665039 -0.09840368 -0.111115515 0.105503716
000280 55 a4 7f bd f3 f3 da 3d ce 30 c9 bd be d3 a7 3d
       -0.06241258 0.10691061 -0.09823762 0.081946835
000290 6b 5d f5 3d 03 95 ae 3d 5f 0e 40 3d e3 8e e1 3d
       0.11980709 0.085245155 0.046888705 0.110135816
0002a0 4f 20 fc 3d 4c 99 57 3d 6b ae e2 3c 0b 92 e7 3c
       0.1231085 0.05263643 0.02767106 0.02826788
0002b0 ee 4f a4 3c 0b 2c 12 3d e4 90 b8 3d d4 d0 b6 3d
       0.020057645 0.035686534 0.09012011 0.089265496
0002c0 3d 36 c6 bc 8c 9e d0 bd ef dc c6 bd 63 7d 06 bd
       -0.024195785 -0.101864904 -0.097101085 -0.03283442
0002d0 fd 2b 11 3e 20 95 be bd 93 e5 c7 3d ea 9e d8 3d
       0.14176936 -0.09305787 0.09760585 0.105771855
0002e0 33 4e 9b bc d2 33 e8 3d c4 6f 92 3b 33 db 27 bd
       -0.018958187 0.11338009 0.00446889 -0.04098053
0002f0 ee be c1 bd 43 2c 6e 3d a6 22 8e 3d ce 47 16 bd
       -0.09460245 0.05814768 0.069402024 -0.036689572
000300 42 a1 2e 3e 0c a9 c2 bd 7c 41 3d bc 2c 66 c9 3d
       0.17053702 -0.095048994 -0.011551257 0.09833941
000310 5b 18 d6 bd 3c 0d b0 bd 23 0b 12 3d e4 88 81 bc
       -0.10453864 -0.08596274 0.035655152 -0.015812345
000320 89 31 bb bd ea b2 dd bd 7b f2 49 3d 5f 3c c8 3d
       -0.091403075 -0.10825141 0.049303513 0.0977714
000330 0f f1 c1 3c 8e c0 d0 bd e0 55 a9 bd 7a f4 48 bd
       0.023674516 -0.10192977 -0.082683325 -0.049061276
000340 4b cd c0 bd c4 f4 d7 3d a4 08 03 be 2b d4 e7 bc
       -0.094141565 0.10544732 -0.12796265 -0.028299412
000350 17 d2 64 bd de 0c 97 3d 47 04 b4 bd 4d a6 22 3e
       -0.05586442 0.07375501 -0.08789878 0.15883751
000360 35 7a 90 bd e5 56 ee bd e7 be fc bc 3a 87 a7 bd
       -0.07054559 -0.116376676 -0.030852748 -0.08180089
000370 bf e7 18 be 16 d6 a3 bd 45 04 df bd 4a 47 ba bd
       -0.14932154 -0.07999818 -0.10889486 -0.090956286
000380 25 21 aa bc b6 49 45 bd de a0 6d bd a4 da e3 b8
       -0.020767758 -0.048166 -0.058014743 -0.000108649285
000390 a9 e7 10 bd 79 ce ce bd 8f 7a 08 3e 43 3c d6 3d
       -0.03537718 -0.10097975 0.13328002 0.10460713
0003a0 4a 14 ef 3d e2 e3 16 3a 2f d7 b7 3d 5b a1 e4 3d
       0.11673792 0.0005756003 0.0897659 0.111635886
0003b0 66 02 10 be 7a 9b 34 bd 7d 3d 2b bb 38 18 ac 3d
       -0.14063415 -0.044093587 -0.002612918 0.08403057
0003c0 e5 16 a0 3d 61 5e f6 3d 13 10 47 bd 44 b3 7f 3d
       0.07816867 0.1202972 -0.048599314 0.06242682
0003d0 ee 45 5b bd 0f 5d f0 3d 6c 53 56 bd 32 29 d1 bd
       -0.053533487 0.117364995 -0.05232565 -0.102129355
0003e0 56 94 da bd 10 66 8f bc 1d 5b cb 3d c4 14 0e 3e
       -0.10672824 -0.017504722 0.09929488 0.13875109
0003f0 32 56 4b 3d 02 a0 64 bc 6d 1d 25 3e ed df ce bd
       0.04964275 -0.013954164 0.16124506 -0.10101304

conv_layer.conv_layers.1.parametrizations.weight.original f4 [32, 8, 7, 7]
000000 39 19 41 bb e9 f3 d2 bc 81 7a 78 3d 03 c7 67 bd
       -0.0029464497 -0.025751071 0.060663704 -0.056586277
000010 d4 57 07 bd fe 75 88 bb ae 71 56 3b eb c5 1a 3d
       -0.033042744 -0.0041644564 0.0032721567 0.037786406
000020 19 6c 2b 3d 56 3c 16 bd aa 06 4d 3d 8c 83 49 bc
       0.041851137 -0.036678635 0.050055183 -0.01229943
000030 9d 4b 8a 3d ca f9 f0 3c c4 ad 02 bd 89 80 36 bb
       0.06752703 0.029415984 -0.031903997 -0.002784761
000040 49 bb ee bb de ec da 3c 62 71 a0 3b d4 6a bf bc
       -0.0072855097 0.026724275 0.004896329 -0.02336637
000050 26 88 0c 3d 80 e1 9c 3c 32 c6 0a 3d 72 fb 2d 3d
       0.03430953 0.019150496 0.03388042 0.042476125
000060 f1 e4 e5 bc f1 cb 26 bb 13 65 82 bd 5d c7 94 3c
       -0.02806327 -0.0025451148 -0.063669346 0.01816147
000070 df 5c 9a bd 0e 7b 31 3d 14 5e 45 3d ff ab e8 bc
       -0.07537245 0.043330245 0.048185423 -0.028402327
000080 0a 85 cf 3b 66 a9 0f 3c f1 b1 6b bd bf 09 0b 3c
       0.006332998 0.008768415 -0.057542745 0.00848621
000090 03 81 45 3c da df 7d bc a8 b2 7c bc 44 35 11 3d
       0.012054685 -0.015495265 -0.015423454 0.03545119
0000a0 8a f7 14 bd ef 4d 38 3b 56 dc 1b 3d d7 ae bf b9
       -0.036368884 0.0028122624 0.038051926 -0.00036560625
0000b0 fc 1e 08 3d 71 19 70 bd 7a 06 4d 3d 7f fc d7 3a
       0.033232674 -0.058618013 0.050055005 0.0016478448
0000c0 11 50 33 bd 5b 96 90 bd fd 8f 41 3d 5a 44 c5 3c
       -0.04377753 -0.07059928 0.04725646 0.024080444
0000d0 74 42 62 bc 9c 05 18 bd 8e 0b f8 bc 31 ab 0a 3c
       -0.013809789 -0.037114725 -0.030278947 0.008463667
0000e0 73 c1 30 3d c7 82 c7 3b b0 41 b5 3c 82 a9 76 3c
       0.043153238 0.006088588 0.022126049 0.015055062
0000f0 c5 34 72 bd 76 fc e0 bc 94 4d 46 3c 53 1b ca 3c
       -0.059132356 -0.027464133 0.012103457 0.024671232
000100 1c 8a 1d 3d 20 a4 1c bd 46 c1 97 3d 57 e9 19 3d
       0.03846179 -0.03824246 0.07409911 0.037576046
000110 8e 11 dc bb ea 80 7b bd ac db 10 3d 6b e1 43 3c
       -0.00671596 -0.06140224 0.035365745 0.011955599
000120 bd 37 00 bd e1 90 20 3c 5c a2 b5 ba ee b1 37 bd
       -0.031303156 0.009800167 -0.0013857591 -0.04484742
000130 1d 00 0d bd 66 88 60 bd 7a bf 3c bd bf e1 41 bc
       -0.034423936 -0.05481758 -0.046081044 -0.011833607
000140 9f ea 1f bc c6 97 5d 3d dd 6d d7 3b df 3d d4 3c
       -0.009760528 0.05409982 0.006574376 0.025908409
000150 d1 9b 93 3c 89 8e 2b bd b2 d2 56 bb cb e6 b2 3c
       0.018018635 -0.04188398 -0.0032779393 0.021838566
000160 68 9e 8c bd e1 d2 e7 3c 18 ec 37 3d 5a 87 26 3d
       -0.06866151 0.028298797 0.04490289 0.040656425
000170 ae 75 c2 3b 9f 52 5b bc e6 a6 92 3d b4 4d d3 bc
       0.0059344387 -0.013386398 0.071607396 -0.025793888
000180 78 4e a5 3b c5 29 29 3d 7e 11 bf bc 1a a3 e9 bc
       0.0050447546 0.0412996 -0.02332377 -0.028520156
000190 08 dc 51 bc 55 52 87 bc e4 4c a3 bb 2f 89 ea 3c
       -0.012808807 -0.016518751 -0.0049835313 0.028629867
0001a0 85 73 30 bd 24 45 e6 bc 05 28 d5 bc 82 df eb 3c
       -0.043078918 -0.02810914 -0.02602006 0.0287931
0001b0 ea fb 08 bc 47 a5 ea bc 2f a2 04 3c f8 69 fe 3c
       -0.008360842 -0.028643264 0.008095308 0.03105639
0001c0 23 7e c6 bb 88 ec 28 3d d8 d3 31 bd 24 fc 16 3d
       -0.006057517 0.0412412 -0.04341492 0.036861554
0001d0 94 3e e4 3c e8 65 85 bd 96 7c 90 bb 9b bf 8f bc
       0.02786187 -0.06513578 -0.004409383 -0.01754742
0001e0 02 84 43 3d 13 5d 19 3d 63 24 5b bc 24 1e 1b bd
       0.047733314 0.037442278 -0.0133753745 -0.03787054
0001f0 40 19 60 3d 00 cb 45 bd 9c ac 59 bb 60 3f 00 bd
       0.05471158 -0.0482893 -0.0033214455 -0.03131044
000200 af e9 31 bd f3 e0 3f bc c8 70 86 bd 2b 8b 58 bc
       -0.04343575 -0.011711347 -0.0656448 -0.013216774
000210 20 c0 3d 3d 8d 94 ab 3c 62 07 39 3d aa 69 0e 3d
       0.046325803 0.020944858 0.045173056 0.034768738
000220 ee 4d 81 3d de b1 11 3d 69 29 47 bd be b3 bc 3c
       0.06313692 0.035570018 -0.048623476 0.023034927
000230 7e 46 34 bd 7f a3 8d bc 45 00 29 bd 81 ca 5e 3c
       -0.04401254 -0.017289875 -0.041260023 0.013598085
000240 f8 92 90 bb f3 90 44 3c 31 2f 08 bd 53 a8 67 3c
       -0.0044120513 0.011997449 -0.03324813 0.014139253
000250 2a 9f 73 bd 32 bc d3 3b 2d 6c 6e bc 62 59 2f bd
       -0.059477963 0.0064616436 -0.014552158 -0.04280985
000260 49 86 af 39 92 ab 30 3d 47 03 31 3b 07 84 a5 bc
       0.0003347865 0.043132372 0.002701001 -0.020204557
000270 a4 f1 c2 39 a5 65 92 bb 64 5c f9 bc 83 c6 83 bd
       0.000371826 -0.0044676834 -0.030439563 -0.064343475
000280 cb cf a5 bc 3b 5a 0e 3d f1 64 0d bd 2c ac 19 3d
       -0.020240685 0.03475402 -0.034520093 0.03751771
000290 c1 76 3e bd 25 5b 47 3c 20 e9 3f 3d d3 31 ec bc
       -0.04649997 0.012167727 0.046853185 -0.028832352
0002a0 9c 80 26 bd 78 5b 0c bc 51 2c 11 3c 9a f7 9a bc
       -0.040649995 -0.00856673 0.0088606635 -0.018916894
0002b0 b3 d5 d1 3c 43 6c 2c 3d 4f d5 7f bd d2 c2 35 3c
       0.025614595 0.042095434 -0.062459286 0.011093812
0002c0 f1 5b b0 bc 76 cc d6 3c d2 80 43 3c e5 cd 1f bd
       -0.021528216 0.026220541 0.011932569 -0.039014716
0002d0 9b d5 3b bc 51 08 28 3d 48 a5 fc bc d2 d9 5e 3d
       -0.011464502 0.041023556 -0.030840531 0.05440695
0002e0 6c 4c 39 3c 3e 89 c0 bc 6b 38 66 3d d3 a1 f6 bb
       0.011309724 -0.023502942 0.056206148 -0.007526615
0002f0 95 09 ad 3c c7 b3 82 bd 81 91 56 bb 0a ef a7 3b
       0.021122733 -0.06381946 -0.0032740536 0.005124931
000300 57 cc 31 3b b1 43 7b bd 6d 07 a4 3c 0a dd e4 3c
       0.0027129853 -0.061343852 0.020023072 0.02793743
000310 91 3a 9e 3c f5 15 d5 bc a0 54 2d 3d 83 d3 6a 3c
       0.019315036 -0.026011446 0.042317033 0.014332655
000320 13 10 51 3d 67 e9 38 bd b2 98 0b 3d dd a5 4e 3d
       0.05104072 -0.045144465 0.03408117 0.05045115
000330 1c b1 69 bc 42 59 17 bd 7f 80 76 3c e2 bc 2a bd
       -0.014263418 -0.036950357 0.015045284 -0.04168404
000340 5d 5a bd 3b 25 33 ca bc b2 cc b2 bc 43 c2 27 bd
       0.0057785944 -0.02468259 -0.021826122 -0.040956747
000350 d1 ca 41 bc de 1a 09 3d eb e4 81 bd fc ba 59 bc
       -0.01182814 0.03347289 -0.06342491 -0.013289209
000360 a3 77 40 bd b7 c2 74 3d 2a 21 8a bd e9 f1 89 3d
       -0.046989094 0.059756007 -0.06744607 0.06735594
000370 01 e2 0b 3d 74 38 0e 3b 5b 75 df bc f1 2a 02 3d
       0.03415108 0.002170113 -0.02727764 0.031779233
000380 ea 9e 77 3c 50 a2 0d bd 08 b3 a6 bc 92 f8 dd ba
       0.015113572 -0.03457862 -0.02034904 -0.0016935042
000390 57 b6 21 3d f5 91 b5 bb d8 ed db bc 63 cf d7 3b
       0.039480533 -0.005541081 -0.026846811 0.0065860017
0003a0 b8 82 03 bd 48 a5 f6 bc b1 7e 12 3d 73 43 25 3d
       -0.032107085 -0.03010811 0.035765354 0.040347528
0003b0 ce 9f 2f 3d a8 5e d8 bc 20 65 ad bc 9e f4 61 3d
       0.04287701 -0.026412323 -0.021166384 0.055164926
0003c0 dc 24 7b 3c 87 b8 e3 3b 49 f5 5d bd 6e 29 f2 bc
       0.015328612 0.0069494876 -0.054189 -0.02956077
0003d0 05 99 4d bc 33 9b fe bc 4a 48 9b bc 1b a0 fb bc
       -0.01254869 -0.031079864 -0.018955369 -0.030715993
0003e0 f6 29 84 bc 87 58 36 3d 32 d7 f5 b9 db 3a 4d 3c
       -0.01613329 0.04451802 -0.00046890375 0.012526239
0003f0 c6 16 1e 3d 3e 74 9d bb 73 d2 02 3d 14 cc ae 3b
       0.038595937 -0.004805117 0.03193898 0.0053343866

activation.coefficients_vect f4 [672]
000000 00 00 00 80 1d 15 c0 b9 a4 22 ea b9 6e 8a 3a 39
       -0.0 -0.00036636824 -0.00044657767 0.00017789911
000010 5f f3 cb b9 8e f7 48 39 2d ba c6 b9 75 6e 57 39
       -0.00038900503 0.00019165708 -0.00037904215 0.00020545146
000020 f9 0e b8 b9 3a 1b 37 ba 02 0a fd b9 61 c3 4b 3a
       -0.0003510637 -0.0006984953 -0.00048263377 0.0007772949
000030 50 07 bb 39 e6 6f 3b b9 c0 da cb 39 b8 a6 19 b9
       0.00035672868 -0.00017875395 0.0003888216 -0.00014653325
000040 a5 b3 c9 39 a6 b4 d3 39 c5 09 ef b8 2d 24 c2 39
       0.00038471553 0.0004037965 -0.00011398228 0.00037029517
000050 00 00 00 00 00 00 00 80 be 76 b4 b9 ff c2 20 b8
       0.0 -0.0 -0.00034420745 -3.8328577e-05
000060 ec 03 b4 b9 00 f2 b0 b9 18 3d 82 b7 d1 bb b7 b9
       -0.00034335197 -0.0003374964 -1.5525657e-05 -0.00035044414
000070 8a ef ae b9 ae 13 bd 38 a4 08 e1 b9 49 12 95 b9
       -0.00033366337 9.015888e-05 -0.00042921782 -0.00028433118
000080 82 dc da 39 21 69 04 b9 17 f5 ba 39 3b 68 bc 39
       0.0004174449 -0.00012627665 0.0003565929 0.00035935812
000090 85 14 cc 39 69 eb 55 b8 85 a7 bb 39 f3 b5 d8 39
       0.000389252 -5.10024e-05 0.0003579223 0.00041334293
0000a0 bf 07 9d 39 00 00 00 00 00 00 00 80 d6 9b bf b9
       0.00029951145 0.0 -0.0 -0.00036546466
0000b0 aa 43 c3 b9 8c 8a c4 b9 f6 17 d4 b9 ef ae f6 38
       -0.00037243712 -0.0003748726 -0.00040453643 0.00011762778
0000c0 41 ee d1 b9 52 06 b7 b9 df ad 01 ba d9 93 33 ba
       -0.000400411 -0.0003490919 -0.0004946868 -0.0006850339
0000d0 ea 9d 74 3a 1f c0 ca 39 32 f4 b6 39 59 9f 05 b9
       0.00093313924 0.00038671584 0.00034895685 -0.0001274323
0000e0 cd 70 b7 39 50 aa c2 39 9e eb d0 39 4d 87 8b b7
       0.00034988523 0.00037129456 0.000398484 -1.6633096e-05
0000f0 61 f4 d8 39 be 07 9d 39 00 00 00 00 00 00 00 80
       0.00041380807 0.00029951142 0.0 -0.0
000100 ec 99 bd b9 3b f3 07 39 21 70 d0 b9 28 8d b9 b9
       -0.0003616357 0.00012965214 -0.00039756394 -0.0003539112
000110 d1 0f cb b9 8e 70 2b 39 5f 36 bf b9 07 8c 4c 39
       -0.0003873096 0.0001634976 -0.00036470869 0.0001950712
000120 e8 a9 ca b9 76 08 4f 3a 96 17 bf 39 10 d8 2c b8
       -0.00038655032 0.0007897684 0.00036447932 -4.120922e-05
000130 bf d6 9e 39 34 df ae 39 6f d3 b4 39 73 a4 b2 39
       0.00030296107 0.00033354165 0.00034489806 0.0003407333
000140 eb 9e 96 38 f0 23 9d 39 9e 5c b1 39 00 00 00 00
       7.182158e-05 0.0002997215 0.00033829076 0.0
000150 00 00 00 80 85 f5 b4 b9 bd 0a 94 37 32 03 c7 b9
       -0.0 -0.00034515202 1.7647975e-05 -0.00037958618
000160 95 1d b3 b9 14 26 3d 38 07 d1 b2 b9 74 03 9a 38
       -0.0003416358 4.5096574e-05 -0.00034106543 7.3439354e-05
000170 d1 76 ae b9 e6 0f dd b9 37 0e 4a 39 08 d1 fc 39
       -0.0003327639 -0.0004216425 0.00019269517 0.00048220926
000180 e3 6f b8 39 6f b7 b2 39 62 7c b1 39 be 07 9d 39
       0.00035178577 0.00034087474 0.00033852743 0.00029951142
000190 63 b4 bd b8 29 45 af 39 d0 3b bb 39 fe 9d bd 39
       -9.045822e-05 0.0003343013 0.00035711983 0.00036166603
0001a0 00 00 00 00 00 00 00 80 34 99 be b9 af 93 a0 37
       0.0 -0.0 -0.0003635377 1.9142257e-05
0001b0 bd 07 9d b9 8a c9 e0 b9 9f cb a7 38 83 61 da b9
       -0.0002995114 -0.00042874768 8.001108e-05 -0.00041652852
0001c0 20 7f b3 b9 bd d4 f2 b9 b0 fc 5f 39 d0 cc 00 ba
       -0.00034236256 -0.0004631634 0.0002136107 -0.0004913332
0001d0 61 e4 f5 39 d4 37 60 b9 3f f1 f2 39 6a 74 e0 39
       0.00046900197 -0.00021383102 0.0004633758 0.00042811345
0001e0 5c 87 df b8 42 f0 de 39 f1 3d c6 39 6e 24 c5 39
       -0.00010658681 0.00042522146 0.00037811653 0.0003760191
0001f0 7d 89 bd 39 00 00 00 00 00 00 00 80 26 0c bf b9
       0.00036151326 0.0 -0.0 -0.0003643941
000200 19 ca c7 b9 9a 03 d9 38 d8 f0 cb b9 0d 88 c6 b9
       -0.00038106812 0.00010348037 -0.0003889862 -0.0003786687
000210 8f 0c 12 39 81 54 c3 b9 1d 70 f5 b9 ca 25 3f ba
       0.00013928323 -0.0003725626 -0.00046813572 -0.0007291703
000220 b4 b8 8b 3a a0 a7 ca 39 4a 5f b5 39 39 de 40 b9
       0.0010659904 0.00038653333 0.00034594006 -0.00018393331
000230 b6 34 b9 39 e0 13 c4 39 fc 9f 0d b9 61 1c c3 39
       0.00035325222 0.0003739884 -0.00013506407 0.00037214442
000240 5f 46 c6 39 be 07 9d 39 00 00 00 00 00 00 00 80
       0.00037817933 0.00029951142 0.0 -0.0
000250 f7 15 c2 b9 07 9a d8 b9 c1 81 c7 38 75 84 dd b9
       -0.0003701893 -0.0004131349 9.513228e-05 -0.00042251093
000260 cc 04 ce b9 f9 43 ba b9 58 c1 ee b9 a2 c7 eb b9
       -0.00039294956 -0.00035527328 -0.0004553895 -0.0004497143
000270 d9 fb 42 ba 95 e1 41 3a 8a 11 d8 39 ea 89 c4 39
       -0.0007438041 0.000739598 0.00041211798 0.00037486787
000280 74 11 22 b9 59 7b d0 39 dd dd e5 39 25 1a 3a b8
       -0.00015456026 0.00039764753 0.00043843585 -4.4370205e-05
000290 bd 61 e4 39 e9 6e 03 37 26 0a b9 39 00 00 00 00
       0.0004356037 7.834032e-06 0.0003529351 0.0
0002a0 00 00 00 80 1d 62 a1 b9 1a 78 7e b9 5b 1b e0 b9
       -0.0 -0.00030781413 -0.00024268069 -0.0004274499
0002b0 b5 3c 1f 39 b8 f8 dd b9 ab fb da b9 20 76 5d 39
       0.00015186037 -0.00042337715 -0.00041767707 0.00021120207
0002c0 8e ab bc b9 1b 03 96 ba 04 20 97 b9 7c 3a 8f 3a
       -0.00035985972 -0.0011445017 -0.00028824818 0.0010927464
0002d0 15 77 ba 39 ee 19 4b b9 fd 54 d0 39 53 11 24 b9
       0.00035565408 -0.00019369248 0.00039736173 -0.00015646713
0002e0 2c b6 d4 39 55 9b 02 b9 e0 53 d8 39 bd 07 9d 39
       0.0004057152 -0.00012455632 0.00041261222 0.0002995114
0002f0 00 00 00 00 00 00 00 80 39 18 bf b9 64 d8 bb b9
       0.0 -0.0 -0.00036448406 -0.00035828643
000300 1c 90 b8 b9 94 d7 79 37 c1 c1 cb b9 06 5a 67 38
       -0.00035202585 1.489175e-05 -0.00038863535 5.5158533e-05
000310 93 bf c0 b9 6b 38 e5 b9 5f 32 46 39 fa a1 e7 b9
       -0.00036763828 -0.00043720318 0.00018901516 -0.00044180435
000320 ee 6f 5c 3a 2d aa d2 39 c4 56 c7 39 b3 d4 c9 39
       0.0008409013 0.00040181112 0.00038020883 0.0003849618
000330 f4 0a ce 39 60 bc a6 b8 aa d3 be 39 e7 61 d0 39
       0.00039299543 -7.9505844e-05 0.00036397326 0.00039745794
000340 0d d8 c0 39 00 00 00 00 00 00 00 80 bf 07 9d b9
       0.00036782064 0.0 -0.0 -0.00029951145
000350 b0 5e c0 b9 47 71 bd b9 82 7f b0 b9 e1 95 a9 b9
       -0.0003669164 -0.00036133287 -0.00033664337 -0.0003234586
000360 0c 79 9d b9 70 bd 77 b9 2a 70 c0 b8 77 9c 89 39
       -0.0003003556 -0.00023626327 -9.1761656e-05 0.00026247252
000370 46 a4 bd b9 18 39 bf 39 e2 9c bf 39 aa a7 c5 39
       -0.00036171282 0.00036472897 0.00036547246 0.00037699688
000380 c4 45 00 b9 e9 3a cc 39 92 0a c1 b8 90 c0 d5 39
       -0.00012233021 0.00038953804 -9.204926e-05 0.00040769996
000390 a3 4e 6e b8 45 38 b8 39 00 00 00 00 00 00 00 80
       -5.6816858e-05 0.0003513714 0.0 -0.0
0003a0 5e fd be b9 bc df 55 38 f8 31 e1 b9 de f0 ce b9
       -0.00036428397 5.0991526e-05 -0.00042952574 -0.00039470842
0003b0 6d 95 ab b9 68 41 c8 b9 f9 ee ca b9 15 1b ce b9
       -0.00032726993 -0.00038195704 -0.0003870649 -0.0003931156
0003c0 58 45 85 ba 03 3b 8a 3a 5a 5b bb 39 79 00 2b b9
       -0.0010167761 0.0010546151 0.00035735482 -0.00016308007
0003d0 af 19 d1 39 e7 69 d9 39 bd 58 46 b8 6c a4 dc 39
       0.00039882722 0.0004146837 -4.7289523e-05 0.00042084174
0003e0 8e 30 65 35 d9 b8 df 39 be 07 9d 39 00 00 00 00
       8.5379804e-07 0.00042671597 0.00029951142 0.0
0003f0 00 00 00 80 be 07 9d b9 21 a0 e0 b9 e0 4e cf b9
       -0.0 -0.00029951142 -0.00042843915 -0.00039540883
