src/crr_nn_best_model.pth (torch, 57644 bytes, 3 tensors)

conv_layer.conv_layers.0.parametrizations.weight.original f4 [8, 1, 7, 7]
000000 11 8e 0d 3e e0 14 f8 3d b7 7a cb 3d 95 77 67 3c
       0.13823725 0.121133566 0.099355154 0.014127632
000010 a1 bb ce bd 10 8a ed bb 28 8b 78 3d 8b 82 e2 3d
       -0.10094381 -0.0072491243 0.060679585 0.11060055
000020 04 6e 14 be 8d a9 68 bd 6d 92 6f 3d bb 68 15 3e
       -0.14495093 -0.05680232 0.058489252 0.14590733
000030 50 ea 03 be b7 38 06 be b9 fc 01 3e fd 8a d2 bd
       -0.12882352 -0.13107572 0.12694062 -0.10280416
000040 3c c5 bf 3d 12 05 10 be 9a ca e0 bd 4f ca 0b be
       0.09363791 -0.14064434 -0.10976143 -0.13651393
000050 7b ed 94 bd 8e c4 06 3e 10 9a 09 be 9b 5f 18 be
       -0.07271858 0.13160917 -0.13437676 -0.1488022
000060 97 c0 0f 3e cc 8d bb 3d bb 73 d5 3d 18 02 19 be
       0.14038311 0.09157905 0.104224645 -0.14942205
000070 50 44 4d 3d f2 1c 12 3e f4 7d 18 3e 27 36 1d 3d
       0.050113976 0.14268854 0.14891797 0.03838172
000080 cb eb 1c be 59 76 c1 bd 8e 1b 46 3d bb ca d2 3d
       -0.15324323 -0.09446401 0.048366122 0.10292574
000090 f3 ba 82 bb 56 dc 28 3d e7 35 d1 bc 5c 58 42 bd
       -0.0039895712 0.041225754 -0.025538398 -0.047447547
0000a0 14 5e 05 bd f8 48 ec bd b5 2a a6 bd ad 15 a0 3d
       -0.032560423 -0.11537355 -0.081136145 0.07816634
0000b0 0f 08 cf 3c 74 67 a1 bd 37 22 d4 bb 23 8b 5b 3d
       0.025272397 -0.0788106 -0.0064738053 0.053599488
0000c0 92 99 38 3d 50 4d fe bd 22 e2 1a 3e 09 3f cc 3d
       0.04506833 -0.1241709 0.15125325 0.099729605
0000d0 33 eb af 3d 1d b6 05 be 1b ee a4 bc 14 1b 0a 3e
       0.085897826 -0.13057752 -0.020133069 0.13486892
0000e0 97 0e 1a be 06 fe ab 3d 9d 56 a2 bd 3f 33 49 3d
       -0.15044628 0.083980605 -0.079266764 0.049121138
0000f0 85 6b 3e bd 8a 9e bd 3c c4 7d 2f bd 4c 5a f5 3d
       -0.046489257 0.023146886 -0.04284455 0.119801134
000100 48 3e 1d 3e 68 49 9e bd ac 66 87 bd 41 99 95 bd
       0.1535579 -0.07728845 -0.0661138 -0.073046215
000110 86 dd 08 3e d9 8d 09 3e 2a 4a 97 bd 88 0b 63 3c
       0.13365754 0.13433017 -0.073871925 0.01385773
000120 b9 be 8e 3d 20 bc 06 be f2 38 9e bd 6b 94 fd 3d
       0.06969971 -0.13157701 -0.07725705 0.12381824
000130 de a2 a9 3d fe e6 93 3d c9 db ed 3d bc 7e 10 3e
       0.082830176 0.07221793 0.11614186 0.14110845
000140 3e de b5 bc cb 7f c2 3d 40 4f 82 3d bc 20 4f 3d
       -0.0222007 0.09497031 0.06362772 0.050568327
000150 9b eb 7c 3d 04 27 16 3e 59 16 9c 3c 62 14 9d bd
       0.06174813 0.14663321 0.019053625 -0.07669903
000160 19 e4 3d 3c c2 68 45 3c 54 87 02 be 02 b6 58 bc
       0.011590027 0.012048902 -0.12746936 -0.013226988
000170 bc d4 f7 bd a3 34 02 be c2 70 9d bd 8a 92 eb bd
       -0.12101123 -0.12715392 -0.076875225 -0.115025595
000180 ff 5a c8 bd 07 ac fb 3d e9 61 e8 3d 41 7d 6b 3d
       -0.09782981 0.12288671 0.113468 0.0574925
000190 bd df 85 3c 1a 61 80 bb b6 11 21 bd 14 72 03 3e
       0.016342038 -0.0039178254 -0.03932353 0.12836486
0001a0 da d0 0c bd 77 c0 66 3a 83 4e 98 3d 32 aa b5 bd
       -0.034378864 0.0008802483 0.0743685 -0.08870353
0001b0 44 9d bb bd 6d 1a 01 3e 8f 3f 7a 3c 7c 77 d6 bd
       -0.091608554 0.12607737 0.015273943 -0.104720086
0001c0 d0 05 cb 3d d3 61 bc bc 53 4a 1b 3d df 00 b8 bd
       0.09913218 -0.022995865 0.037912678 -0.08984541
0001d0 93 42 b8 bc 68 32 1c 3e 46 b3 19 3e d4 bd 96 3c
       -0.022492683 0.15253603 0.15009794 0.018401064
0001e0 b6 82 28 bd c2 6d 72 bd 1b 50 f3 bd 7a 91 08 be
       -0.04114028 -0.059186704 -0.11880513 -0.13336745
0001f0 e2 70 14 3e dc 6e 9d bd 18 4f c0 3d 71 a7 e5 3d
       0.14496186 -0.076871604 0.09390086 0.112135775
000200 60 0e a4 bd 29 d6 1e be 57 4e ec bd a2 d0 1b 3e
       -0.08010554 -0.15511383 -0.1153838 0.15216306
000210 d8 36 9c 3d e1 05 e8 bd 88 8d e1 bd 9f 21 81 bc
       0.07627648 -0.11329246 -0.11013323 -0.015763102
000220 1d 65 c1 bc 54 97 5d bc d1 de f0 3d ed 85 92 3d
       -0.023607785 -0.013524849 0.11761249 0.071544506
000230 f1 59 ed 3d 4b 2f 54 3d d8 6f 91 bd 5a b0 b8 3d
       0.115894206 0.051802915 -0.071014106 0.090180114
000240 42 d8 13 3e 29 ac 1d be 9b 42 92 3c 0f 32 ec bc
       0.14437965 -0.15397705 0.017854026 -0.028832464
000250 a0 e0 ec bd 11 28 f8 3d 5f 38 12 3e 87 e9 1e 3e
       -0.11566281 0.12117017 0.14279316 0.15518771
000260 f7 1a 46 3a e2 25 d2 bc 42 6b d6 bd 26 7d 19 be
       0.00075571187 -0.02565283 -0.104696766 -0.14989147
000270 90 65 ab 3d cb a3 e8 3c e0 4c 05 be b9 ad f6 bc
       0.08368981 0.028398415 -0.13017607 -0.030112134
000280 ef e6 ec 3d 58 f1 0b 3b 07 dc d3 bb 08 97 7f 3c
       0.115674846 0.002135357 -0.0064654383 0.0155999735
000290 ab 59 f1 3d c3 44 3a 3d 22 02 6c bd 57 55 ff 3d
       0.11784681 0.045475733 -0.05761922 0.12467449
0002a0 1b a4 54 bd 9d 91 93 bd 1f 56 6b bd 35 cf ca bd
       -0.051914316 -0.07205508 -0.05745518 -0.09902803
0002b0 91 81 99 bd d2 68 e1 bd d6 20 85 3d 39 75 69 3b
       -0.07495416 -0.11006321 0.065004036 0.0035622849
0002c0 ee 1f b0 bd ec 59 d1 3d ef 24 1e 3e 09 49 ec 3d
       -0.0859984 0.10222229 0.15443777 0.11537368
0002d0 df da a8 3d a3 7d a3 3d 6c b7 c5 bd f9 8d e1 bd
       0.08244871 0.07982948 -0.096541256 -0.11013407
0002e0 ae 8c a6 3c ff c3 2d 3d 3a 54 38 bd 38 8b ef bd
       0.020330753 0.042423245 -0.0450022 -0.11696476
0002f0 dc 4e 02 3e 7a 6d ba 3d 2a af 96 bd be d4 12 be
       0.12725395 0.09102912 -0.07357629 -0.14338967
000300 b5 b1 07 3d 96 5d a2 3d 9b 55 55 bc 33 dd 86 3c
       0.03312846 0.07928006 -0.013020898 0.016462898
000310 97 78 75 bd 58 05 09 be f9 52 a9 bb 14 76 18 be
       -0.059929457 -0.13380945 -0.005167362 -0.14888793
000320 0d ee f6 bd f6 44 10 3e 7d b5 9c bc 20 a6 8b bb
       -0.12057123 0.14088807 -0.01912951 -0.004261747
000330 e9 55 18 3e f2 a5 0a be be 22 b1 bd 5f 41 01 bd
       0.14876522 -0.13539866 -0.08649205 -0.031556483
000340 9d 36 82 3d 63 43 cd bd 95 4c a2 bd 4d c4 ee 3c
       0.06358073 -0.100226186 -0.07924763 0.029146338
000350 19 df f2 3d 50 56 16 bd 84 9e 04 be 11 d7 5d bd
       0.11858959 -0.036703408 -0.12951094 -0.05416018
000360 c7 4a be 3d 3d 45 57 3c 42 33 91 3d a4 bf 08 be
       0.092916064 0.013139066 0.07089855 -0.13354355
000370 8d 85 f6 bd 41 b2 fb bd 9e 13 6e 3d f9 d3 12 be
       -0.120371915 -0.122898586 0.058124177 -0.14338674
000380 ac ee 3a 3d 5a 81 6b 3c 87 ca a8 3d c0 3f 0d 3e
       0.04563777 0.014374102 0.08241754 0.1379385
000390 b3 cc 9e bc 0d e1 f6 bd 0a 4c e8 3d c1 19 b5 3d
       -0.019384718 -0.12054644 0.11342628 0.08842803
0003a0 49 ef 1d 3e 69 c6 04 be 45 87 45 3d f5 8e 35 3d
       0.15423311 -0.12966312 0.048224706 0.044325788
0003b0 7b 48 09 3e 1e 6e e6 bd 54 4e 10 3e df e2 47 3c
       0.13406555 -0.11251472 0.1409238 0.012200086
0003c0 4d b2 ba 3d c9 96 12 3e 5e 2e f1 bc 51 4a 11 3e
       0.091160394 0.14315332 -0.029441055 0.14188506
0003d0 4b ec 04 3e 9f fb 8b 3d ef 3a e0 3d a0 a1 9c 3d
       0.12980764 0.06835102 0.10948741 0.07648015
0003e0 9f d9 82 3d 15 9e 83 bd b3 34 60 3d a8 ff 4c 3d
       0.06389164 -0.06426636 0.054737758 0.0500485
0003f0 2b ad 7c 3d e5 34 a1 bd 67 4f b4 bd f6 9d 5f bd
       0.061688583 -0.07871417 -0.08804207 -0.054594003

conv_layer.conv_layers.1.parametrizations.weight.original f4 [32, 8, 7, 7]
000000 08 8b 12 bc 09 a1 5f 3d 3b fb 19 bd 3f be f7 3c
       -0.00894428 0.054596934 -0.037593108 0.030242084
000010 f3 ce cc 3c 19 8f bc bb 03 c6 77 bd 15 9c 2f 3d
       0.025001025 -0.0057543633 -0.060491573 0.04287346
000020 b7 36 a9 bc f5 6c c1 3c db ef 4c 3d e6 e0 16 bc
       -0.020655973 0.023611525 0.05003343 -0.009208893
000030 69 57 63 3c 3b f6 69 3d b6 8c 1e bb 88 5e 39 3c
       0.013875821 0.05711959 -0.0024192757 0.011314042
000040 a0 ed 32 bd b6 b1 e0 3c fe 48 fb bc 17 60 e5 bc
       -0.043683648 0.02742849 -0.030674454 -0.02799992
000050 e2 9a 9c 3c 83 e5 1f 3c a2 03 90 3b 2f 50 90 bc
       0.019116823 0.00975931 0.0043949643 -0.01761636
000060 b4 ee ca 3c d8 58 74 bc fd f7 1b 3d 12 e1 2f 3d
       0.024772026 -0.01491376 0.038078297 0.042939253
000070 f0 58 7c 3c bf 75 45 bd 6c 4c 44 3d fa 72 d9 3c
       0.015402064 -0.048207995 0.047924444 0.026544083
000080 c1 97 d4 3c 45 23 64 bd 25 9b 23 3d e1 40 62 3d
       0.025951268 -0.0556977 0.03994288 0.055237655
000090 34 1b 5f 3d 2b 1f 5b 3d 98 99 16 bd 3a 5d 45 bd
       0.054469302 0.05349652 -0.036767572 -0.04818461
0000a0 ad cf b5 3b 35 d9 62 3d ab 86 8f bc 1d 6e de bc
       0.0055484385 0.055382926 -0.01752027 -0.027152115
0000b0 43 19 24 bd cf 7f 26 3d 8e e6 4a bd 65 e7 ca bc
       -0.040063154 0.04064923 -0.04953628 -0.02476854
0000c0 c1 5b 82 3c a3 5b f3 bc f1 01 2f bd d9 26 55 3d
       0.015912892 -0.029706782 -0.04272646 0.052039
0000d0 d3 cc f3 bc 96 37 6b bb d7 65 45 bc 2a 4f 90 39
       -0.029760754 -0.0035891286 -0.012048206 0.00027524802
0000e0 73 82 0d bd 73 b4 35 3d 45 07 4f 3d 37 35 0e bd
       -0.034548234 0.044361543 0.050544042 -0.03471872
0000f0 da 78 0f bd b7 ee b6 bc b2 30 4b 3d 31 c9 5f 3d
       -0.035027362 -0.022330625 0.049606986 0.05463523
000100 c7 04 5c 3d 2a c0 9b 3c 3c a6 41 3c 29 fe f8 bc
       0.053715494 0.01901253 0.0118194185 -0.03039463
000110 5d 2b 8a 3c cc 90 01 bd 87 cf b3 3c 20 2b 62 3d
       0.01686638 -0.03163223 0.021949543 0.05521691
000120 66 53 8c 3b 10 8d e2 3c 48 7e 15 bd fc aa a5 bc
       0.004282403 0.027655154 -0.036497384 -0.020223133
000130 bd b8 ac 3c c4 8b 7e 3d b2 11 83 39 e9 6a 63 bd
       0.021084184 0.06214501 0.0002499945 -0.05552188
000140 56 bb ae 3b 51 bb 26 3d 22 cf 23 bc af 22 19 3d
       0.005332391 0.040705983 -0.009998115 0.037386592
000150 3a 70 59 bb 73 68 36 3d d6 e2 b2 bc e6 af 46 3c
       -0.0033178465 0.044533204 -0.02183668 0.012126898
000160 5b d8 09 3d 72 dd 10 bd ec 24 58 3b 09 91 4a 3d
       0.0336536 -0.035367437 0.0032980992 0.049454723
000170 f8 63 72 bd 75 7e bf 3b 26 29 8b 3c f5 5c b8 3c
       -0.05917737 0.0058439323 0.016987395 0.022505263
000180 59 5e 6b bb 8c c8 d6 bb 6e 39 16 bd bd cb c5 3c
       -0.003591439 -0.006554669 -0.036675863 0.024145002
000190 a5 6b 63 3a 76 d9 65 bd 84 02 71 bd 63 86 1b 3c
       0.0008675403 -0.05611559 -0.05884029 0.0094924895
0001a0 8c eb 87 bc 80 36 7e 3c b1 71 1a 3d 51 cc 1a 3d
       -0.01659181 0.0155159235 0.03770608 0.037792508
0001b0 02 fd 1c bd a6 e4 d6 bb 0d c3 46 bd 91 1d 8c 3c
       -0.038327225 -0.0065580187 -0.04852586 0.017103942
0001c0 3f ea 4d 3c 04 46 d9 bc a5 f4 6d 3b 38 de a5 bc
       0.012568056 -0.026522644 0.003630915 -0.020247564
0001d0 5e d8 44 bd f9 e0 80 bc e0 69 77 3a f8 cd dc 3c
       -0.048057906 -0.015732275 0.0009438079 0.026953682
0001e0 4c 4d d2 bc 5c 8f 2a 3d 5c 45 3f bd db 9c 02 bd
       -0.025671624 0.041640624 -0.046697006 -0.03188787
0001f0 3a c3 6f 3d 92 b4 07 3d a3 6d 6a 3d 5b b3 72 bc
       0.058535792 0.03313119 0.057233464 -0.0148132695
000200 39 80 40 bc f5 15 71 3d 73 e1 66 bd 1c 62 64 bd
       -0.011749321 0.05885883 -0.05636735 -0.055757627
000210 7d 25 c4 bb 00 14 1b 3d b0 04 71 bc 97 0a 22 bd
       -0.0059859143 0.03786087 -0.01471059 -0.03956088
000220 12 40 46 3c c8 fb 78 bd fa 10 5a bc 62 70 de 3c
       0.0121002365 -0.060786992 -0.013309712 0.027153198
000230 72 dc 89 bc c6 68 62 3d a9 78 61 bd f2 c4 b9 3c
       -0.01682875 0.0552757 -0.05504671 0.022676919
000240 fe 01 0c bd 39 9e 6e bd 8c 23 57 bc e8 64 5e 3d
       -0.034181587 -0.05825636 -0.013131034 0.05429545
000250 64 67 13 bd 91 39 6e 3b f7 71 b9 bc b2 e9 08 3d
       -0.035987273 0.003635023 -0.02263735 0.033425994
000260 70 87 75 bd b0 d9 0f 3d ed 7d 16 3d 3a c6 c1 bc
       -0.059943616 0.035119712 0.036741186 -0.023654092
000270 60 a1 91 3c c0 b7 e8 3c 0d e8 d6 3c 31 d7 6f bc
       0.017777145 0.028407931 0.026233697 -0.014638708
000280 f8 c8 6a bc 9c 53 03 bd fa 07 c0 3c a0 03 b8 bc
       -0.014330141 -0.032062158 0.023441304 -0.022462666
000290 0e bf 32 bd b3 d9 4c bd bd 05 65 bd 71 16 51 bd
       -0.043639235 -0.0500123 -0.055913676 -0.051046792
0002a0 46 92 7c bd d6 19 68 bc 17 ab 36 3d 04 0e 0d bd
       -0.061662935 -0.014166316 0.044596758 -0.034437194
0002b0 fe 89 2e 3c 74 fa fe bc 6f 1a 30 bd 55 87 d9 3c
       0.010653017 -0.031125285 -0.04299396 0.02655379
0002c0 6d 76 f5 bc c9 c9 3e bd a6 1c 2d 3d dc f1 3e 3b
       -0.029963696 -0.046579156 0.04226365 0.0029135859
0002d0 ed 2d 36 3d f1 01 07 bd ba 42 76 bd d5 fe bc 3c
       0.044477392 -0.032960836 -0.06012223 0.023070732
0002e0 ef a0 31 bd a4 9b 7a 3d 30 8f 56 3d 60 9a 0b bd
       -0.04336637 0.061183587 0.052382648 -0.03408277
0002f0 58 24 aa bc 75 fe 68 bd a7 c0 a5 bc 0f de ff 3c
       -0.020769283 -0.056883294 -0.020233465 0.031233815
000300 d1 e6 ef 3c 13 5c b1 bb f9 7d 7b bd 89 12 46 ba
       0.029284867 -0.0054125874 -0.061399434 -0.00075558625
000310 56 32 aa 3b 15 32 3f bd fc 94 fc bc 97 1a 04 3d
       0.005193989 -0.04667862 -0.03083276 0.03225192
000320 6a 87 fc bc b0 ca a3 bb a0 bb 36 3d 24 12 47 39
       -0.03082629 -0.0049985275 0.044612527 0.00018984877
000330 18 8c 5a bc ba 49 99 3b d6 6a e8 3b c8 3a c7 3c
       -0.013339065 0.0046779783 0.007092814 0.024320021
000340 1a da 53 bc c2 f0 46 3d 3c d5 36 3d fa 74 50 3d
       -0.012930417 0.04856945 0.04463695 0.050892808
000350 0a a9 d0 3c 2e 0f 24 bc af 66 49 bd 9f 00 72 3d
       0.02547123 -0.010013385 -0.049170192 0.059082624
000360 dd 20 5a 3d e1 ed 4c 3d 1e e9 69 3b d6 bb 52 bb
       0.053253997 0.050031547 0.0035691927 -0.0032155416
000370 45 2c c8 bc 0f 57 14 3d af da 12 3c c3 6e 36 3d
       -0.024435172 0.036215838 0.008963271 0.044539224
000380 16 3e 61 bd e3 90 33 3d 62 2a fe bc c2 85 45 bd
       -0.05499085 0.043839347 -0.03102607 -0.048223265
000390 04 6b bc bc 23 bc 2c 3d 2d 6e 9f bc b5 08 24 3d
       -0.023000248 0.04217161 -0.019461716 0.040047366
0003a0 4e 18 bb 3c 6a 52 2f 3d 33 12 16 bd b8 35 83 bc
       0.022838738 0.042803206 -0.03663845 -0.016016826
0003b0 ca 3c 0a bd 5e 0c 29 3d a4 92 16 3d 62 e3 75 bd
       -0.03374938 0.04127156 0.03676094 -0.060031302
0003c0 86 df d9 bc 2d 6b 9f 3a 76 a8 a7 bc a7 a4 85 bc
       -0.026595842 0.0012162678 -0.02046607 -0.016313864
0003d0 69 14 c2 3c 3c a6 68 3d d2 fc d1 3c 17 03 c8 bb
       0.023691373 0.05679916 0.02563325 -0.006103884
0003e0 85 de 6c bd b0 76 48 3d 48 eb 89 3c a6 30 e0 bb
       -0.0578294 0.048941314 0.016835824 -0.006841737
0003f0 a6 4b 2b 3d 13 b8 74 3d 7c b2 83 b8 ee 05 fa 3b
       0.04182019 0.05974586 -6.279812e-05 0.0076301014

activation.coefficients_vect f4 [672]
000000 d3 e5 f9 b9 a0 3e 03 3a 86 9d 82 b9 0b 9b 9b b9
       -0.00047664213 0.0005006585 -0.00024912896 -0.0002967942
000010 62 cf 0c ba 90 07 90 39 9e 2a d5 b9 d0 06 92 39
       -0.00053714786 0.00027471455 -0.00040658278 0.00027852366
000020 ac af 92 b9 cc 72 fa b9 db 9e 5f 39 1c b9 a9 39
       -0.00027978176 -0.00047769246 0.00021326116 0.0003237211
000030 19 d8 16 3a 34 31 94 39 b7 9c 91 b9 19 5f 0a 3a
       0.0005754247 0.0002826542 -0.00027773317 0.0005278453
000040 3f da 99 39 94 ce 8f b9 43 23 e3 39 1c 67 02 ba
       0.0002934504 -0.00027428998 0.00043323086 -0.0004974471
000050 d2 18 f8 39 b9 aa fb b9 24 59 03 3a 62 55 9c b9
       0.0004732074 -0.0004800165 0.00050105364 -0.00029818254
000060 f8 25 b5 b9 08 65 0b ba 81 0e 90 39 bb 36 d4 b9
       -0.000345513 -0.0005317484 0.00027476627 -0.00040476568
000070 d4 19 92 39 f6 3a 92 b9 4b 05 f9 b9 58 ba bf 38
       0.00027866533 -0.0002789122 -0.00047496925 9.142299e-05
000080 db 74 f7 39 c6 68 6c b9 4e 1d 03 3a 43 81 95 39
       0.00047198575 -0.00022545745 0.000500162 0.00028515802
000090 2b 78 90 b9 98 5d 0b 3a 20 93 9a 39 86 9d 82 39
       -0.00027555352 0.0005316376 0.00029482786 0.00024912896
0000a0 88 f2 01 ba 52 3e f9 39 12 55 fa b9 fb 96 05 3a
       -0.00049570994 0.00047539413 -0.00047747098 0.0005096045
0000b0 61 c0 e9 b9 cd dc 8f 39 8c b8 e0 b9 12 a1 91 39
       -0.00044584557 0.00027439595 -0.00042862108 0.00027776562
0000c0 27 a3 97 b9 e6 77 bd b9 6c 97 1c ba 97 f7 cf b9
       -0.00028922522 -0.0003613822 -0.00059734914 -0.00039666586
0000d0 13 af 01 39 7b 66 00 3a 36 2c 75 b9 a8 c6 08 3a
       0.00012367619 0.0004898083 -0.0002338149 0.00052175904
0000e0 f4 84 97 39 f6 d4 91 b9 c9 43 11 3a f9 48 9d 39
       0.00028900022 -0.00027815223 0.0005541412 0.00029999742
0000f0 86 9d 82 39 dd f5 01 ba 64 4a f4 39 fe 9c fc b9
       0.00024912896 -0.0004957596 0.00046594732 -0.00048182154
000100 c3 88 03 3a e5 9f e0 b9 9c 9a 8f 39 f1 bf d9 b9
       0.00050176325 -0.0004284374 0.00027390278 -0.00041532473
000110 7f 30 90 39 5c d1 95 b9 a9 62 19 ba 69 d5 1e b9
       0.00027501953 -0.0002857548 -0.00058511883 -0.00015147556
000120 78 79 15 ba 0a 21 1e b9 b4 b4 f8 39 92 13 92 39
       -0.0005701999 -0.00015080362 0.0004743688 0.0002786187
000130 b6 67 92 b9 41 54 06 3a 9b 58 97 39 db 49 90 b9
       -0.0002792456 0.0005124249 0.0002886698 -0.00027520847
000140 de 2b dd 39 86 9d 82 39 1d 8e 03 ba d8 80 fc 39
       0.00042185088 0.00024912896 -0.000501843 0.00048161182
000150 d0 96 03 ba 4f d9 0c 3a f3 32 ec b9 a1 30 8d 39
       -0.0005019726 0.00053729577 -0.00045051388 0.00026929847
000160 10 a1 9d b9 4a 18 0e ba e2 76 8f 39 94 8d 96 b9
       -0.00030065374 -0.00054204895 0.0002736366 -0.00028715713
000170 76 6b b8 b9 05 c2 18 ba ff 9d b2 39 64 b4 25 3a
       -0.0003517528 -0.0005827251 0.00034068522 0.0006321131
000180 0e 28 b8 39 96 0b b5 39 ee 0d 99 39 94 70 8e b9
       0.00035125058 0.00034531642 0.00029192813 -0.00027168228
000190 70 5c e1 39 d3 8d 8d b9 8d bb eb 39 19 fb 0a ba
       0.00042984216 -0.00026999283 0.0004496243 -0.00053016987
0001a0 73 c6 01 3a 77 fe fa b9 d6 c5 03 3a fe 5b e4 b9
       0.0004950531 -0.00047873307 0.0005026733 -0.00043556088
0001b0 cc 4d 90 39 09 95 dc b9 19 04 91 39 1d a7 96 b9
       0.00027523784 -0.0004207271 0.00027659608 -0.0002873474
0001c0 17 ae 19 ba f4 d7 1c b9 0d 5b 16 ba 36 1e 94 38
       -0.0005862428 -0.00014957768 -0.00057356135 7.062817e-05
0001d0 e0 b6 aa 39 b0 04 18 3a 94 da b4 39 c7 c4 96 39
       0.0003256118 0.00057990383 0.0003449513 0.0002875684
0001e0 cb f5 90 b9 2f 3b dd 39 c2 cf 8f b9 29 89 e5 39
       -0.0002764895 0.000421965 -0.00027429877 0.00043780476
0001f0 c4 50 05 ba ec ea fc 39 0a 96 01 ba 39 d3 07 3a
       -0.00050855824 0.00048240216 -0.0004943317 0.0005181316
000200 86 9d 82 b9 48 f0 df b9 77 08 8e 39 b8 00 99 b9
       -0.00024912896 -0.00042712898 0.00027090657 -0.0002918297
000210 47 81 07 ba 0a bd 45 39 18 13 18 ba 06 e5 ab b9
       -0.0005169105 0.00018857807 -0.0005801185 -0.00032786297
000220 42 65 17 39 c2 61 ab 39 14 ea 17 3a 5f 2a 47 b9
       0.00014438204 0.00032688497 0.0005795073 -0.00018993903
000230 4f 7e 07 3a 7e 21 99 39 38 ef 8d b9 9e 9d df 39
       0.0005168663 0.00029207388 -0.00027071848 0.00042651308
000240 86 9d 82 39 1d db 06 ba 44 90 00 3a d6 4d 00 ba
       0.00024912896 -0.0005144345 0.000490431 -0.0004894411
000250 e5 88 07 3a 45 7d e6 b9 de b5 8e 39 79 47 9b b9
       0.000517024 -0.00043962352 0.00027219852 -0.00029617155
000260 73 26 0c ba 12 dc 90 39 d0 32 95 b9 8b f2 b3 b9
       -0.00053463056 0.00027629785 -0.00028457353 -0.0003432225
000270 7e 12 16 ba 9b 19 c1 b9 71 e7 ab 39 91 7f 18 3a
       -0.00057248014 -0.00036830906 0.000327881 0.0005817349
000280 1c 39 95 39 9d e7 90 b9 31 73 da 39 93 2d 8f b9
       0.00028462044 -0.00027638386 0.00041666024 -0.0002730904
000290 20 13 e2 39 85 9d 82 39 1c f7 07 ba a4 ed 00 3a
       0.00043120328 0.00024912893 -0.00051866635 0.0004918224
0002a0 90 5e 02 ba 7a 63 09 3a 86 9d 82 b9 22 4f 9d b9
       -0.00049731974 0.00052409584 -0.00024912896 -0.00030004332
0002b0 da bd 0d ba d8 39 8e 39 09 85 97 b9 4a 88 05 ba
       -0.0005407013 0.00027127448 -0.00028900083 -0.0005093856
0002c0 9a 91 5d 39 f0 90 fa b9 93 f3 a8 b9 ce f1 aa 39
       0.00021130443 -0.00047791703 -0.00032224934 0.00032605085
0002d0 a3 38 18 3a 43 24 95 39 e2 0d 90 b9 b8 61 0b 3a
       0.00058067794 0.00028446512 -0.00027476164 0.00053169904
0002e0 03 60 b5 39 30 4c 9d 39 85 9d 82 39 6e 32 09 ba
       0.00034594545 0.00030002138 0.00024912893 -0.000523365
0002f0 b6 f4 01 3a 61 3c 01 ba 6a d4 07 3a 86 9d 82 b9
       0.0004957424 -0.00049299566 0.00051814935 -0.00024912896
000300 a4 54 e0 b9 92 37 8f 39 85 eb d8 b9 af 75 90 39
       -0.00042787672 0.0002731649 -0.00041374206 0.000275535
000310 5e e7 94 b9 15 f8 17 ba a8 6f ab b9 06 5d cc 38
       -0.00028401142 -0.000579716 -0.00032698852 9.744805e-05
000320 00 a2 fa 39 25 d0 92 39 cb c0 91 b9 b4 7e d5 39
       0.00047804415 0.0002800237 -0.00027800197 0.00040720927
000330 5f a1 8f b9 d9 40 dc 39 c3 3c 8f b9 b1 d2 e4 39
       -0.00027395316 0.00042009985 -0.00027320356 0.00043644526
000340 2b c9 06 ba f4 43 00 3a d2 67 01 ba 2f 18 08 3a
       -0.00051416707 0.00048929383 -0.000493643 0.0005191592
000350 e9 33 9f b9 ec 04 b5 b9 52 85 0d ba d0 24 d5 b9
       -0.0003036552 -0.00034526677 -0.00053985894 -0.00040653953
000360 e8 1e 90 39 01 88 95 b9 df c1 b4 b9 01 12 16 ba
       0.00027488847 -0.00028520825 -0.0003447672 -0.00057247287
000370 f3 96 f1 39 9f dd 73 b9 ae 4b 02 3a 08 3b b5 39
       0.00046079568 -0.00023256846 0.00049703836 0.00034566992
000380 bf 23 98 39 5b ed 8e b9 8b 6b df 39 0f b7 8d b9
       0.00029018332 -0.00027261194 0.00042614 -0.00027030005
000390 4a 7f e8 39 1c 36 09 ba b6 72 01 3a 54 78 fb b9
       0.00044345326 -0.0005234198 0.0004938053 -0.00047964102
0003a0 2d 53 03 3a 42 3d e1 b9 5e fb 8e 39 53 70 99 b9
       0.00050096476 -0.00042960985 0.00027271634 -0.00029266122
0003b0 e9 93 09 ba 6d a4 90 39 03 6d 94 b9 4f 3c 17 ba
       -0.00052481756 0.00027588327 -0.0002830998 -0.00057691796
0003c0 18 26 ab b9 3d ef a8 38 4c 8f f8 39 62 26 92 39
       -0.00032644044 8.055426e-05 0.0004740901 0.00027875887
0003d0 12 1f 92 b9 d8 38 d4 39 6d 16 90 b9 8d 78 d4 39
       -0.0002787044 0.00040478143 -0.0002748253 0.00040525608
0003e0 a8 5e 0e 3a 7d 9b 9c 39 39 b9 02 ba 8f dc f9 39
       0.0005430975 0.00029870486 -0.0004986707 0.0004765731
0003f0 24 1c fd b9 ae 0d 05 3a 92 a9 e4 b9 0d 15 90 39
       -0.00048276887 0.0005075586 -0.0004361389 0.00027481504
