src/crr_nn_best_model.pth (torch, 57644 bytes, 3 tensors)

conv_layer.conv_layers.0.parametrizations.weight.original f4 [8, 1, 7, 7]
00000000: aadf 5abd ade9 c1bc 3f90 0abd bedc 593d
00000010: f83d 0e3e f8f0 07be 761b 413d 79bb 04be
00000020: 4c08 da3b 3cf7 b03d d416 1f3d e03c a3bc
00000030: 043d 713d 393e 193e c3ff 063d 9144 f33d
00000040: 7642 eabd c701 92bd 703d 0f3e 02bb f0bd
00000050: bf9d dabd 709f 7ebd 3fee a63c 5dfb 6dbd
00000060: fc4c 053c 52d4 b43d cd8f a9bd 6731 053e
00000070: 8c55 c4bd 49aa c8bc f86b a73d f3b6 0dbe
00000080: d026 5c3d 36cb 743d 870a 9b3d 5fbc ccbc
00000090: 29da 103e 1dfe e0bd 9f12 efbd 75a8 31bd
000000a0: 1445 1e3d 402b 1e3d b986 e4bc b0cc a23d
000000b0: ce94 c4bd 5ecd 0dbe 27f3 683d 1f5a 853d
000000c0: cb7d a43d a01d 44bd f64f 0e3d 3b43 f93d
000000d0: ec2e 04be e470 08be 192b 1d3e a676 e8bd
000000e0: 45f2 8d3d 4f3a 8b3c 55c9 a73d 3b00 c43d
000000f0: 902d adbd d5aa d13d aed4 c33d 3e57 003e
00000100: 60f1 913d 8334 17be 1ce9 33bd fc0f df3d
00000110: bc3a 893d 9375 efbd e3cb 6d3c 7bed 173d
00000120: 8192 a6bd 3fdf c13c ecd1 6f3d 0660 71bd
00000130: c1b3 06bd 19c1 9a3d c9c9 e3bd c6d8 223d
00000140: 205f 49bd d445 1f3e af02 ccbd 0153 043e
00000150: d516 863d 03ae 8d3d 4f45 d33d 5c39 fd3a
00000160: b352 9f3b 7241 17be 5b9f 223e 05f1 133d
00000170: 3fff 063e eec0 c6bd 9ac6 cbbc dfd8 9bbd
00000180: 9588 e3bd 5c37 063e 2c42 10bd 2127 c4bd
00000190: 2fed 70bc 4913 1b3c b57f 06be b17a 8f3d
000001a0: 54e6 c73d c83a 373b 52b4 04bd 1445 2e3e
000001b0: ed83 d93c 5224 493c ac4c 043e 9282 8f3d
000001c0: 3011 193d 326c 143e e9df 10be 66e1 a3bb
000001d0: e901 1c3e 81dc 33bd 5436 953d c9c5 143e
000001e0: 9e6f dabd 81ea bcbd 47ee be3b 3881 e2bd
000001f0: 4345 2bbd 0b4d 42bd da12 36bd 0650 2cbe
00000200: aa60 9bbc 07a4 00be 0098 7a3d 3115 d3bd
00000210: 8105 26be 7b6c 5d3d 985f 0d3e 9251 b53d
00000220: 4709 1ebd acb4 80bd 567c 993b 6fe7 973d
00000230: 96d1 b3bc 8a69 9e3d 4b80 c8bc 767b 49bd
00000240: aa26 043e de09 0bbe c2dc 563d dd59 1cbe
00000250: f7f8 d93d b0ec 243d f45d 80bd 5082 d83d
00000260: 6ea8 013d a6fe db3d c267 21bc e3bc b9bc
00000270: fca2 78bc 81b1 02be e365 e0bd 91aa 4bbd
00000280: 617c 153d 27ab 0e3d 3fe8 b63d 323c 213e
00000290: 51be ef3d aec9 883d 388c 93bd 4a3c f4bd
000002a0: 78d2 13bc 1659 d53d c02b d7bd bc91 713d
000002b0: b401 e7bd b4c3 c0bd 1b27 3ebd 89b1 73bd
000002c0: d9cc 833c 5d91 17be e4e9 0b3e 2f81 09bc
000002d0: 91b2 5c3d 6f83 c83d 937d efbd 78ef c0bd
000002e0: fdf3 e83d b4ca 87bc 18d7 9f3d c788 fa3d
000002f0: 0c6f 6a3d 3c42 133e 08db a33c 0f6e 2f3d
00000300: 54f6 37bd f3e0 0ebe 920e e73d 4276 7c3d
00000310: 6289 aabc 968d cc3d b5b3 0b3e 51a8 913b
00000320: 7e81 a7bd 6253 153c eea8 bfbd b7f5 9a3d
00000330: e575 22bd f19a 003b c903 423d 501d e3bd
00000340: 2786 33bc deaf 02be 2267 e43d 90a1 6c3d
00000350: e585 89bd 6a2d 26bd 8a43 d13d 88b1 ce3d
00000360: db08 a2bd 30ee aa3d 9e78 15be 1bee d63d
00000370: e462 80bd aec5 07be b9b6 8f3d b01b 723d
00000380: 7221 b03d f8b7 e4bd cbf0 e6bd 5571 de3d
00000390: d4b0 b73c c2ab d9bd acaf 693d 0353 963d
000003a0: d23d ef3c 68a2 e2bd 8c4d 98bd 0942 213e
000003b0: f067 a43d cc30 c5bd c4dd 98bb 6a1f f93d
000003c0: 387a c4bc 84dd b7bd e3ee 1cbd 16bc 2b3d
000003d0: 5048 61bd 53ff 5ebd 94b3 89bd ef39 bebd
000003e0: d1ca 123e 6bd8 0fbe 128a 143d c3ad 43bd
000003f0: 3e0e 10be 1922 14be 7b40 14be 75e1 fc3d
-0.05343596 -0.023670996 -0.03382897 0.05318903 0.13890827 -0.13275516 0.04714533 -0.1296214
0.006653821 0.08640906 0.03884013 -0.019926488 0.05889608 0.14965142 0.032958757 0.118783124
-0.11438458 -0.07129245 0.1398828 -0.11754419 -0.10674619 -0.06216377 0.020377276 -0.058101047
0.00813603 0.088295594 -0.08279381 0.13007127 -0.09586629 -0.02449526 0.0817489 -0.13839321
0.053747952 0.05976411 0.07570367 -0.024992166 0.14145721 -0.10985968 -0.116734736 -0.043373544
0.038640097 0.038615465 -0.027896272 0.07949197 -0.09598695 -0.13847873 0.056872513 0.0651133
0.080318056 -0.047879815 0.034744225 0.12171026 -0.12908524 -0.13324314 0.15348472 -0.113507554
0.06930975 0.016995577 0.08192698 0.095703565 -0.08455956 0.10237662 0.0956205 0.1253328
0.07126117 -0.14766125 -0.043923482 0.10891721 0.06700656 -0.116923474 0.014513942 0.037091713
-0.08133412 0.023666022 0.058549806 -0.058929466 -0.03288627 0.07556362 -0.11122472 0.039757513
-0.049162984 0.15553981 -0.09961449 0.12922288 0.065473236 0.06917956 0.10315954 0.0019319463
0.0048621534 -0.14771059 0.15881102 0.036118526 0.13183306 -0.09704767 -0.024874974 -0.07609724
-0.11110035 0.13107055 -0.035219356 -0.09577776 -0.0147049865 0.009465047 -0.13134654 0.070058234
0.097607285 0.002795862 -0.03239853 0.17018539 0.026552165 0.012276726 0.12919873 0.07007326
0.037369907 0.14494398 -0.14147915 -0.005001235 0.15235104 -0.04391146 0.07285753 0.14528574
-0.106658205 -0.092244156 0.0058267447 -0.11059803 -0.0418141 -0.047436755 -0.044451572 -0.16827402
-0.018966991 -0.12562571 0.061180115 -0.10306776 -0.16213037 0.054058533 0.13805997 0.08853449
-0.038583066 -0.062844604 0.0046840115 0.07417189 -0.021950524 0.07734974 -0.024475237 -0.049190007
0.12905374 -0.13577983 0.052456625 -0.15268655 0.106431894 0.040264785 -0.0626792 0.1057173
0.031654768 0.1074193 -0.009851398 -0.022673076 -0.015175577 -0.12763025 -0.10956933 -0.04972321
0.03649557 0.034831192 0.08931016 0.15745619 0.11706222 0.06679092 -0.07204479 -0.11925562
-0.009022348 0.104173824 -0.105063915 0.058976874 -0.11279622 -0.094123274 -0.046424013 -0.059495483
0.01608889 -0.14801545 0.13663441 -0.008392616 0.05388123 0.09790694 -0.11693873 -0.09420675
0.11374662 -0.016576149 0.07804698 0.122331195 0.05723481 0.14380735 0.020001903 0.04282957
-0.04491265 -0.13952999 0.11282076 0.061636217 -0.020817462 0.09987943 0.13642772 0.0044451137
-0.081789955 0.009114118 -0.09358393 0.07566398 -0.039663214 0.0019623602 0.04736689 -0.11089575
-0.010957277 -0.127624 0.111524835 0.057771266 -0.067149915 -0.040570654 0.1021796 0.10092455
-0.07911845 0.08346212 -0.14596793 0.10494634 -0.06268862 -0.13259003 0.070172735 0.059108436
0.08600129 -0.11167902 -0.11276396 0.1086146 0.022423185 -0.10628463 0.0570523 0.07340052
0.029204283 -0.11066133 -0.07436666 0.15747847 0.08027637 -0.09628448 -0.0046651084 0.12164195
-0.02398406 -0.089777976 -0.038313758 0.04192742 -0.055000603 -0.054442715 -0.06723705 -0.09288394
0.14335181 -0.140474 0.036264487 -0.047773134 -0.14067933 -0.14466132 -0.14477722 0.1234769

conv_layer.conv_layers.1.parametrizations.weight.original f4 [32, 8, 7, 7]
00000000: 41fe 89bc 7aa2 103d 7278 833d 5801 41bd
00000010: a039 403c 8182 5b3d 7735 ad3a c8b7 c5bc
00000020: ae36 a1bc b5ba 823d 00aa 0ebc c421 633b
00000030: 7dae 943c 810f 58bb 51d0 023d 7a8f 76bd
00000040: 01c1 0abd 124c 813c e458 ed3b 916c 513c
00000050: e9ef 1cba 3669 df3c f318 86bd 8b72 93bc
00000060: 7a27 46bb f65d 38bd 1ee3 adbc 62c2 853b
00000070: b7b8 143d a917 84bd 4553 02bc cef3 703d
00000080: fb60 15bc a134 323d d289 0e3c 2df9 4abd
00000090: 7f96 e8bc 8d87 80bd 76db 20bd 0fb1 b43c
000000a0: f53f c9ba 883c 71bc 4403 863d f02f 9d3c
000000b0: b608 2dbc 29ce e03c 0486 65bd b3ec 89bd
000000c0: 0581 1c3c 625d 283d 4bb8 93bc 7dd8 1abd
000000d0: 0a54 2bbc 48ea f23a 985e 943b 581a 24bd
000000e0: 64e7 4dbc 93c5 333c 7f26 f13c ffa0 1f3d
000000f0: 6b62 34bd db3f 13bd cac5 403d 0998 f1bc
00000100: 5dc2 9d3c 1bf6 5e3d 0857 5abd d47f cbbb
00000110: 0f77 3bbd 66f5 e73b 8724 dfbb 053f 523c
00000120: 9471 133d 25df 21bd 5fd6 8f3d b321 0ebd
00000130: 1527 253c 4f7a 36bc 9cf7 30bd e0ae a6bb
00000140: 75e7 05bd 22ae 233c 920d d83b 767a 643d
00000150: 2d85 d33b 46c7 413c b893 62bd 3c19 9b3c
00000160: 0be4 24bc 5a0d 92bd cfc9 5c3c 5a31 f2bc
00000170: c9cb 173b 39b6 7e3d 1823 563d 5a04 82bc
00000180: 6023 38bc 8eb0 1a3d e9b5 dd3a 3088 8ebd
00000190: a567 233d 4a31 4ebd 488e adbc 8c53 873c
000001a0: b12b 043d d2e2 c6ba 6911 933d 9ba3 44bd
000001b0: e02e 683c b0e7 8abc 89ef 193c 916e f7bc
000001c0: a0b4 ec3c f7e5 a83c b84b 3e3d b49d e83c
000001d0: 7cef 1ebd aab5 1ebd d5b2 cd3c a838 b4bc
000001e0: 5c65 563c ce34 1f3c 9fcb 3dbd a5a9 09bd
000001f0: 5a50 3fbd 42a2 3a3d d0a7 c5bb d593 16bd
00000200: bb91 45bd 7438 083d 7f00 7dbb 0073 63bd
00000210: 0b59 893d eac1 5d3d 3748 103c ac9c 0a3d
00000220: e986 af3c ed5f 173d 7185 bdbc f139 90bd
00000230: 3935 f4bb ffdb 3d3c 8fb8 2dbc 6a9b 3e3c
00000240: bfba 27bd 6c4c 64bc 2bac fb3c 0f70 4a3d
00000250: 9236 d23c c18c 92bc 8181 0a3d f5b8 9f3c
00000260: ab13 34bd 3ea9 323d 8b62 993c b3f8 593d
00000270: 4c24 673d 2ea8 eebc 0e3d f3bc b6df 54bd
00000280: 693d 37bd 8175 89bd dea3 f7bc adbb f13c
00000290: 5141 493d e66f 5fbd acf9 783d d5a0 483d
000002a0: d66d 5e3d 2f8e 1bbd 628c 09bd 9041 7abd
000002b0: b8ff 52bd 5268 1c3d 1378 1f3c b289 5abd
000002c0: 0432 c73c 3b16 883d 3795 65bb 32de 27b8
000002d0: 49d6 24bc 4896 48bd c4f3 d73c 2dc6 1cbd
000002e0: 32bb 78bd 3d59 433d a93f 293d 79a4 7f3d
000002f0: 2f8b 963c 9f27 7fbd 33d1 343d 7b09 0fbc
00000300: a2e4 3ebd 9a7e 04bd 1a00 8fbd 453c 4cbd
00000310: ed18 ca3b a3ad 51bd 969a 0abd 1c2d 883b
00000320: f334 3c3d a0b0 683d fbd2 80bb 4d5a 003d
00000330: f42f 3dbc 56f5 0fbc 3125 1c3d 9aa1 e43c
00000340: e71c dbbc 1999 483c a113 043d 154a e7bc
00000350: f2d9 2abd f2b3 99bc e316 8ab8 e0fd c4bc
00000360: 5a87 05bd 739b f33a 857a b4bc 30e4 2a3d
00000370: 9c55 5abd eaa8 203d 9c6d b63b f360 a83c
00000380: 0038 74bd 1ff0 2dbd b97d 213d 5ff7 0d3c
00000390: 6ad3 a13c bdc9 3bbc 75a4 c93c 15cf 973c
000003a0: 2e88 233d d918 a9bc b188 acbb e6d6 583d
000003b0: 9fd5 5dbc 97a5 01bd ec98 6dbd af0c d13b
000003c0: 91ce 0f3d cc2b 58bd a2cb 5e3d 3c2b 05bd
000003d0: f9c0 18bd 183c 3ebd 763f 593c 73af fd3c
000003e0: b7d9 583d cddc 02bc 1421 62bd c8d7 13bd
000003f0: 7810 aabc 5bc3 34bc 0c73 82bd ecb5 edbb
-0.01684487 0.0353112 0.064194575 -0.047120422 0.011732489 0.053591255 0.0013214786 -0.024135485
-0.019679394 0.06383268 -0.008707523 0.0034657577 0.018149609 -0.0032968225 0.031936947 -0.060195424
-0.03387547 0.015783343 0.0072432626 0.012782232 -0.0005986677 0.027271848 -0.065477274 -0.017998954
-0.0030235932 -0.045011483 -0.021226462 0.00408201 0.03630897 -0.06449825 -0.007954423 0.05882626
-0.00911736 0.043507222 0.008699851 -0.04955404 -0.028392075 -0.06275854 -0.039271794 0.022057084
-0.0015354144 -0.014723904 0.065435916 0.019187897 -0.010561159 0.027442055 -0.05603601 -0.067346
0.009552245 0.04110468 -0.018032214 -0.037804116 -0.010457048 0.0018532956 0.004527878 -0.040064186
-0.012567375 0.010972398 0.029437302 0.038971897 -0.04403917 -0.03594957 0.047063626 -0.029491441
0.019257719 0.054433923 -0.053305656 -0.0062103067 -0.04576784 0.0070788143 -0.0068097743 0.012832408
0.03599699 -0.039519448 0.0702331 -0.034700107 0.010080119 -0.011137559 -0.04320489 -0.0050867647
-0.032691438 0.009990247 0.0065934146 0.05578085 0.006455085 0.011827296 -0.055316657 0.018932931
-0.010064135 -0.07131453 0.013475849 -0.029564548 0.0023162237 0.0621855 0.05227956 -0.015871216
-0.011238903 0.037766032 0.0016915175 -0.069595695 0.039893765 -0.050339974 -0.021186009 0.01651933
0.03226823 -0.0015173799 0.07181055 -0.04800759 0.014171332 -0.01695618 0.009395489 -0.03020409
0.028894722 0.020617468 0.04645893 0.028395511 -0.03880261 -0.038747467 0.025109688 -0.021999672
0.013085689 0.009717179 -0.046336766 -0.03360905 -0.04670749 0.045564897 -0.0060319677 -0.036762077
-0.048234683 0.033256963 -0.0038605032 -0.055529594 0.06706437 0.05414001 0.00880628 0.03384082
0.021426635 0.036956716 -0.023134919 -0.070423014 -0.0074526337 0.011588096 -0.010603084 0.011633733
-0.04094958 -0.013934236 0.030721745 0.049423274 0.025660787 -0.017889382 0.03381491 0.019497374
-0.04396407 0.043618433 0.018723747 0.053215694 0.0564311 -0.029132929 -0.0296922 -0.05197116
-0.0447363 -0.06711865 -0.030229505 0.029508436 0.049134556 -0.054550074 0.06078498 0.048981506
0.054303966 -0.037977394 -0.033581145 -0.06109768 -0.051513404 0.038185425 0.009733218 -0.053353973
0.024315841 0.06644865 -0.0035031566 -4.002284e-05 -0.010060855 -0.048971444 0.026361354 -0.038274933
-0.0607254 0.047692526 0.041320477 0.062412713 0.018376915 -0.062293645 0.04414482 -0.008730288
-0.04660476 -0.0323473 -0.06982441 -0.049862165 0.006167522 -0.051190984 -0.03383883 0.004155768
0.045948934 0.056809068 -0.003931401 0.031336118 -0.011547077 -0.00878652 0.038121406 0.027909089
-0.02674718 0.012243533 0.032245282 -0.028233567 -0.041711755 -0.018762562 -6.584616e-05 -0.024046838
-0.032599784 0.0018585756 -0.022031078 0.041721523 -0.0533043 0.03922359 0.0055672657 0.020554041
-0.05962372 -0.042465325 0.03942654 0.008664935 0.01975413 -0.011461672 0.024614552 0.018531362
0.039924793 -0.020641731 -0.0052653183 0.052939318 -0.013539701 -0.03165206 -0.058007166 0.006379686
0.035109106 -0.052776143 0.054393418 -0.032511935 -0.037293408 -0.04644403 0.013259759 0.03096745
0.052942004 -0.007987213 -0.055207327 -0.036094457 -0.020759806 -0.0110329045 -0.063696 -0.007254353

activation.coefficients_vect f4 [672]
00000000: 0000 0080 3611 b0b9 5d9f 0a39 eb07 05ba
00000010: 4b62 aa39 e3b3 80b9 63f3 3dba dfd5 ec39
00000020: 185b 8cb9 8b64 59ba a782 a23a 59cf 1a3a
00000030: 06a6 06ba 1f33 483a f422 7b39 e0c4 4b39
00000040: ba8b b4b9 a3fb 073a 7f9d 6fb9 8deb db39
00000050: 0000 0000 0000 0080 385b 9538 103e 7bb9
00000060: 8550 08ba 7b15 4cb9 ec7f 5539 e148 76b9
00000070: 1d36 8bb9 61a9 21ba 685a fe34 dc76 20ba
00000080: b299 333a c28f 8939 6e13 7339 b933 a3b9
00000090: de37 f039 1e88 7d39 2f5e b137 cf6e ba39
000000a0: a99f 99b8 0000 0000 0000 0080 91f5 21ba
000000b0: 6336 9bb9 b81a b638 dfc4 4bb9 0158 fab9
000000c0: 0140 af39 3e70 71b9 1af4 88b9 47fe bcb9
000000d0: 1765 9dba 28c0 443a e578 8939 35ca 7239
000000e0: 08cd eeb9 1ab2 1d3a e0b6 a4b9 8092 fa39
000000f0: b8c9 52b9 8610 c939 0000 0000 0000 0080
00000100: d639 a3b9 580d ff38 bfcd b8b9 7014 3e39
00000110: 0463 7fb9 2e83 00ba b0b4 6a39 c628 16ba
00000120: b1ca b239 4a86 16ba 9857 543a de4d c039
00000130: 5039 8b39 c736 7b39 c015 6ab9 7f04 4b39
00000140: dd34 283a 5e37 1bb9 3011 b639 0000 0000
00000150: 0000 0080 16a1 b2b9 8b52 2f39 c80d ecb9
00000160: 7628 9939 071c 7ab9 ebbc 90b9 00c8 33ba
00000170: 6d87 e639 1ead 3cba 567c 5c3a 0193 b639
00000180: 2eb8 60b9 0225 203a 143a 8b39 4a25 8b39
00000190: 6e96 7b39 6e3f 42b9 96dd 9239 a0cf 033a
000001a0: 0000 0000 0000 0080 0662 b6b9 7ac6 3639
000001b0: d5c4 4bb9 d8c4 4bb9 07b5 28ba cd35 023a
000001c0: 783f 75b9 401d 8bb9 3111 97b9 8034 69ba
000001d0: fc1c 6b3a d70f 6c39 e4a8 2bba 3841 4f3a
000001e0: 0e25 7b39 84d0 d8b9 d5e7 163a 461f 88b9
000001f0: f8a5 e539 0000 0000 0000 0080 a22c 3cb8
00000200: bce3 7db9 9b91 09b9 9889 8737 dfc4 4bb9
00000210: eeb8 0dba 84ff 7bb9 19b6 6e39 3fc9 d1b9
00000220: c8b2 583a 8d42 a639 d6a4 95b8 3a26 3739
00000230: 7f49 263a dfc4 4b39 c0ad 3739 6b6e b2b8
00000240: 7eee bb39 c5e4 43b8 0000 0000 0000 0080
00000250: 186f 6aba a89c 05ba b427 d539 a3e4 7cb9
00000260: c714 8bb9 6f1b 8bb9 5961 6eba 80da 043a
00000270: 5278 96b9 c7fd 7cba 5ddb 8d3a c56d e839
00000280: ad49 7139 705a 32ba ee05 573a 9eee 0fba
00000290: 947e 383a c7b7 f7b9 fffc 273a 0000 0000
000002a0: 0000 0080 1d10 2338 a6a1 9db9 4cab 1d38
000002b0: 4363 1cb9 7652 7db9 8bc8 2bba 8610 36b9
000002c0: dae3 6d38 76ba 8db9 9b9a 05ba 71e8 1c3a
000002d0: fd37 be39 ae9d 7339 04e1 4eb8 dd03 d738
000002e0: a9e3 1c3a 3c31 5739 67f6 88b9 9999 043a
000002f0: 0000 0000 0000 0080 16a6 dab9 529c 8439
00000300: bb5c 09ba 781f c539 e900 78b9 b723 8bb9
00000310: 9842 4bba 0fb4 c939 95f7 61ba 4f61 603a
00000320: d6a3 e9b9 1426 593a 7912 8b39 fb35 7a39
00000330: 2862 06ba 7145 2f3a dac4 4b39 a395 c4b9
00000340: 2be8 123a 0000 0000 0000 0080 2858 a238
00000350: a4e6 a9b9 8c75 84b8 ddc4 4bb9 afab 78b9
00000360: 5938 8bb9 2694 2eba 009e e139 176a 47ba
00000370: 2721 473a f7fb 8439 1a2d 6e39 ae0b eab9
00000380: 571d 193a a1d1 85b9 e494 d639 060f 7037
00000390: 5c10 c539 a0c6 bbb8 0000 0000 0000 0080
000003a0: bb20 49b9 80ad c237 09f1 7eb9 9619 c7b9
000003b0: 870d 7139 dec4 4bb9 2121 72b9 6909 1dba
000003c0: 3144 6039 ef1f 18ba 41de 193a 14a7 00b9
000003d0: ac04 093a b2ff 7539 dfc4 4b39 78d1 0db9
000003e0: fcf5 9839 1ddf 08b7 cf0f 4039 0000 0000
000003f0: 0000 0080 7f9e e3b9 90a7 7639 91ca 12ba
-0.0 -0.0003358216 0.00013220073 -0.0005074727 0.0003249816 -0.0002454809 -0.0007246045 0.00045172774
-0.0002677075 -0.0008292875 0.0012398557 0.0005905531 -0.0005136434 0.0007637012 0.00023950246 0.0001943293
-0.0003443638 0.0005187338 -0.00022851488 0.00041946434 0.0 -0.0 7.1218645e-05 -0.00023960345
-0.00051999866 -0.00019462958 0.00020360918 -0.00023487538 -0.00026552464 -0.0006166902 4.7376966e-07 -0.0006121227
0.00068512105 0.00026237784 0.00023181524 -0.0003112832 0.00045817991 0.00024178668 2.1143902e-05 0.00035559243
-7.3253475e-05 0.0 -0.0 -0.0006178255 -0.00029604425 8.683413e-05 -0.00019432929 -0.00047749284
0.00033426288 -0.00023025364 -0.0002612181 -0.00036047606 -0.0012008277 0.000750544 0.0002622075 0.00023154246
-0.00045547658 0.0006015614 -0.0003141677 0.00047792867 -0.00020102307 0.00038350018 0.0 -0.0
-0.00031132874 0.00012161833 -0.00035248508 0.00018127426 -0.00024355581 -0.000490236 0.0002238329 -0.00057281216
0.00034101823 -0.00057420565 0.00081002107 0.0003667911 0.00026554847 0.00023957631 -0.00022324082 0.00019361264
0.00064165686 -0.00014802578 0.0003472655 0.0 -0.0 -0.00034070824 0.0001672005 -0.00045023696
0.0002921258 -0.00023852299 -0.00027606575 -0.00068581104 0.0004396992 -0.00071974273 0.00084108615 0.00034823272
-0.00021430917 0.000610903 0.00026555418 0.00026539929 0.00023993265 -0.00018524911 0.00028012384 0.0005028192
0.0 -0.0 -0.00034786778 0.00017430811 -0.00019432914 -0.00019432919 -0.00064356666 0.00049671234
-0.00023388665 -0.0002653394 -0.00028813773 -0.0008896068 0.00089688576 0.00022512615 -0.0006548299 0.00079061417
0.0002395103 -0.00041354087 0.00057565916 -0.00025963242 0.0004380194 0.0 -0.0 -4.486426e-05
-0.00024212798 -0.0001311958 1.6157326e-05 -0.00019432929 -0.000540628 -0.00024032412 0.00022765285 -0.00040013526
0.00082663866 0.00031711572 -7.135577e-05 0.0001746648 0.0006343349 0.00019432929 0.00017516967 -8.5082684e-05
0.0003584511 -4.670468e-05 0.0 -0.0 -0.0008942946 -0.0005096891 0.00040656107 -0.00024117767
-0.00026527626 -0.00026532586 -0.00090934854 0.00050679594 -0.00028699875 -0.0009650853 0.0010822822 0.00044332273
0.00023010997 -0.00068036374 0.0008202483 -0.0005490574 0.00070379046 -0.00047248436 0.0006408244 0.0
-0.0 3.8877235e-05 -0.0003006581 3.759125e-05 -0.00014914297 -0.0002415868 -0.00065530156 -0.00017363028
5.6717407e-05 -0.0002703254 -0.00050965854 0.0005985564 0.00036281339 0.00023233026 -4.932379e-05 0.000102527185
0.0005984852 0.00020522339 -0.00026123525 0.0005058288 0.0 -0.0 -0.00041703944 0.0002529347
-0.0005239953 0.00037598214 -0.00023651462 -0.00026538756 -0.00077537587 0.00038471862 -0.00086199614 0.0008559422
-0.0004456329 0.0008283567 0.0002652591 0.00023861967 -0.0005126321 0.0006686068 0.00019432922 -0.0003749552
0.0005604054 0.0 -0.0 7.741182e-05 -0.00032406033 -6.316145e-05 -0.00019432926 -0.0002371508
-0.00026554128 -0.0006659649 0.00043033063 -0.0007607056 0.00075961876 0.0002536473 0.0002271425 -0.0004464066
0.0005840859 -0.00025523923 0.00040928193 1.4308613e-05 0.00037586957 -8.953852e-05 0.0 -0.0
-0.00019181047 2.3207394e-05 -0.0002431312 -0.000379753 0.0002298859 -0.00019432927 -0.0002309126 -0.0005990477
0.00021387708 -0.00058030983 0.0005869605 -0.00012269273 0.00052268314 0.00023460275 0.00019432929 -0.00013524841
0.00029174972 -8.158179e-06 0.00018316436 0.0 -0.0 -0.00043414903 0.0002352281 -0.0005599643
